Cif10_LI8ac86.49_tfsz_135.0_lat_0.806.tflite (tflite, 135152 bytes, 11 tensors)

tfl.pseudo_qconst1 i1 [10, 110]
00000000: e729 1bea d018 cee0 16bc d506 e021 e7ef
00000010: 1c20 0732 1d89 0b2c d12a 241b dc27 1e25
00000020: ce26 211d 0a1e 2e9b 1127 f6cf 218d 11b7
00000030: 35e8 9b12 01e2 cbd7 2ff5 2931 2819 2332
00000040: 04d8 17ec 17d0 df0b d7d6 dbd7 b330 d932
00000050: dbe6 e51f 1c3e f11e 05eb a41b d922 b581
00000060: 4526 b727 ac29 dbcb bce3 f911 c50c 19bb
00000070: 1332 dae6 dde7 151c dfea 1ce7 e020 13d5
00000080: dc20 ecbe 0e0d e5f0 ee19 e6e5 17dd e0dc
00000090: 18cb 14d7 1e15 dede d213 d9eb ecdd 1efc
000000a0: 191b eefb 1bdc f422 ea1a df09 cd1d 0a1b
000000b0: e12e c725 1107 1fe3 f1e8 1beb 1a20 1435
000000c0: eccc 0d23 1bde 03fe de15 0f14 d1b8 2c28
000000d0: 8106 d415 1515 141d 1eea e0df 2211 c6e4
000000e0: 5720 49e8 c5d0 c3d3 d0e8 d65b bb2f 2b2b
000000f0: cd39 249c f2d2 3a2c 4f3f bfe0 142d 312f
-25 41 27 -22 -48 24 -50 -32
22 -68 -43 6 -32 33 -25 -17
28 32 7 50 29 -119 11 44
-47 42 36 27 -36 39 30 37
-50 38 33 29 10 30 46 -101
17 39 -10 -49 33 -115 17 -73
53 -24 -101 18 1 -30 -53 -41
47 -11 41 49 40 25 35 50
4 -40 23 -20 23 -48 -33 11
-41 -42 -37 -41 -77 48 -39 50
-37 -26 -27 31 28 62 -15 30
5 -21 -92 27 -39 34 -75 -127
69 38 -73 39 -84 41 -37 -53
-68 -29 -7 17 -59 12 25 -69
19 50 -38 -26 -35 -25 21 28
-33 -22 28 -25 -32 32 19 -43
-36 32 -20 -66 14 13 -27 -16
-18 25 -26 -27 23 -35 -32 -36
24 -53 20 -41 30 21 -34 -34
-46 19 -39 -21 -20 -35 30 -4
25 27 -18 -5 27 -36 -12 34
-22 26 -33 9 -51 29 10 27
-31 46 -57 37 17 7 31 -29
-15 -24 27 -21 26 32 20 53
-20 -52 13 35 27 -34 3 -2
-34 21 15 20 -47 -72 44 40
-127 6 -44 21 21 21 20 29
30 -22 -32 -33 34 17 -58 -28
87 32 73 -24 -59 -48 -61 -45
-48 -24 -42 91 -69 47 43 43
-51 57 36 -100 -14 -46 58 44
79 63 -65 -32 20 45 49 47

tfl.pseudo_qconst3 i1 [110, 110]
00000000: e99e 131f 200e ecf3 b937 f519 1be6 230b
00000010: 13ed 17f5 d6dc 1d3f bdd0 f305 d4b5 0170
00000020: 1916 0dfe 04af f557 c41b 292b 1f24 402c
00000030: 32fb 3ab8 1dff f820 edd8 a90d 3146 9c18
00000040: 1b1e cd11 e137 e9e1 0081 05fe 002e 43c8
00000050: 2910 0f02 88b2 cc14 03e8 5abf 17ba fd65
00000060: f9fb 2ac4 26cc 1726 eec0 d2e7 df2b c5ef
00000070: 070f 3939 38ff 30eb 13e5 200b 510c 104f
00000080: f3e0 ec49 0de2 d410 1105 d39a 21fd 15e1
00000090: d822 d109 e90b 0601 17dc eeea d4f7 ebde
000000a0: f0ed d1f4 2cea 2836 e8f5 0bf3 1819 5701
000000b0: e056 07f8 2b12 062d fac9 1681 e208 0528
000000c0: 30d5 d51d 1016 f938 dbb9 4bf8 1703 2805
000000d0: 19f0 ea01 95f2 0e16 39e3 a2dd c884 09bd
000000e0: 1877 dacd 0928 f5f5 fc0a 790f 3f07 270c
000000f0: 49e2 3cfb e2eb 4e05 e50f 37fa 1023 df50
-23 -98 19 31 32 14 -20 -13
-71 55 -11 25 27 -26 35 11
19 -19 23 -11 -42 -36 29 63
-67 -48 -13 5 -44 -75 1 112
25 22 13 -2 4 -81 -11 87
-60 27 41 43 31 36 64 44
50 -5 58 -72 29 -1 -8 32
-19 -40 -87 13 49 70 -100 24
27 30 -51 17 -31 55 -23 -31
0 -127 5 -2 0 46 67 -56
41 16 15 2 -120 -78 -52 20
3 -24 90 -65 23 -70 -3 101
-7 -5 42 -60 38 -52 23 38
-18 -64 -46 -25 -33 43 -59 -17
7 15 57 57 56 -1 48 -21
19 -27 32 11 81 12 16 79
-13 -32 -20 73 13 -30 -44 16
17 5 -45 -102 33 -3 21 -31
-40 34 -47 9 -23 11 6 1
23 -36 -18 -22 -44 -9 -21 -34
-16 -19 -47 -12 44 -22 40 54
-24 -11 11 -13 24 25 87 1
-32 86 7 -8 43 18 6 45
-6 -55 22 -127 -30 8 5 40
48 -43 -43 29 16 22 -7 56
-37 -71 75 -8 23 3 40 5
25 -16 -22 1 -107 -14 14 22
57 -29 -94 -35 -56 -124 9 -67
24 119 -38 -51 9 40 -11 -11
-4 10 121 15 63 7 39 12
73 -30 60 -5 -30 -21 78 5
-27 15 55 -6 16 35 -33 80

tfl.pseudo_qconst5 i1 [110, 1, 1, 165]
00000000: f4fb 01fa 0836 0f0f ed14 08de 11f6 321b
00000010: 3c21 e5f7 0cda 063a e231 e610 126f 5ee8
00000020: 1ae8 3d15 dc05 053b 0029 d50e d64c 37e9
00000030: fdd2 f2ed 021c 0f31 fafe df35 fbec 080d
00000040: 0af2 2b2d 0130 330a fcf1 57ed f023 f0ef
00000050: f034 4906 eaf6 1ce7 05c9 c709 1eec ece9
00000060: c6c6 eb02 aa06 f119 db3e 1363 d52e 43dd
00000070: 204c 48f0 ec05 fa21 f8ff f3c1 2f38 f5e3
00000080: cd02 35bb c9db 2aeb d8c4 fcdd 2931 8135
00000090: 290f ef27 bc2e c60d 07e1 ccfc 071a 10e3
000000a0: 1ff1 02f2 151f 42d9 d420 e011 f4b2 b8fe
000000b0: 4de4 03f4 f02b 1308 f00b eeef d032 2a29
000000c0: 3b4a e4e6 0c3d d316 1030 1d03 454c e4e4
000000d0: f320 fd6b 2500 f9c8 ee39 3654 f8f2 0329
000000e0: 2f81 dcfe edf6 1a05 2bfa c6e1 031f bd25
000000f0: f2ef 1af1 0af9 3c32 1713 e165 20f6 07d4
-12 -5 1 -6 8 54 15 15
-19 20 8 -34 17 -10 50 27
60 33 -27 -9 12 -38 6 58
-30 49 -26 16 18 111 94 -24
26 -24 61 21 -36 5 5 59
0 41 -43 14 -42 76 55 -23
-3 -46 -14 -19 2 28 15 49
-6 -2 -33 53 -5 -20 8 13
10 -14 43 45 1 48 51 10
-4 -15 87 -19 -16 35 -16 -17
-16 52 73 6 -22 -10 28 -25
5 -55 -57 9 30 -20 -20 -23
-58 -58 -21 2 -86 6 -15 25
-37 62 19 99 -43 46 67 -35
32 76 72 -16 -20 5 -6 33
-8 -1 -13 -63 47 56 -11 -29
-51 2 53 -69 -55 -37 42 -21
-40 -60 -4 -35 41 49 -127 53
41 15 -17 39 -68 46 -58 13
7 -31 -52 -4 7 26 16 -29
31 -15 2 -14 21 31 66 -39
-44 32 -32 17 -12 -78 -72 -2
77 -28 3 -12 -16 43 19 8
-16 11 -18 -17 -48 50 42 41
59 74 -28 -26 12 61 -45 22
16 48 29 3 69 76 -28 -28
-13 32 -3 107 37 0 -7 -56
-18 57 54 84 -8 -14 3 41
47 -127 -36 -2 -19 -10 26 5
43 -6 -58 -31 3 31 -67 37
-14 -17 26 -15 10 -7 60 50
23 19 -31 101 32 -10 7 -44

tfl.pseudo_qconst7 i1 [1, 3, 3, 165]
00000000: 817f 81f1 9205 7499 da45 a97f 397f 48f5
00000010: 81aa f546 dbc4 7f85 725f b843 8f26 6222
00000020: 5ef3 d181 0db7 973d c382 7f7f 2d97 2e7f
00000030: 207f 0959 aee7 ecb1 7fd2 f881 e221 f8a7
00000040: bcfb 2e7f ff2b be12 e5f4 d47a 1fd4 035d
00000050: ce9f 5681 5d81 f622 e862 1351 c5f6 0581
00000060: a0a0 830c fff5 11be a081 137b e7ba b57f
00000070: f51d 9dcb ae5b 0dc6 7803 98ad f4cf 7f4a
00000080: 7f8f d2d4 8f24 0c7c f2c9 103c c1af 81c1
00000090: 1376 f281 7ff7 350c 08e0 e5eb 350d e4a3
000000a0: b3c5 bf0d e2c7 f296 091e 7f7c 95ec 3f98
000000b0: 45b9 491f f9b1 fd08 1312 8175 ef63 42a9
000000c0: 6aa2 7f7f 0b7f f7ae a36c cba0 51d8 aa39
000000d0: 7b7f 817f 7d3d 3213 64c0 5eff dc36 1ce3
000000e0: b810 4297 8f81 16f4 e806 4eca fcd1 eed1
000000f0: 7f36 8ded 7f50 9c51 9e7f bdf3 4feb 7ffd
-127 127 -127 -15 -110 5 116 -103
-38 69 -87 127 57 127 72 -11
-127 -86 -11 70 -37 -60 127 -123
114 95 -72 67 -113 38 98 34
94 -13 -47 -127 13 -73 -105 61
-61 -126 127 127 45 -105 46 127
32 127 9 89 -82 -25 -20 -79
127 -46 -8 -127 -30 33 -8 -89
-68 -5 46 127 -1 43 -66 18
-27 -12 -44 122 31 -44 3 93
-50 -97 86 -127 93 -127 -10 34
-24 98 19 81 -59 -10 5 -127
-96 -96 -125 12 -1 -11 17 -66
-96 -127 19 123 -25 -70 -75 127
-11 29 -99 -53 -82 91 13 -58
120 3 -104 -83 -12 -49 127 74
127 -113 -46 -44 -113 36 12 124
-14 -55 16 60 -63 -81 -127 -63
19 118 -14 -127 127 -9 53 12
8 -32 -27 -21 53 13 -28 -93
-77 -59 -65 13 -30 -57 -14 -106
9 30 127 124 -107 -20 63 -104
69 -71 73 31 -7 -79 -3 8
19 18 -127 117 -17 99 66 -87
106 -94 127 127 11 127 -9 -82
-93 108 -53 -96 81 -40 -86 57
123 127 -127 127 125 61 50 19
100 -64 94 -1 -36 54 28 -29
-72 16 66 -105 -113 -127 22 -12
-24 6 78 -54 -4 -47 -18 -47
127 54 -115 -19 127 80 -100 81
-98 127 -67 -13 79 -21 127 -3

tfl.pseudo_qconst9 i1 [165, 1, 1, 220]
00000000: eef6 c92d e2f2 0709 f00b f9f1 1ecb 0d29
00000010: 06d9 2ea7 d519 1af6 0a10 fd01 2823 23cc
00000020: 4df6 0f26 eaeb 0512 f019 0bf5 f5f7 bf02
00000030: feda cb34 1809 f723 0cd5 0006 0309 1036
00000040: 1cf9 113f edd2 29ef 20e4 25c4 f0c2 f407
00000050: 0e27 f302 f404 1cee 0836 c0e5 eaa4 e510
00000060: ff2e fe29 1621 f410 fee6 26e7 f42b b6f8
00000070: 15da e106 dff2 05e5 f12e dc0c 010f fa2a
00000080: 0fc6 0bfc d71a ced5 fa00 d8cb 0cd1 e20e
00000090: 1cf8 f9fe fde8 12d4 d702 f9ff da15 221a
000000a0: 1931 037f 070e d846 cec3 dcbd 5110 ffd2
000000b0: 170c 11eb 040d fd22 06fc 0d20 03b9 f016
000000c0: 0204 05af c0e8 3a10 26f6 def9 0821 fcf4
000000d0: f22d 0810 e8ea eee8 cde9 f214 f217 f506
000000e0: e80d 0a26 d8ea d7ee ec02 1d26 ee5f 28ea
000000f0: 810e cfdc 0c23 fbff 0def 17ed e342 0b02
-18 -10 -55 45 -30 -14 7 9
-16 11 -7 -15 30 -53 13 41
6 -39 46 -89 -43 25 26 -10
10 16 -3 1 40 35 35 -52
77 -10 15 38 -22 -21 5 18
-16 25 11 -11 -11 -9 -65 2
-2 -38 -53 52 24 9 -9 35
12 -43 0 6 3 9 16 54
28 -7 17 63 -19 -46 41 -17
32 -28 37 -60 -16 -62 -12 7
14 39 -13 2 -12 4 28 -18
8 54 -64 -27 -22 -92 -27 16
-1 46 -2 41 22 33 -12 16
-2 -26 38 -25 -12 43 -74 -8
21 -38 -31 6 -33 -14 5 -27
-15 46 -36 12 1 15 -6 42
15 -58 11 -4 -41 26 -50 -43
-6 0 -40 -53 12 -47 -30 14
28 -8 -7 -2 -3 -24 18 -44
-41 2 -7 -1 -38 21 34 26
25 49 3 127 7 14 -40 70
-50 -61 -36 -67 81 16 -1 -46
23 12 17 -21 4 13 -3 34
6 -4 13 32 3 -71 -16 22
2 4 5 -81 -64 -24 58 16
38 -10 -34 -7 8 33 -4 -12
-14 45 8 16 -24 -22 -18 -24
-51 -23 -14 20 -14 23 -11 6
-24 13 10 38 -40 -22 -41 -18
-20 2 29 38 -18 95 40 -22
-127 14 -49 -36 12 35 -5 -1
13 -17 23 -19 -29 66 11 2

tfl.pseudo_qconst11 i1 [1, 3, 3, 220]
00000000: a184 6481 d56a 0b58 f16b 721c 9b0a 6d37
00000010: 8b4c 7792 cf81 d732 3c32 9636 75c1 6d36
00000020: 3210 ca36 bb21 cf12 4c94 79e5 e681 60e1
00000030: 1266 1381 4614 ba62 4a81 9ce3 f797 f27f
00000040: 280c 325a ddde 814d 4ebd 3386 d0d9 65a9
00000050: 56f6 fb15 ea74 b82f 7900 cdcc 4a81 fcb5
00000060: b981 904c ea3a 1386 6a16 5f37 6b56 c454
00000070: 0bde eb2c 7f9a 6625 1754 6524 8197 1b7f
00000080: bb8d 0226 67f8 ef95 08c9 8127 e7a1 c216
00000090: 3384 f47a 8b08 9497 02c4 de95 17c9 263b
000000a0: 487f 4196 40a7 5781 e781 9099 d0bc 15d8
000000b0: 6e73 bd5f 33d6 830d 3006 7f23 c26a 9f81
000000c0: c581 2981 f2c7 277e ee81 1eb1 e989 1212
000000d0: 64c6 194c 8181 f52c 7644 7fbe 81a9 5a9a
000000e0: 817f 0e7f 127f 707f d17f 7315 81f2 4d0e
000000f0: ee8e 137f e811 81e0 5190 2e55 41f1 e741
-95 -124 100 -127 -43 106 11 88
-15 107 114 28 -101 10 109 55
-117 76 119 -110 -49 -127 -41 50
60 50 -106 54 117 -63 109 54
50 16 -54 54 -69 33 -49 18
76 -108 121 -27 -26 -127 96 -31
18 102 19 -127 70 20 -70 98
74 -127 -100 -29 -9 -105 -14 127
40 12 50 90 -35 -34 -127 77
78 -67 51 -122 -48 -39 101 -87
86 -10 -5 21 -22 116 -72 47
121 0 -51 -52 74 -127 -4 -75
-71 -127 -112 76 -22 58 19 -122
106 22 95 55 107 86 -60 84
11 -34 -21 44 127 -102 102 37
23 84 101 36 -127 -105 27 127
-69 -115 2 38 103 -8 -17 -107
8 -55 -127 39 -25 -95 -62 22
51 -124 -12 122 -117 8 -108 -105
2 -60 -34 -107 23 -55 38 59
72 127 65 -106 64 -89 87 -127
-25 -127 -112 -103 -48 -68 21 -40
110 115 -67 95 51 -42 -125 13
48 6 127 35 -62 106 -97 -127
-59 -127 41 -127 -14 -57 39 126
-18 -127 30 -79 -23 -119 18 18
100 -58 25 76 -127 -127 -11 44
118 68 127 -66 -127 -87 90 -102
-127 127 14 127 18 127 112 127
-47 127 115 21 -127 -14 77 14
-18 -114 19 127 -24 17 -127 -32
81 -112 46 85 65 -15 -25 65

tfl.pseudo_qconst13 i1 [1, 3, 3, 220]
00000000: 5681 4f28 317f 9fc7 b17e 8361 5fef 36f0
00000010: 3f81 1643 b14f 7f0b baf1 64bc 7c09 7f17
00000020: 9081 5c71 1deb 7ffc e055 87bb 1d32 7bff
00000030: 1f81 f47f 7ded 9c5e 7e5f 164e 1af1 818f
00000040: d21d 8155 4187 c1f9 4005 e3f9 ba07 8168
00000050: e109 a9c3 c351 16da 8145 8120 beb0 7f89
00000060: 817f 8137 d359 2183 8347 84a4 5f7f c981
00000070: fb3e ba4c 3681 10a5 8e2b 89d8 8295 a792
00000080: b7f8 ee37 9c2b a184 81fb 5322 c13a e1f3
00000090: 3d7f 1b8b 93aa d43f 8181 423d fc71 19d5
000000a0: 6b25 140f 4242 1a84 457f 8127 407f c855
000000b0: 5313 c181 186c 4f01 8181 81fb 813a 4816
000000c0: f8db f695 c672 3578 7f81 4748 c881 81fc
000000d0: a8ff ec6b 7c34 2534 0f44 3a9d f70c 7f25
000000e0: 7036 a89d 3b10 a6f6 3342 23db 6320 c543
000000f0: 082a 3bd3 c4c6 20c9 5e0b e4c5 fdf5 4158
86 -127 79 40 49 127 -97 -57
-79 126 -125 97 95 -17 54 -16
63 -127 22 67 -79 79 127 11
-70 -15 100 -68 124 9 127 23
-112 -127 92 113 29 -21 127 -4
-32 85 -121 -69 29 50 123 -1
31 -127 -12 127 125 -19 -100 94
126 95 22 78 26 -15 -127 -113
-46 29 -127 85 65 -121 -63 -7
64 5 -29 -7 -70 7 -127 104
-31 9 -87 -61 -61 81 22 -38
-127 69 -127 32 -66 -80 127 -119
-127 127 -127 55 -45 89 33 -125
-125 71 -124 -92 95 127 -55 -127
-5 62 -70 76 54 -127 16 -91
-114 43 -119 -40 -126 -107 -89 -110
-73 -8 -18 55 -100 43 -95 -124
-127 -5 83 34 -63 58 -31 -13
61 127 27 -117 -109 -86 -44 63
-127 -127 66 61 -4 113 25 -43
107 37 20 15 66 66 26 -124
69 127 -127 39 64 127 -56 85
83 19 -63 -127 24 108 79 1
-127 -127 -127 -5 -127 58 72 22
-8 -37 -10 -107 -58 114 53 120
127 -127 71 72 -56 -127 -127 -4
-88 -1 -20 107 124 52 37 52
15 68 58 -99 -9 12 127 37
112 54 -88 -99 59 16 -90 -10
51 66 35 -37 99 32 -59 67
8 42 59 -45 -60 -58 32 -55
94 11 -28 -59 -3 -11 65 88

tfl.pseudo_qconst15 i1 [220, 1, 1, 55]
00000000: 58eb 05fd 0281 0e1d ffde f754 c1fb feed
00000010: d401 f90d 2fcc 2aac 05e4 c81d f240 ce2e
00000020: f4db 1216 baf2 d50f e9eb 48b9 0ef3 4109
00000030: f3cf f4fd 02cd 48fd 2725 f507 0711 ddec
00000040: 29ca ebbf c2e4 2112 34db 050f 1304 f846
00000050: 452a 3126 02da f6c9 20b4 d013 3afd 17e4
00000060: 0ec6 fd3c 50ee bb28 7f1f 9e0e ff18 112b
00000070: 2807 0b01 ee10 d2ba 0034 f50b fb3a 2d0a
00000080: 5df8 19d6 feed 3122 0cbc 0edb e918 1b22
00000090: 39fa f31f 037f 080c f4f8 10ca fb03 10fc
000000a0: 1cfe 3be4 1fcb 5cd9 7032 bff6 b6da c15d
000000b0: 6c36 07dd 4b14 1ad4 e5e7 0114 05e2 25db
000000c0: 7ff1 1a10 0128 e61c e8e8 231d e023 37c9
000000d0: f7f3 05dd 1607 be61 2ecb 54cf 7f42 24f4
000000e0: d328 10fd df07 08c0 04fd 0be8 fcfc 1a0b
000000f0: fde4 260d 2c32 ed27 fbd1 eed4 13cc 1b1a
88 -21 5 -3 2 -127 14 29
-1 -34 -9 84 -63 -5 -2 -19
-44 1 -7 13 47 -52 42 -84
5 -28 -56 29 -14 64 -50 46
-12 -37 18 22 -70 -14 -43 15
-23 -21 72 -71 14 -13 65 9
-13 -49 -12 -3 2 -51 72 -3
39 37 -11 7 7 17 -35 -20
41 -54 -21 -65 -62 -28 33 18
52 -37 5 15 19 4 -8 70
69 42 49 38 2 -38 -10 -55
32 -76 -48 19 58 -3 23 -28
14 -58 -3 60 80 -18 -69 40
127 31 -98 14 -1 24 17 43
40 7 11 1 -18 16 -46 -70
0 52 -11 11 -5 58 45 10
93 -8 25 -42 -2 -19 49 34
12 -68 14 -37 -23 24 27 34
57 -6 -13 31 3 127 8 12
-12 -8 16 -54 -5 3 16 -4
28 -2 59 -28 31 -53 92 -39
112 50 -65 -10 -74 -38 -63 93
108 54 7 -35 75 20 26 -44
-27 -25 1 20 5 -30 37 -37
127 -15 26 16 1 40 -26 28
-24 -24 35 29 -32 35 55 -55
-9 -13 5 -35 22 7 -66 97
46 -53 84 -49 127 66 36 -12
-45 40 16 -3 -33 7 8 -64
4 -3 11 -24 -4 -4 26 11
-3 -28 38 13 44 50 -19 39
-5 -47 -18 -44 19 -52 27 26

tfl.pseudo_qconst17 i1 [1, 3, 3, 55]
00000000: df02 3049 eafb aed2 c381 7f89 6ad7 0326
00000010: 8116 851b 572c d481 7f45 c7a4 18e6 8186
00000020: b809 425f bad5 fd81 d081 cdfd da9c 813f
00000030: 1ef6 a5f0 ff0e 332b 5169 f581 17e3 c1e3
00000040: af46 9e7f bc62 23cb 548c 5774 cdb8 885a
00000050: 60d6 b860 b2a2 f1d8 3758 7fd3 2c21 a9ae
00000060: c3a5 d331 81ce 485f 2381 cdf0 430a 7f3f
00000070: 569e b31c b81b bddc 65ad 7611 e845 afe0
00000080: a333 70e3 ded6 521c bdcf 3ff9 a222 192e
00000090: 383b 812f 22c0 d809 dc81 7ca4 cb45 2903
000000a0: 9bc3 fd5c af05 4c34 31d1 507f 9f14 ca49
000000b0: c625 8ae9 7fc6 5581 5367 8195 021a 692d
000000c0: 8121 c3a5 a48c 755f 3e54 8549 a8a0 ce96
000000d0: 1dec d1d5 3b7f 36bf deac 6f68 667f 7fde
000000e0: 8b75 289e 30e2 5b86 4981 7f55 857f aa77
000000f0: 7fa7 812a 1a6e 1195 7981 9aac af7f 7f4c
-33 2 48 73 -22 -5 -82 -46
-61 -127 127 -119 106 -41 3 38
-127 22 -123 27 87 44 -44 -127
127 69 -57 -92 24 -26 -127 -122
-72 9 66 95 -70 -43 -3 -127
-48 -127 -51 -3 -38 -100 -127 63
30 -10 -91 -16 -1 14 51 43
81 105 -11 -127 23 -29 -63 -29
-81 70 -98 127 -68 98 35 -53
84 -116 87 116 -51 -72 -120 90
96 -42 -72 96 -78 -94 -15 -40
55 88 127 -45 44 33 -87 -82
-61 -91 -45 49 -127 -50 72 95
35 -127 -51 -16 67 10 127 63
86 -98 -77 28 -72 27 -67 -36
101 -83 118 17 -24 69 -81 -32
-93 51 112 -29 -34 -42 82 28
-67 -49 63 -7 -94 34 25 46
56 59 -127 47 34 -64 -40 9
-36 -127 124 -92 -53 69 41 3
-101 -61 -3 92 -81 5 76 52
49 -47 80 127 -97 20 -54 73
-58 37 -118 -23 127 -58 85 -127
83 103 -127 -107 2 26 105 45
-127 33 -61 -91 -92 -116 117 95
62 84 -123 73 -88 -96 -50 -106
29 -20 -47 -43 59 127 54 -65
-34 -84 111 104 102 127 127 -34
-117 117 40 -98 48 -30 91 -122
73 -127 127 85 -123 127 -86 119
127 -89 -127 42 26 110 17 -107
121 -127 -102 -84 -81 127 127 76

tfl.pseudo_qconst19 i1 [1, 3, 3, 55]
00000000: fa7f 7f7f f1e5 ace3 93a1 2a18 3697 3ff1
00000010: a109 1ae3 ef7b e381 356c c611 2a01 81c4
00000020: d0e5 457f 8620 707f 21c2 8134 a2cd f895
00000030: a8d1 c840 7f81 01a1 3f01 8e37 4501 65a6
00000040: 1ba4 cec9 3239 cfea ac00 49e4 7c01 e256
00000050: f2bf 2fc4 eebb 1ed8 7931 c348 3d4b 098c
00000060: 35e0 e1e0 d1af 9f50 ecda c411 13cc 06d9
00000070: b0df 00df 5aee cbae 8181 26c3 3595 e401
00000080: 3ea6 3229 2dfe 509c c648 c781 d32b e70d
00000090: d3a7 d9af f30a 5677 1418 79eb c725 9b08
000000a0: 8da8 573a fcab 6444 5e99 3081 b1f8 fb48
000000b0: 43dc dfce 5f00 0e22 9c2d 20e4 8b6e 6961
000000c0: 8dd2 4140 aac0 9af4 f4b6 8173 05f1 5db6
000000d0: eab5 b6be b6e3 713e 5e48 fa16 bef5 a8c5
000000e0: 0f7f d27f 7fbe 2e62 f07f 1d28 b081 7fc3
000000f0: 28ab 4eac 81cf c69e 815c f02a ff9a 3f53
-6 127 127 127 -15 -27 -84 -29
-109 -95 42 24 54 -105 63 -15
-95 9 26 -29 -17 123 -29 -127
53 108 -58 17 42 1 -127 -60
-48 -27 69 127 -122 32 112 127
33 -62 -127 52 -94 -51 -8 -107
-88 -47 -56 64 127 -127 1 -95
63 1 -114 55 69 1 101 -90
27 -92 -50 -55 50 57 -49 -22
-84 0 73 -28 124 1 -30 86
-14 -65 47 -60 -18 -69 30 -40
121 49 -61 72 61 75 9 -116
53 -32 -31 -32 -47 -81 -97 80
-20 -38 -60 17 19 -52 6 -39
-80 -33 0 -33 90 -18 -53 -82
-127 -127 38 -61 53 -107 -28 1
62 -90 50 41 45 -2 80 -100
-58 72 -57 -127 -45 43 -25 13
-45 -89 -39 -81 -13 10 86 119
20 24 121 -21 -57 37 -101 8
-115 -88 87 58 -4 -85 100 68
94 -103 48 -127 -79 -8 -5 72
67 -36 -33 -50 95 0 14 34
-100 45 32 -28 -117 110 105 97
-115 -46 65 64 -86 -64 -102 -12
-12 -74 -127 115 5 -15 93 -74
-22 -75 -74 -66 -74 -29 113 62
94 72 -6 22 -66 -11 -88 -59
15 127 -46 127 127 -66 46 98
-16 127 29 40 -80 -127 127 -61
40 -85 78 -84 -127 -49 -58 -98
-127 92 -16 42 -1 -102 63 83

tfl.pseudo_qconst21 i1 [55, 3, 3, 3]
00000000: ef26 e9ba 50f6 a073 f7b1 450b 914a 1f99
00000010: 7ffd 9e28 2ca5 4d1d ac43 fdcb 4311 510e
00000020: c939 ece6 140e b77f bc86 58c9 c100 1fe1
00000030: 5ec4 d423 ccf7 1bf7 c08b 553e de55 51b3
00000040: 4577 e97f 7215 cce6 00fc 2129 91ad 2dab
00000050: b11d 4312 14d0 6209 e60a f41f d70f f57f
00000060: f0cd 07c4 3ca4 d8de 7aff 0674 612e 25f7
00000070: 26be a5f8 d1fb bb3d 7878 50d1 ef91 aea2
00000080: dbb6 a009 317f 5501 04fb e82e e6ef 28ec
00000090: e12f e8c8 7fb8 cb63 c6d5 4ddb cd72 b9d5
000000a0: 52d9 0d1a bce5 398e c3f8 4a0d 81d7 d7d0
000000b0: b808 d23d b808 4ce0 49af 23cb be1a 0101
000000c0: 1713 d410 070f 1ef0 c339 0081 12fd b302
000000d0: e50b 0ef1 e8fa ff0a 16fb 1610 051b 2c0b
000000e0: 06c3 cb35 81ac 13f8 f93a 19f0 0fed c9fe
000000f0: 28f2 0900 f8f9 0a05 f312 faf4 2019 44fc
-17 38 -23 -70 80 -10 -96 115
-9 -79 69 11 -111 74 31 -103
127 -3 -98 40 44 -91 77 29
-84 67 -3 -53 67 17 81 14
-55 57 -20 -26 20 14 -73 127
-68 -122 88 -55 -63 0 31 -31
94 -60 -44 35 -52 -9 27 -9
-64 -117 85 62 -34 85 81 -77
69 119 -23 127 114 21 -52 -26
0 -4 33 41 -111 -83 45 -85
-79 29 67 18 20 -48 98 9
-26 10 -12 31 -41 15 -11 127
-16 -51 7 -60 60 -92 -40 -34
122 -1 6 116 97 46 37 -9
38 -66 -91 -8 -47 -5 -69 61
120 120 80 -47 -17 -111 -82 -94
-37 -74 -96 9 49 127 85 1
4 -5 -24 46 -26 -17 40 -20
-31 47 -24 -56 127 -72 -53 99
-58 -43 77 -37 -51 114 -71 -43
82 -39 13 26 -68 -27 57 -114
-61 -8 74 13 -127 -41 -41 -48
-72 8 -46 61 -72 8 76 -32
73 -81 35 -53 -66 26 1 1
23 19 -44 16 7 15 30 -16
-61 57 0 -127 18 -3 -77 2
-27 11 14 -15 -24 -6 -1 10
22 -5 22 16 5 27 44 11
6 -61 -53 53 -127 -84 19 -8
-7 58 25 -16 15 -19 -55 -2
40 -14 9 0 -8 -7 10 5
-13 18 -6 -12 32 25 68 -4
