Cifar10_LI8ac78.37_tfsz_51.0_lat_0.702.tflite (tflite, 51552 bytes, 8 tensors)

tfl.pseudo_qconst1 i1 [10, 100]
00000000: 2306 03e7 51e9 f03c bde5 54dd e2eb e23a
00000010: bcb9 19ff d049 d01f a526 1d1e fef4 dae8
00000020: 2c35 c2d2 2c1f 191a 2814 efe0 24f4 38c0
00000030: 4dc6 350d ee0e c881 daeb e1df f4d2 baf2
00000040: 0230 dc1e 1a1b ed03 02f6 da0c f41c e5d0
00000050: c2bc e0e2 34f3 de48 b3d3 da18 2b23 1ef8
00000060: 07e7 c71f 1e21 e3db e544 09e6 68c6 cf4f
00000070: 1062 dc47 192b 56de 29f3 b7e8 81ff 0fc1
00000080: e0d6 dfcc ff4c 312e 3ab6 2629 0ed0 dee5
00000090: e00a 3a38 ba32 3fef 7a09 e61d da4b 16c3
000000a0: 31c1 5107 4f11 521c 3aea 3516 1e33 f918
000000b0: e5a7 c02a 422f ee64 3cfb 394f a727 fad2
000000c0: e231 1dd6 d6de bd04 84e5 4304 fbe3 df57
000000d0: c916 d464 10d9 22d2 edcf 065b 0d06 e368
000000e0: 6155 c435 c82e edd4 451f dee4 24e7 122e
000000f0: 463c 71d5 b8d8 f40c 663e c615 e6b3 4d16
35 6 3 -25 81 -23 -16 60
-67 -27 84 -35 -30 -21 -30 58
-68 -71 25 -1 -48 73 -48 31
-91 38 29 30 -2 -12 -38 -24
44 53 -62 -46 44 31 25 26
40 20 -17 -32 36 -12 56 -64
77 -58 53 13 -18 14 -56 -127
-38 -21 -31 -33 -12 -46 -70 -14
2 48 -36 30 26 27 -19 3
2 -10 -38 12 -12 28 -27 -48
-62 -68 -32 -30 52 -13 -34 72
-77 -45 -38 24 43 35 30 -8
7 -25 -57 31 30 33 -29 -37
-27 68 9 -26 104 -58 -49 79
16 98 -36 71 25 43 86 -34
41 -13 -73 -24 -127 -1 15 -63
-32 -42 -33 -52 -1 76 49 46
58 -74 38 41 14 -48 -34 -27
-32 10 58 56 -70 50 63 -17
122 9 -26 29 -38 75 22 -61
49 -63 81 7 79 17 82 28
58 -22 53 22 30 51 -7 24
-27 -89 -64 42 66 47 -18 100
60 -5 57 79 -89 39 -6 -46
-30 49 29 -42 -42 -34 -67 4
-124 -27 67 4 -5 -29 -33 87
-55 22 -44 100 16 -39 34 -46
-19 -49 6 91 13 6 -29 104
97 85 -60 53 -56 46 -19 -44
69 31 -34 -28 36 -25 18 46
70 60 113 -43 -72 -40 -12 12
102 62 -58 21 -26 -77 77 22

tfl.pseudo_qconst3 i1 [100, 1, 1, 150]
00000000: f0b9 1716 d4f2 1904 fb15 2219 f72e 2303
00000010: 0527 0de2 d2c2 56d3 273b 241f 214e 020c
00000020: 111b ded2 d681 0b05 14f0 ca10 05f9 1de5
00000030: ef59 4835 131f 6215 050c b2ed e8ef eb76
00000040: de08 f209 28d4 dae4 ea11 1c14 1db8 4332
00000050: 0feb 531c ee63 13e3 11e3 14f8 d82d 002d
00000060: f8dc 12e4 0bf9 fc1d 00ea e8fa 23d5 810d
00000070: 9ffc abee eafe 1fed e72a 1d0e d220 0902
00000080: 341c c6df 22dc 0eb3 1a24 bcdb c3c2 2ec5
00000090: 2529 14eb eaf4 f72e 0bf6 fae3 28f1 f9d2
000000a0: f123 59dd ecf9 181f 1f27 8fba b15b 573d
000000b0: dfec fb6d c818 1b0c 00d0 f481 b82a 01cb
000000c0: ccf6 e407 2100 e614 d9fc 1326 fe04 f5f4
000000d0: c205 ccca 2468 4236 1e84 0f2d 9fa7 3818
000000e0: e024 cffa 0809 a2f0 63f3 bec3 f8dd 280e
000000f0: cfef 0d92 6ede 2ee2 4ccc 13f7 ecd0 f424
-16 -71 23 22 -44 -14 25 4
-5 21 34 25 -9 46 35 3
5 39 13 -30 -46 -62 86 -45
39 59 36 31 33 78 2 12
17 27 -34 -46 -42 -127 11 5
20 -16 -54 16 5 -7 29 -27
-17 89 72 53 19 31 98 21
5 12 -78 -19 -24 -17 -21 118
-34 8 -14 9 40 -44 -38 -28
-22 17 28 20 29 -72 67 50
15 -21 83 28 -18 99 19 -29
17 -29 20 -8 -40 45 0 45
-8 -36 18 -28 11 -7 -4 29
0 -22 -24 -6 35 -43 -127 13
-97 -4 -85 -18 -22 -2 31 -19
-25 42 29 14 -46 32 9 2
52 28 -58 -33 34 -36 14 -77
26 36 -68 -37 -61 -62 46 -59
37 41 20 -21 -22 -12 -9 46
11 -10 -6 -29 40 -15 -7 -46
-15 35 89 -35 -20 -7 24 31
31 39 -113 -70 -79 91 87 61
-33 -20 -5 109 -56 24 27 12
0 -48 -12 -127 -72 42 1 -53
-52 -10 -28 7 33 0 -26 20
-39 -4 19 38 -2 4 -11 -12
-62 5 -52 -54 36 104 66 54
30 -124 15 45 -97 -89 56 24
-32 36 -49 -6 8 9 -94 -16
99 -13 -66 -61 -8 -35 40 14
-49 -17 13 -110 110 -34 46 -30
76 -52 19 -9 -20 -48 -12 36

tfl.pseudo_qconst5 i1 [1, 3, 3, 150]
00000000: 387f 3d02 2a81 63a9 6bef 728b 3991 b75a
00000010: 13cc 31e7 9fe0 f3b9 ccf9 5754 9922 430f
00000020: 32cb 6c20 acbd b900 7f03 2781 c71a 5e28
00000030: bc19 34fd 5fec 43a4 b87f c110 49ec 81fb
00000040: dbdd 8181 c9bc 3cf4 ec47 5f7f 10fe efb2
00000050: 3557 260e afd6 3705 35ec 20bb bfe8 84aa
00000060: 1734 8f51 4ae9 ecfd 4f09 4ad7 8177 fba7
00000070: cdb0 a9d5 e263 27c8 85d3 7f0a 89a6 2452
00000080: a43f f630 b78d fa37 d03d ee81 7f0f 3c16
00000090: 151f d2de ca0b 4214 ee40 d385 40ee 7f81
000000a0: eb5e 81b1 900e d297 b114 b857 be2a fea2
000000b0: e47f 8605 2581 7f29 377f c481 04d4 2915
000000c0: f93b 2a7f 7352 f30b 7f00 daea 3e66 81a8
000000d0: fd13 8110 bb7f bdcd 9720 2b7f 33ec cc7f
000000e0: 0450 3673 f9fb 7f90 b47f 0c81 17cf ac1c
000000f0: 7f1b 9ee9 b27c 1a47 df1c e636 cb51 3f4e
56 127 61 2 42 -127 99 -87
107 -17 114 -117 57 -111 -73 90
19 -52 49 -25 -97 -32 -13 -71
-52 -7 87 84 -103 34 67 15
50 -53 108 32 -84 -67 -71 0
127 3 39 -127 -57 26 94 40
-68 25 52 -3 95 -20 67 -92
-72 127 -63 16 73 -20 -127 -5
-37 -35 -127 -127 -55 -68 60 -12
-20 71 95 127 16 -2 -17 -78
53 87 38 14 -81 -42 55 5
53 -20 32 -69 -65 -24 -124 -86
23 52 -113 81 74 -23 -20 -3
79 9 74 -41 -127 119 -5 -89
-51 -80 -87 -43 -30 99 39 -56
-123 -45 127 10 -119 -90 36 82
-92 63 -10 48 -73 -115 -6 55
-48 61 -18 -127 127 15 60 22
21 31 -46 -34 -54 11 66 20
-18 64 -45 -123 64 -18 127 -127
-21 94 -127 -79 -112 14 -46 -105
-79 20 -72 87 -66 42 -2 -94
-28 127 -122 5 37 -127 127 41
55 127 -60 -127 4 -44 41 21
-7 59 42 127 115 82 -13 11
127 0 -38 -22 62 102 -127 -88
-3 19 -127 16 -69 127 -67 -51
-105 32 43 127 51 -20 -52 127
4 80 54 115 -7 -5 127 -112
-76 127 12 -127 23 -49 -84 28
127 27 -98 -23 -78 124 26 71
-33 28 -26 54 -53 81 63 78

tfl.pseudo_qconst7 i1 [150, 1, 1, 50]
00000000: 7445 1109 fd00 21e1 d565 f01a e114 29cc
00000010: 1b83 e5dd 1b12 dad8 d3dc 876e 4038 eb0a
00000020: 38d5 105d 3288 e07f c25e f648 36f9 f1c4
00000030: 11f0 df72 f6c5 e91a 16fd 254d 3681 2f58
00000040: e514 29c4 090c 1619 00ec e2fd 1c3b a815
00000050: 09dd fd28 fafc 2e04 2579 14a9 24d7 f31d
00000060: ec14 d3e3 5cec 33d0 e5b1 13f5 d906 ff30
00000070: cee0 f7fc 2bff c147 3c03 13f8 8afa fce0
00000080: 20ee 0803 f60f bbe2 b97f efda 0c3f 0aef
00000090: fe04 ff58 07ea bfa9 15f2 03d9 d9ec 247f
000000a0: 1d1b 0762 f93d 2e40 0831 0a0a 03ad 9f10
000000b0: 19d8 fe03 e7d7 0ced a1b6 ab45 f18e c811
000000c0: 444c 041d a04b 09f3 22ab 32f3 fceb d6e9
000000d0: 0710 1023 0c81 0120 07eb f4d2 f9e4 26d4
000000e0: ddef f6b3 31e5 0af1 ff0a f0e6 cd14 0fd4
000000f0: 2283 0333 1e0a e43c f226 e461 f2b9 012d
116 69 17 9 -3 0 33 -31
-43 101 -16 26 -31 20 41 -52
27 -125 -27 -35 27 18 -38 -40
-45 -36 -121 110 64 56 -21 10
56 -43 16 93 50 -120 -32 127
-62 94 -10 72 54 -7 -15 -60
17 -16 -33 114 -10 -59 -23 26
22 -3 37 77 54 -127 47 88
-27 20 41 -60 9 12 22 25
0 -20 -30 -3 28 59 -88 21
9 -35 -3 40 -6 -4 46 4
37 121 20 -87 36 -41 -13 29
-20 20 -45 -29 92 -20 51 -48
-27 -79 19 -11 -39 6 -1 48
-50 -32 -9 -4 43 -1 -63 71
60 3 19 -8 -118 -6 -4 -32
32 -18 8 3 -10 15 -69 -30
-71 127 -17 -38 12 63 10 -17
-2 4 -1 88 7 -22 -65 -87
21 -14 3 -39 -39 -20 36 127
29 27 7 98 -7 61 46 64
8 49 10 10 3 -83 -97 16
25 -40 -2 3 -25 -41 12 -19
-95 -74 -85 69 -15 -114 -56 17
68 76 4 29 -96 75 9 -13
34 -85 50 -13 -4 -21 -42 -23
7 16 16 35 12 -127 1 32
7 -21 -12 -46 -7 -28 38 -44
-35 -17 -10 -77 49 -27 10 -15
-1 10 -16 -26 -51 20 15 -44
34 -125 3 51 30 10 -28 60
-14 38 -28 97 -14 -71 1 45

tfl.pseudo_qconst9 i1 [1, 3, 3, 50]
00000000: 81ee e505 b76d c5ae d0f8 07c3 d925 9fe5
00000010: 0415 ac7f b9d9 fa81 cdc8 a13e 1eea cc69
00000020: 9323 fa41 dc64 81fa 22e1 4ae3 c681 082c
00000030: 81ed aa10 1adc 7f25 107f cedc be33 0512
00000040: 21df 20fd ee0e 7f07 6ac0 5424 443e 3ecd
00000050: 4df8 b13b 1aca 7fcc 3b81 580f 2137 527e
00000060: 2a33 8844 a6cb 0c6f 189d e71c ce97 bcf1
00000070: f7df f695 1781 af59 02bb f2b3 ca7f 6b9a
00000080: 537f bfaa d3ff 20e4 e7c5 379a 43d3 fa7f
00000090: 7fcc 157f dd09 052e d8f0 f430 b5d6 05dc
000000a0: 0dbf ae46 7170 0029 f120 7581 1cbe 93cc
000000b0: 833d fc17 a6fc f36c ea1b 9a62 2ff4 9024
000000c0: 44ed 8676 39ff bc21 087f d481 432f 6b4d
000000d0: 6992 16a7 817f e55d 5122 29a8 cd18 112e
000000e0: 15bc ec4d f6fe efe8 115d 7f89 79ee f58d
000000f0: aa5d 273a 218a 6ecd 144d d712 d3bc cd81
-127 -18 -27 5 -73 109 -59 -82
-48 -8 7 -61 -39 37 -97 -27
4 21 -84 127 -71 -39 -6 -127
-51 -56 -95 62 30 -22 -52 105
-109 35 -6 65 -36 100 -127 -6
34 -31 74 -29 -58 -127 8 44
-127 -19 -86 16 26 -36 127 37
16 127 -50 -36 -66 51 5 18
33 -33 32 -3 -18 14 127 7
106 -64 84 36 68 62 62 -51
77 -8 -79 59 26 -54 127 -52
59 -127 88 15 33 55 82 126
42 51 -120 68 -90 -53 12 111
24 -99 -25 28 -50 -105 -68 -15
-9 -33 -10 -107 23 -127 -81 89
2 -69 -14 -77 -54 127 107 -102
83 127 -65 -86 -45 -1 32 -28
-25 -59 55 -102 67 -45 -6 127
127 -52 21 127 -35 9 5 46
-40 -16 -12 48 -75 -42 5 -36
13 -65 -82 70 113 112 0 41
-15 32 117 -127 28 -66 -109 -52
-125 61 -4 23 -90 -4 -13 108
-22 27 -102 98 47 -12 -112 36
68 -19 -122 118 57 -1 -68 33
8 127 -44 -127 67 47 107 77
105 -110 22 -89 -127 127 -27 93
81 34 41 -88 -51 24 17 46
21 -68 -20 77 -10 -2 -17 -24
17 93 127 -119 121 -18 -11 -115
-86 93 39 58 33 -118 110 -51
20 77 -41 18 -45 -68 -51 -127

tfl.pseudo_qconst11 i1 [1, 3, 3, 50]
00000000: a957 8175 3f13 8175 8544 f205 f701 05c1
00000010: 9583 a021 1718 eb6b 485b c37f 4e2a 6e60
00000020: 11dc 6438 ac8e ba89 7018 c40a ccc1 8152
00000030: 1e13 9181 db08 65aa 672a 5966 74c3 9413
00000040: 487f d995 0c0a 0fbf d835 c7de e349 7f60
00000050: 8107 1473 55e7 6c42 de81 3ff1 e2a9 0fcc
00000060: 06c6 1e1c 98b4 f6f5 3a9b cdba 254a 7f1f
00000070: 8181 d044 f7d6 9af3 02d3 5cf5 8168 0dbe
00000080: 493b 1831 ad7f 57c4 3ff2 3014 252f c6c8
00000090: 9238 dba0 21fa 3f5e d3ac 8427 0e7f 8115
000000a0: 1a1b fc16 3d13 81ec e881 8118 5ac2 127f
000000b0: 39e3 04b9 db81 c9d8 be40 8197 08f9 9405
000000c0: a9db c081 ae9d ec81 2ed9 12f1 937f 5477
000000d0: 5659 4c1e 2f2c 816d 1910 531f bd7b 7f5f
000000e0: 6986 7f4e 0a5a 45a6 8124 6d0f 9909 ce07
000000f0: de47 da12 e30a 1f8f 55b4 2c70 ff39 314a
-87 87 -127 117 63 19 -127 117
-123 68 -14 5 -9 1 5 -63
-107 -125 -96 33 23 24 -21 107
72 91 -61 127 78 42 110 96
17 -36 100 56 -84 -114 -70 -119
112 24 -60 10 -52 -63 -127 82
30 19 -111 -127 -37 8 101 -86
103 42 89 102 116 -61 -108 19
72 127 -39 -107 12 10 15 -65
-40 53 -57 -34 -29 73 127 96
-127 7 20 115 85 -25 108 66
-34 -127 63 -15 -30 -87 15 -52
6 -58 30 28 -104 -76 -10 -11
58 -101 -51 -70 37 74 127 31
-127 -127 -48 68 -9 -42 -102 -13
2 -45 92 -11 -127 104 13 -66
73 59 24 49 -83 127 87 -60
63 -14 48 20 37 47 -58 -56
-110 56 -37 -96 33 -6 63 94
-45 -84 -124 39 14 127 -127 21
26 27 -4 22 61 19 -127 -20
-24 -127 -127 24 90 -62 18 127
57 -29 4 -71 -37 -127 -55 -40
-66 64 -127 -105 8 -7 -108 5
-87 -37 -64 -127 -82 -99 -20 -127
46 -39 18 -15 -109 127 84 119
86 89 76 30 47 44 -127 109
25 16 83 31 -67 123 127 95
105 -122 127 78 10 90 69 -90
-127 36 109 15 -103 9 -50 7
-34 71 -38 18 -29 10 31 -113
85 -76 44 112 -1 57 49 74

tfl.pseudo_qconst13 i1 [1, 3, 3, 50]
00000000: b37f 26fe d4d0 3e6a eb81 7fe9 dee8 290b
00000010: 0506 e9b1 79a2 57a8 817f 6dfb 32b4 81bf
00000020: 99d5 81ff f781 bcc2 8101 2bef 5cbe e237
00000030: 850f 44df 0c0c 8228 d27f a7e5 49c4 a92d
00000040: 8166 e43c dd1a 1271 81b3 bcd2 1281 7f81
00000050: 73ea ee7f f8ff a833 9138 8a9f ab3c 4860
00000060: 1aa6 a781 3450 817f d423 2943 813c e333
00000070: ad0d ea7f f85b ad7f 4cfc 29d4 4f6d 034d
00000080: a4ac 491a 660d 1b30 173a 814d e825 e7e5
00000090: 34b1 e5f5 7fe5 e127 0f38 8181 9fca 35cb
000000a0: 6e0d ee81 12dc 8151 981b b9eb 194e 9989
000000b0: 7f9d f5d8 b935 15f1 163e 2c17 b613 d681
000000c0: 0b3f 2781 58c9 502e 1818 e9e0 5e01 ba3c
000000d0: 74f1 25b8 1551 a91b 110d 312b b76d 8ccf
000000e0: 0b0e c830 40a5 b0ef 7f60 cdc9 0052 9ce1
000000f0: f546 0e39 6206 814c 4942 d70b cbff ad78
-77 127 38 -2 -44 -48 62 106
-21 -127 127 -23 -34 -24 41 11
5 6 -23 -79 121 -94 87 -88
-127 127 109 -5 50 -76 -127 -65
-103 -43 -127 -1 -9 -127 -68 -62
-127 1 43 -17 92 -66 -30 55
-123 15 68 -33 12 12 -126 40
-46 127 -89 -27 73 -60 -87 45
-127 102 -28 60 -35 26 18 113
-127 -77 -68 -46 18 -127 127 -127
115 -22 -18 127 -8 -1 -88 51
-111 56 -118 -97 -85 60 72 96
26 -90 -89 -127 52 80 -127 127
-44 35 41 67 -127 60 -29 51
-83 13 -22 127 -8 91 -83 127
76 -4 41 -44 79 109 3 77
-92 -84 73 26 102 13 27 48
23 58 -127 77 -24 37 -25 -27
52 -79 -27 -11 127 -27 -31 39
15 56 -127 -127 -97 -54 53 -53
110 13 -18 -127 18 -36 -127 81
-104 27 -71 -21 25 78 -103 -119
127 -99 -11 -40 -71 53 21 -15
22 62 44 23 -74 19 -42 -127
11 63 39 -127 88 -55 80 46
24 24 -23 -32 94 1 -70 60
116 -15 37 -72 21 81 -87 27
17 13 49 43 -73 109 -116 -49
11 14 -56 48 64 -91 -80 -17
127 96 -51 -55 0 82 -100 -31
-11 70 14 57 98 6 -127 76
73 66 -41 11 -53 -1 -83 120

tfl.pseudo_qconst15 i1 [50, 3, 3, 3]
00000000: 30ea ccf4 a718 022a 3e1a 81ba c51d 99ff
00000010: e286 86fb a70b aedd 16da 32ed d6c9 b08d
00000020: 1443 00ac a6f6 c7d8 5b8c 5406 af81 e000
00000030: 53fa 6021 cbbf e0f7 ffcf f7fd 093e 2be1
00000040: 011b 161b 287f 4202 ea06 0d1a 081a 2ddb
00000050: dab0 c7e7 b4fb 2dc0 c381 8a9f bd4a 3c2b
00000060: f227 8e1c 5de8 823c 3519 9a0d 9cc7 01d0
00000070: 6062 c290 261f a551 3e81 27c2 decf 1825
00000080: 3713 45b6 87fb 211e 66de 2c0d 9214 32d1
00000090: 0e21 c07f 418f 4c45 a7fc f3ca 4c2e 94f8
000000a0: 1f8f dd00 0ce0 9e68 7e44 8ba7 ffd1 5bd9
000000b0: ac9c 1aa6 c781 73d5 33a5 0e56 e1e7 3b31
000000c0: ea40 f91c 430c 9107 2181 0406 b70e febc
000000d0: 003a 97e1 42be f950 cdd4 f33e 195d d7c4
000000e0: dbae 9b98 5f76 7f0e f01a e0c5 bb31 2110
000000f0: 40eb 1423 b283 1dd0 05f2 1564 0cb2 8144
48 -22 -52 -12 -89 24 2 42
62 26 -127 -70 -59 29 -103 -1
-30 -122 -122 -5 -89 11 -82 -35
22 -38 50 -19 -42 -55 -80 -115
20 67 0 -84 -90 -10 -57 -40
91 -116 84 6 -81 -127 -32 0
83 -6 96 33 -53 -65 -32 -9
-1 -49 -9 -3 9 62 43 -31
1 27 22 27 40 127 66 2
-22 6 13 26 8 26 45 -37
-38 -80 -57 -25 -76 -5 45 -64
-61 -127 -118 -97 -67 74 60 43
-14 39 -114 28 93 -24 -126 60
53 25 -102 13 -100 -57 1 -48
96 98 -62 -112 38 31 -91 81
62 -127 39 -62 -34 -49 24 37
55 19 69 -74 -121 -5 33 30
102 -34 44 13 -110 20 50 -47
14 33 -64 127 65 -113 76 69
-89 -4 -13 -54 76 46 -108 -8
31 -113 -35 0 12 -32 -98 104
126 68 -117 -89 -1 -47 91 -39
-84 -100 26 -90 -57 -127 115 -43
51 -91 14 86 -31 -25 59 49
-22 64 -7 28 67 12 -111 7
33 -127 4 6 -73 14 -2 -68
0 58 -105 -31 66 -66 -7 80
-51 -44 -13 62 25 93 -41 -60
-37 -82 -101 -104 95 118 127 14
-16 26 -32 -59 -69 49 33 16
64 -21 20 35 -78 -125 29 -48
5 -14 21 100 12 -78 -127 68
