skin-lesion-models/classification/ColNAS-m_N_k_20_c_3LI8ac97.85_tfsz_154.0_lat_0.248_FSH_ 154.47_RAM_25.08.tflite (tflite, 154472 bytes, 5 tensors)

tfl.pseudo_qconst1 i1 [7, 129]
000000 06 22 3c b5 04 3a 93 fc b5 c0 aa 98 98 b8 31 c5
       6 34 60 -75 4 58 -109 -4 -75 -64 -86 -104 -104 -72 49 -59
000010 42 d8 48 2d 9d c0 a2 43 94 1c e3 d1 32 23 23 b0
       66 -40 72 45 -99 -64 -94 67 -108 28 -29 -47 50 35 35 -80
000020 3a d4 ca b2 07 46 c5 e6 f8 dd 29 05 35 d2 ff 08
       58 -44 -54 -78 7 70 -59 -26 -8 -35 41 5 53 -46 -1 8
000030 0e ed f5 f9 a5 ef bd 2d 4e 17 09 41 33 33 db 29
       14 -19 -11 -7 -91 -17 -67 45 78 23 9 65 51 51 -37 41
000040 1c 4e 42 bb 8a 2a c8 55 81 ad ba 11 dc ff 02 c2
       28 78 66 -69 -118 42 -56 85 -127 -83 -70 17 -36 -1 2 -62
000050 e9 2c df 11 fe 41 b2 34 d1 00 33 f5 d1 ca 2e 20
       -23 44 -33 17 -2 65 -78 52 -47 0 51 -11 -47 -54 46 32
000060 39 0e db 50 bc ff a0 91 2c c2 49 d2 d2 0f a2 aa
       57 14 -37 80 -68 -1 -96 -111 44 -62 73 -46 -46 15 -94 -86
000070 ab 00 a1 2c 51 a4 e1 1f eb c2 c4 0a 4b 2a 8f 30
       -85 0 -95 44 81 -92 -31 31 -21 -62 -60 10 75 42 -113 48
000080 33 dd ad 36 f1 05 4c 0f 39 dd e5 a6 dc 39 44 ab
       51 -35 -83 54 -15 5 76 15 57 -35 -27 -90 -36 57 68 -85
000090 07 13 3d d5 d1 ae ac 54 bb e2 31 2c bc c3 95 ca
       7 19 61 -43 -47 -82 -84 84 -69 -30 49 44 -68 -61 -107 -54
0000a0 1a 27 1f d4 37 1a dc 04 08 c2 0f 20 ee a3 b9 c5
       26 39 31 -44 55 26 -36 4 8 -62 15 32 -18 -93 -71 -59
0000b0 18 04 ae 9f 36 0c a7 4e ad ae 9b 3c d9 33 12 4a
       24 4 -82 -97 54 12 -89 78 -83 -82 -101 60 -39 51 18 74
0000c0 a9 a1 bd 27 1d 9e 26 c1 f3 ac 13 4f 2d 8b ac bc
       -87 -95 -67 39 29 -98 38 -63 -13 -84 19 79 45 -117 -84 -68
0000d0 3b 3e 3d e5 f9 91 3e 29 2e d5 bc 9f 4d c1 cf 13
       59 62 61 -27 -7 -111 62 41 46 -43 -68 -97 77 -63 -49 19
0000e0 2c b9 4f 2c 09 e1 17 d5 25 39 09 44 45 fa 04 ce
       44 -71 79 44 9 -31 23 -43 37 57 9 68 69 -6 4 -50
0000f0 81 ef 3d d8 ee 1d b0 56 f2 4c 3a 3e 05 bc a9 dd
       -127 -17 61 -40 -18 29 -80 86 -14 76 58 62 5 -68 -87 -35

tfl.pseudo_qconst3 i1 [129, 3, 3, 83]
000000 05 e9 d7 14 05 21 27 0e e2 01 36 15 14 06 1e df
       5 -23 -41 20 5 33 39 14 -30 1 54 21 20 6 30 -33
000010 e6 04 27 e7 f8 2d f9 16 28 ff 06 e5 cb 23 f4 17
       -26 4 39 -25 -8 45 -7 22 40 -1 6 -27 -53 35 -12 23
000020 f7 0a 0a e9 11 1e 0d 33 ca f4 39 27 0a 3e e4 22
       -9 10 10 -23 17 30 13 51 -54 -12 57 39 10 62 -28 34
000030 7f 32 c7 35 e5 ac 20 27 30 09 dc e1 09 2b c6 12
       127 50 -57 53 -27 -84 32 39 48 9 -36 -31 9 43 -58 18
000040 09 e7 f2 ef 35 07 46 3b f4 b6 c6 b1 36 f9 f5 df
       9 -25 -14 -17 53 7 70 59 -12 -74 -58 -79 54 -7 -11 -33
000050 1b ff 13 0e fb 15 ef 14 2a ac 4e fc cf 0c fe f7
       27 -1 19 14 -5 21 -17 20 42 -84 78 -4 -49 12 -2 -9
000060 e6 40 c1 eb de dd be fd fb 2e d5 18 fe 08 e0 00
       -26 64 -63 -21 -34 -35 -66 -3 -5 46 -43 24 -2 8 -32 0
000070 fa d5 d4 fc 12 fd ca ed f8 d2 2c d6 39 2d 67 d3
       -6 -43 -44 -4 18 -3 -54 -19 -8 -46 44 -42 57 45 103 -45
000080 b4 0f f2 fe bd de 08 f6 fb 30 0a ed 08 0c a7 b8
       -76 15 -14 -2 -67 -34 8 -10 -5 48 10 -19 8 12 -89 -72
000090 ef ec f9 d3 05 b2 01 f1 fa cf fa 1d af 04 01 00
       -17 -20 -7 -45 5 -78 1 -15 -6 -49 -6 29 -81 4 1 0
0000a0 d3 f7 d0 c5 da 11 3a ce 10 fd fe f8 fc 70 df c8
       -45 -9 -48 -59 -38 17 58 -50 16 -3 -2 -8 -4 112 -33 -56
0000b0 c0 00 2f df 00 bc 12 e9 f8 1d 8b 3a 6f d9 de 2d
       -64 0 47 -33 0 -68 18 -23 -8 29 -117 58 111 -39 -34 45
0000c0 22 df e4 10 d1 f6 10 0e 58 f8 16 db fc 16 b4 31
       34 -33 -28 16 -47 -10 16 14 88 -8 22 -37 -4 22 -76 49
0000d0 c4 26 f0 ec 44 e5 fb e8 ef f2 43 ce eb d7 20 ee
       -60 38 -16 -20 68 -27 -5 -24 -17 -14 67 -50 -21 -41 32 -18
0000e0 13 b6 c3 fc cd 2d c6 c4 b1 ee f3 09 e8 12 10 e0
       19 -74 -61 -4 -51 45 -58 -60 -79 -18 -13 9 -24 18 16 -32
0000f0 07 0e 32 eb eb f0 e4 09 2a 26 1e bf f4 ed 04 cd
       7 14 50 -21 -21 -16 -28 9 42 38 30 -65 -12 -19 4 -51

tfl.pseudo_qconst5 i1 [83, 3, 3, 46]
000000 e2 e9 eb 2b e7 dd ee 1c 07 fd a4 ef 24 04 23 07
       -30 -23 -21 43 -25 -35 -18 28 7 -3 -92 -17 36 4 35 7
000010 00 e6 12 19 e5 e3 c8 de 0d d5 fe 0c 0a 4b 1c 9e
       0 -26 18 25 -27 -29 -56 -34 13 -43 -2 12 10 75 28 -98
000020 1d 04 04 1e da e8 4d fc 11 06 1e 2b e5 35 e2 f3
       29 4 4 30 -38 -24 77 -4 17 6 30 43 -27 53 -30 -13
000030 fc b6 fb fa 13 07 f0 e8 14 f8 b5 b4 b5 fc 03 e9
       -4 -74 -5 -6 19 7 -16 -24 20 -8 -75 -76 -75 -4 3 -23
000040 3c 2a e5 06 e4 04 ce 35 df 09 23 07 e7 eb ef e6
       60 42 -27 6 -28 4 -50 53 -33 9 35 7 -25 -21 -17 -26
000050 ce d1 07 ec 0c e5 0a db e7 07 cf d6 0d 11 00 f1
       -50 -47 7 -20 12 -27 10 -37 -25 7 -49 -42 13 17 0 -15
000060 2e 09 26 c2 19 e7 0b ff e5 e6 c0 f4 23 10 09 12
       46 9 38 -62 25 -25 11 -1 -27 -26 -64 -12 35 16 9 18
000070 22 c3 0d 2d fc dd ed c9 f6 18 eb 3d f3 af 00 bd
       34 -61 13 45 -4 -35 -19 -55 -10 24 -21 61 -13 -81 0 -67
000080 15 05 e5 fe fc 19 fa 10 f9 d4 e4 e9 cf f5 02 e6
       21 5 -27 -2 -4 25 -6 16 -7 -44 -28 -23 -49 -11 2 -26
000090 17 18 d8 03 b5 10 14 20 0c 1d f5 f7 e3 2f f5 db
       23 24 -40 3 -75 16 20 32 12 29 -11 -9 -29 47 -11 -37
0000a0 18 ce fb e6 1e 2f f5 c1 12 ff 50 94 12 02 df 13
       24 -50 -5 -26 30 47 -11 -63 18 -1 80 -108 18 2 -33 19
0000b0 07 12 24 f1 24 37 d4 1c 23 01 b8 dc 2f da 00 d0
       7 18 36 -15 36 55 -44 28 35 1 -72 -36 47 -38 0 -48
0000c0 ef 26 03 01 07 18 f0 0a f7 ed f6 26 0b fb 1d 11
       -17 38 3 1 7 24 -16 10 -9 -19 -10 38 11 -5 29 17
0000d0 11 0d dc 43 2a d8 ec 2f de dd 08 d2 0d 03 39 01
       17 13 -36 67 42 -40 -20 47 -34 -35 8 -46 13 3 57 1
0000e0 1f 0a 05 ec 14 ea 10 ee e0 09 1f 13 ff d9 b4 fb
       31 10 5 -20 20 -22 16 -18 -32 9 31 19 -1 -39 -76 -5
0000f0 01 26 46 f8 ec 25 fe 1a ec fc 18 f3 06 23 03 01
       1 38 70 -8 -20 37 -2 26 -20 -4 24 -13 6 35 3 1

tfl.pseudo_qconst7 i1 [46, 3, 3, 20]
000000 e0 f2 fa 24 fa 20 f3 dc f6 3e f1 ff ef 15 f2 11
       -32 -14 -6 36 -6 32 -13 -36 -10 62 -15 -1 -17 21 -14 17
000010 ec 10 07 ff e6 34 d4 d8 23 fc ee 15 0e b1 09 09
       -20 16 7 -1 -26 52 -44 -40 35 -4 -18 21 14 -79 9 9
000020 af d6 1e e3 ec 06 14 f4 fd 2a ed d4 e4 ca b6 09
       -81 -42 30 -29 -20 6 20 -12 -3 42 -19 -44 -28 -54 -74 9
000030 e0 d2 19 37 3c 22 0a 0b 14 18 54 fa ea dd e3 f7
       -32 -46 25 55 60 34 10 11 20 24 84 -6 -22 -35 -29 -9
000040 17 08 e8 f6 e6 09 da ef cb 0c 1d ec e9 e9 ff 11
       23 8 -24 -10 -26 9 -38 -17 -53 12 29 -20 -23 -23 -1 17
000050 f7 b2 ad 04 36 1f 0b fd 1c cd d5 ec d7 e3 e3 de
       -9 -78 -83 4 54 31 11 -3 28 -51 -43 -20 -41 -29 -29 -34
000060 fd fe fb 1d 13 07 50 04 01 0c c0 fe e6 f1 0f 1a
       -3 -2 -5 29 19 7 80 4 1 12 -64 -2 -26 -15 15 26
000070 f2 dc 0b 0e 2e 22 0e 36 fb d2 a8 f4 10 c2 27 25
       -14 -36 11 14 46 34 14 54 -5 -46 -88 -12 16 -62 39 37
000080 15 16 10 06 0e fc e1 0d 02 b5 29 04 dd ea c4 ce
       21 22 16 6 14 -4 -31 13 2 -75 41 4 -35 -22 -60 -50
000090 f6 09 13 24 04 aa f7 e9 05 ea 01 0a e4 f5 04 dc
       -10 9 19 36 4 -86 -9 -23 5 -22 1 10 -28 -11 4 -36
0000a0 f6 c6 0f f7 fc d8 04 bc 03 07 02 e1 1f 81 d1 12
       -10 -58 15 -9 -4 -40 4 -68 3 7 2 -31 31 -127 -47 18
0000b0 27 18 ff 1d 31 b3 4f db 20 ca f0 d6 bc 15 f4 e7
       39 24 -1 29 49 -77 79 -37 32 -54 -16 -42 -68 21 -12 -25
0000c0 cc f1 e6 ff 36 ce eb 07 f2 25 03 1e 05 12 ee cf
       -52 -15 -26 -1 54 -50 -21 7 -14 37 3 30 5 18 -18 -49
0000d0 e6 e0 11 02 db e6 fa 4c f3 de a3 26 0b 26 02 df
       -26 -32 17 2 -37 -26 -6 76 -13 -34 -93 38 11 38 2 -33
0000e0 f2 df 0f ba 04 81 13 e0 e5 ca 14 1d be 06 e6 ef
       -14 -33 15 -70 4 -127 19 -32 -27 -54 20 29 -66 6 -26 -17
0000f0 3c 9d 3d f1 16 a8 31 32 eb b2 b1 13 de 23 ef c5
       60 -99 61 -15 22 -88 49 50 -21 -78 -79 19 -34 35 -17 -59

tfl.pseudo_qconst9 i1 [20, 3, 3, 3]
000000 b0 df 38 81 a9 21 d3 ed 62 a8 82 2e 95 e5 44 35
       -80 -33 56 -127 -87 33 -45 -19 98 -88 -126 46 -107 -27 68 53
000010 3d 3d 78 cf 10 3b af 1f 2f ad c3 c0 a8 9a ec ea
       61 61 120 -49 16 59 -81 31 47 -83 -61 -64 -88 -102 -20 -22
000020 c8 66 5b 79 25 1b cf b9 e9 2a ff 43 1d 1b 7f 71
       -56 102 91 121 37 27 -49 -71 -23 42 -1 67 29 27 127 113
000030 08 00 e6 f4 81 b6 71 49 d9 bc b2 81 e4 17 3e e3
       8 0 -26 -12 -127 -74 113 73 -39 -68 -78 -127 -28 23 62 -29
000040 3d 53 d9 a9 20 aa 07 3b 18 5e 45 24 2a d9 b4 df
       61 83 -39 -87 32 -86 7 59 24 94 69 36 42 -39 -76 -33
000050 d2 b3 f4 e2 fd 08 c1 be f0 d5 d6 3c e2 2c 41 c4
       -46 -77 -12 -30 -3 8 -63 -66 -16 -43 -42 60 -30 44 65 -60
000060 c0 e9 ac fb d5 81 ee f8 c1 0b ff cb 69 d8 27 05
       -64 -23 -84 -5 -43 -127 -18 -8 -63 11 -1 -53 105 -40 39 5
000070 81 9c 2b 41 c3 b5 b9 1e 16 b5 3a 3d 13 47 ee bd
       -127 -100 43 65 -61 -75 -71 30 22 -75 58 61 19 71 -18 -67
000080 6b c6 d3 5c c5 df 0e 58 fc e4 36 c7 bb 03 f1 81
       107 -58 -45 92 -59 -33 14 88 -4 -28 54 -57 -69 3 -15 -127
000090 20 ef 21 03 29 f9 dd 25 fe 09 fa fc cd f5 08 fb
       32 -17 33 3 41 -7 -35 37 -2 9 -6 -4 -51 -11 8 -5
0000a0 1c e3 50 a2 59 2f 48 2c ac c1 2c 43 09 52 a5 86
       28 -29 80 -94 89 47 72 44 -84 -63 44 67 9 82 -91 -122
0000b0 91 e7 49 39 d2 81 ae 5d a6 df 16 7e 69 27 5d 19
       -111 -25 73 57 -46 -127 -82 93 -90 -33 22 126 105 39 93 25
0000c0 a6 f9 e1 3b dc 44 d1 b3 81 b5 f0 d3 f9 50 3e 0a
       -90 -7 -31 59 -36 68 -47 -77 -127 -75 -16 -45 -7 80 62 10
0000d0 25 06 45 24 9f dc f9 1d 50 c5 c8 f5 24 04 d7 46
       37 6 69 36 -97 -36 -7 29 80 -59 -56 -11 36 4 -41 70
0000e0 1d 6f b1 e0 f5 ad 5f e5 0c 54 7f 95 a6 a5 df 21
       29 111 -79 -32 -11 -83 95 -27 12 84 127 -107 -90 -91 -33 33
0000f0 9f 7d 61 15 2e 47 d6 fd ea eb 35 1d bd 2a 67 12
       -97 125 97 21 46 71 -42 -3 -22 -21 53 29 -67 42 103 18
