skin-lesion-models/classification/HVTINY_N_0_d_0_[1, 4, 4, 1]_k_30_c_3LI8ac98.14_tfsz_51.0_lat_0.241_FSH_ 51.16_RAM_56.83.tflite (tflite, 51168 bytes, 10 tensors)

tfl.pseudo_qconst1 i1 [7, 30]
000000 25 46 58 29 43 5d 3b 6f f4 da e2 0a e0 f8 f3 7f
       37 70 88 41 67 93 59 111 -12 -38 -30 10 -32 -8 -13 127
000010 36 0f 10 fc 49 fc 06 13 e1 66 9f 91 07 14 e1 ea
       54 15 16 -4 73 -4 6 19 -31 102 -97 -111 7 20 -31 -22
000020 64 19 4a 6a 2d f8 74 34 3c 14 5f cc 13 fb 48 01
       100 25 74 106 45 -8 116 52 60 20 95 -52 19 -5 72 1
000030 14 f7 58 01 06 26 ea 7d 05 04 81 00 3a ea e1 35
       20 -9 88 1 6 38 -22 125 5 4 -127 0 58 -22 -31 53
000040 fb e4 67 03 ed ce 3a 1f d9 0d 11 09 db 8c 10 00
       -5 -28 103 3 -19 -50 58 31 -39 13 17 9 -37 -116 16 0
000050 d1 7f f6 ad de db 85 f8 fc 1a de e8 55 dc 4d ed
       -47 127 -10 -83 -34 -37 -123 -8 -4 26 -34 -24 85 -36 77 -19
000060 dc 5e 55 d5 f0 c6 51 02 0a 70 ec bb e7 7f e7 fa
       -36 94 85 -43 -16 -58 81 2 10 112 -20 -69 -25 127 -25 -6
000070 92 13 1e e5 a9 a5 9c f7 ae f1 ca 81 f5 cb c6 0b
       -110 19 30 -27 -87 -91 -100 -9 -82 -15 -54 -127 -11 -53 -58 11
000080 d5 62 c3 45 c1 24 12 ff b6 17 2c 00 ba f6 fc 01
       -43 98 -61 69 -63 36 18 -1 -74 23 44 0 -70 -10 -4 1
000090 61 b1 03 ee ef 29 e8 33 ec 27 f7 49 f4 fb 3e 1c
       97 -79 3 -18 -17 41 -24 51 -20 39 -9 73 -12 -5 62 28
0000a0 ec 91 3a 0b d4 fc e3 ee 81 5f 36 3c b6 a3 28 42
       -20 -111 58 11 -44 -4 -29 -18 -127 95 54 60 -74 -93 40 66
0000b0 f7 fd 01 d6 25 0d ec d1 f7 ef ee 07 f0 e0 1c 87
       -9 -3 1 -42 37 13 -20 -47 -9 -17 -18 7 -16 -32 28 -121
0000c0 ec b6 de 05 30 0a 81 00 e3 ff 02 11 e3 e3 07 f9
       -20 -74 -34 5 48 10 -127 0 -29 -1 2 17 -29 -29 7 -7
0000d0 fe af
       -2 -81

tfl.pseudo_qconst3 i1 [30, 1, 1, 120]
000000 0b 40 d8 02 11 d9 b2 df e8 d6 08 4a cd 89 f4 cc
       11 64 -40 2 17 -39 -78 -33 -24 -42 8 74 -51 -119 -12 -52
000010 9b f9 cf c4 3b ff db 9e ea 9c af ed b5 bb 27 e7
       -101 -7 -49 -60 59 -1 -37 -98 -22 -100 -81 -19 -75 -69 39 -25
000020 12 31 3e eb 0e 03 3b bd a9 eb c5 47 28 d4 2f 57
       18 49 62 -21 14 3 59 -67 -87 -21 -59 71 40 -44 47 87
000030 e5 58 f3 e2 a7 18 07 1c 23 4c 15 37 e9 23 d6 45
       -27 88 -13 -30 -89 24 7 28 35 76 21 55 -23 35 -42 69
000040 36 d1 1d bd 57 51 ff c6 20 37 4f f7 cb 4a 1e 1e
       54 -47 29 -67 87 81 -1 -58 32 55 79 -9 -53 74 30 30
000050 24 3b 07 69 27 bc 65 1a 0a 33 da 0f 08 da 81 22
       36 59 7 105 39 -68 101 26 10 51 -38 15 8 -38 -127 34
000060 32 89 e7 dd 4b 57 ba 25 ea e6 f3 46 ac 41 12 59
       50 -119 -25 -35 75 87 -70 37 -22 -26 -13 70 -84 65 18 89
000070 ae 24 d5 f3 22 30 b2 cf 1b d3 e7 f6 04 ce 26 f5
       -82 36 -43 -13 34 48 -78 -49 27 -45 -25 -10 4 -50 38 -11
000080 3c 24 12 45 cd 3e 28 ec f0 12 04 fe fc 38 1b 16
       60 36 18 69 -51 62 40 -20 -16 18 4 -2 -4 56 27 22
000090 c1 15 df e5 02 5e 37 22 da f5 09 a5 1d f9 d6 ba
       -63 21 -33 -27 2 94 55 34 -38 -11 9 -91 29 -7 -42 -70
0000a0 12 03 f0 07 16 dc dd 1a e3 f5 d6 25 01 81 cb 15
       18 3 -16 7 22 -36 -35 26 -29 -11 -42 37 1 -127 -53 21
0000b0 ec 1d 1f d0 cb 46 fc 02 19 13 12 ac 11 02 f2 ee
       -20 29 31 -48 -53 70 -4 2 25 19 18 -84 17 2 -14 -18
0000c0 e0 36 0d 9d 15 0e 09 f2 e7 0b fb 06 3f fe f0 0c
       -32 54 13 -99 21 14 9 -14 -25 11 -5 6 63 -2 -16 12
0000d0 0b 0b 09 de 14 1b fb f0 1d 30 c4 c6 18 c9 28 f4
       11 11 9 -34 20 27 -5 -16 29 48 -60 -58 24 -55 40 -12
0000e0 17 24 cf 4e f9 d3 d3 e6 e1 b4 ea cc 43 ff f7 f7
       23 36 -49 78 -7 -45 -45 -26 -31 -76 -22 -52 67 -1 -9 -9
0000f0 9e ed 04 cd 23 41 fc 04 a3 07 21 b7 c8 ea db e3
       -98 -19 4 -51 35 65 -4 4 -93 7 33 -73 -56 -22 -37 -29

tfl.pseudo_qconst4 i1 [1, 3, 3, 120]
000000 da 0f 0c 38 2b 3a 14 fd 2b 20 f8 0e 7f 99 c1 10
       -38 15 12 56 43 58 20 -3 43 32 -8 14 127 -103 -63 16
000010 d5 1d e8 51 46 f6 ff be ea 0d f9 6e fe 81 23 34
       -43 29 -24 81 70 -10 -1 -66 -22 13 -7 110 -2 -127 35 52
000020 03 ee 10 5e f2 ca ab 1b 5b ca 39 67 d5 0e 07 f1
       3 -18 16 94 -14 -54 -85 27 91 -54 57 103 -43 14 7 -15
000030 e6 0a 26 05 41 90 f5 25 b6 fc ab b9 06 d2 dc 20
       -26 10 38 5 65 -112 -11 37 -74 -4 -85 -71 6 -46 -36 32
000040 04 f2 fa d1 e6 16 d8 1b e9 f8 09 12 0e 24 34 1a
       4 -14 -6 -47 -26 22 -40 27 -23 -8 9 18 14 36 52 26
000050 2b f4 01 30 14 43 f0 d0 41 fd e4 01 52 c8 c3 15
       43 -12 1 48 20 67 -16 -48 65 -3 -28 1 82 -56 -61 21
000060 d9 33 36 ad bf 30 63 42 25 27 fc cf 96 f0 81 bf
       -39 51 54 -83 -65 48 99 66 37 39 -4 -49 -106 -16 -127 -65
000070 d8 b2 2d c3 73 fb f5 24 ed f5 0e 1b ce b9 1c ae
       -40 -78 45 -61 115 -5 -11 36 -19 -11 14 27 -50 -71 28 -82
000080 26 e5 ec bb 3c c2 4f d1 42 7f e6 bb af 2b d3 81
       38 -27 -20 -69 60 -62 79 -47 66 127 -26 -69 -81 43 -45 -127
000090 db 01 df a4 4f fa fa 29 0a 7f 8a 60 44 81 7d 30
       -37 1 -33 -92 79 -6 -6 41 10 127 -118 96 68 -127 125 48
0000a0 61 f7 e4 c5 e5 da 28 8a bc 9b 81 f4 b0 81 c4 be
       97 -9 -28 -59 -27 -38 40 -118 -68 -101 -127 -12 -80 -127 -60 -66
0000b0 be 13 81 10 ed 17 7f 7f f8 3a 24 29 a0 57 0a 17
       -66 19 -127 16 -19 23 127 127 -8 58 36 41 -96 87 10 23
0000c0 19 de 0a 6c 8d 42 c4 1b 81 b7 12 37 7f b7 02 03
       25 -34 10 108 -115 66 -60 27 -127 -73 18 55 127 -73 2 3
0000d0 7f 30 81 09 cd 1c db 3a 51 f8 2a ac cd cd b2 7f
       127 48 -127 9 -51 28 -37 58 81 -8 42 -84 -51 -51 -78 127
0000e0 16 30 6e bb 7c 11 f4 52 b9 7f ee 81 f8 24 2e bf
       22 48 110 -69 124 17 -12 82 -71 127 -18 -127 -8 36 46 -65
0000f0 2c 7f e5 cc 15 b3 ee 06 d9 32 de 0a 3e 48 f7 ed
       44 127 -27 -52 21 -77 -18 6 -39 50 -34 10 62 72 -9 -19

tfl.pseudo_qconst6 i1 [120, 1, 1, 120]
000000 c5 e4 2f db fa c3 f1 7a 15 d2 e3 e0 4e 37 a2 e3
       -59 -28 47 -37 -6 -61 -15 122 21 -46 -29 -32 78 55 -94 -29
000010 45 c9 b2 33 4c 2c 31 f7 38 f3 48 2d fa ef 01 cb
       69 -55 -78 51 76 44 49 -9 56 -13 72 45 -6 -17 1 -53
000020 27 4a 20 fa b3 15 b9 dd bd 09 fe 81 5a 16 32 0d
       39 74 32 -6 -77 21 -71 -35 -67 9 -2 -127 90 22 50 13
000030 e7 20 e9 31 de c6 dd e4 d1 06 fa d5 c7 b5 da f0
       -25 32 -23 49 -34 -58 -35 -28 -47 6 -6 -43 -57 -75 -38 -16
000040 27 16 cb 0d 36 44 bc 42 44 c5 0a 1a 09 da e3 cb
       39 22 -53 13 54 68 -68 66 68 -59 10 26 9 -38 -29 -53
000050 00 05 c6 32 07 4e 12 49 15 49 04 29 f6 90 0f 43
       0 5 -58 50 7 78 18 73 21 73 4 41 -10 -112 15 67
000060 2b 51 fc e6 30 e0 15 23 45 03 e8 a9 fb ef 1a fa
       43 81 -4 -26 48 -32 21 35 69 3 -24 -87 -5 -17 26 -6
000070 fa e3 2e 09 c8 dd 3e e6 3f ea 2c dc ce 1b de 19
       -6 -29 46 9 -56 -35 62 -26 63 -22 44 -36 -50 27 -34 25
000080 f1 b4 dc 18 59 d5 0f 16 73 2a d3 23 e9 07 f4 b8
       -15 -76 -36 24 89 -43 15 22 115 42 -45 35 -23 7 -12 -72
000090 09 2d 17 d7 da 1a f4 ea cd ee 32 34 40 10 59 08
       9 45 23 -41 -38 26 -12 -22 -51 -18 50 52 64 16 89 8
0000a0 ae e1 bf b7 10 01 c5 1e 23 1c f9 f3 32 1e cf 18
       -82 -31 -65 -73 16 1 -59 30 35 28 -7 -13 50 30 -49 24
0000b0 fd 14 3a 49 7f ce 2c ee f2 14 ee 02 cb 06 cf f8
       -3 20 58 73 127 -50 44 -18 -14 20 -18 2 -53 6 -49 -8
0000c0 ef f9 2b ec 02 13 00 1c 2a de e3 d0 22 53 b0 d0
       -17 -7 43 -20 2 19 0 28 42 -34 -29 -48 34 83 -80 -48
0000d0 10 26 f6 07 d0 48 da ff 3e 29 f2 be b6 3e 0f 42
       16 38 -10 7 -48 72 -38 -1 62 41 -14 -66 -74 62 15 66
0000e0 15 dd e0 18 fa 23 01 03 c9 c7 29 09 ed ee d8 df
       21 -35 -32 24 -6 35 1 3 -55 -57 41 9 -19 -18 -40 -33
0000f0 f1 f3 1e 0e bd 02 06 e3 da f5 fe e1 02 1e eb 31
       -15 -13 30 14 -67 2 6 -29 -38 -11 -2 -31 2 30 -21 49

tfl.pseudo_qconst9 i1 [1, 3, 3, 120]
000000 d8 fd ce 55 dc 81 95 e3 81 fd 1f 72 81 7f 1f e2
       -40 -3 -50 85 -36 -127 -107 -29 -127 -3 31 114 -127 127 31 -30
000010 2e 42 96 18 35 ea da 94 07 7f b6 e8 6c 8c 1f 57
       46 66 -106 24 53 -22 -38 -108 7 127 -74 -24 108 -116 31 87
000020 d1 6a 52 ed e7 d9 81 95 df f2 f6 e2 c8 4b ef fe
       -47 106 82 -19 -25 -39 -127 -107 -33 -14 -10 -30 -56 75 -17 -2
000030 3b 1e a3 81 90 fe 17 45 66 d1 17 d9 3d ba c3 f9
       59 30 -93 -127 -112 -2 23 69 102 -47 23 -39 61 -70 -61 -7
000040 d1 49 71 50 81 24 d5 7f c6 5d 81 02 1f 48 ec 00
       -47 73 113 80 -127 36 -43 127 -58 93 -127 2 31 72 -20 0
000050 99 94 04 13 e2 ed 08 81 e8 7f e7 11 dc ad 82 f7
       -103 -108 4 19 -30 -19 8 -127 -24 127 -25 17 -36 -83 -126 -9
000060 22 e8 f4 3d fe 83 0b 93 0c 18 c2 e3 5c 0b f3 05
       34 -24 -12 61 -2 -125 11 -109 12 24 -62 -29 92 11 -13 5
000070 bd 18 92 ae 2b 60 fa 81 81 2d 5a 03 6a cd 94 18
       -67 24 -110 -82 43 96 -6 -127 -127 45 90 3 106 -51 -108 24
000080 2d e1 23 fa 28 fe ab 81 5b fb b5 02 24 d9 6c 92
       45 -31 35 -6 40 -2 -85 -127 91 -5 -75 2 36 -39 108 -110
000090 7f c8 35 df 18 48 36 d3 81 f2 6a 81 a6 0c fa 7f
       127 -56 53 -33 24 72 54 -45 -127 -14 106 -127 -90 12 -6 127
0000a0 72 f0 7b 40 2d 41 7f ac 58 19 42 1c d1 cb 81 3b
       114 -16 123 64 45 65 127 -84 88 25 66 28 -47 -53 -127 59
0000b0 f1 6a 2b 81 00 be 3a 04 fa f0 0b c0 da 6e a9 ce
       -15 106 43 -127 0 -66 58 4 -6 -16 11 -64 -38 110 -87 -50
0000c0 52 f5 bc ed e4 7f f2 d4 c7 84 cf 30 21 f6 ac 47
       82 -11 -68 -19 -28 127 -14 -44 -57 -124 -49 48 33 -10 -84 71
0000d0 0e bf 81 3e 7f a8 9b f2 01 2a d1 23 b9 c3 ac e4
       14 -65 -127 62 127 -88 -101 -14 1 42 -47 35 -71 -61 -84 -28
0000e0 36 38 fc 11 61 1f 78 53 9b d1 81 81 0f 2e a6 02
       54 56 -4 17 97 31 120 83 -101 -47 -127 -127 15 46 -90 2
0000f0 7a c1 17 81 26 a4 fc 9c 3c 81 18 96 3e 8f 78 30
       122 -63 23 -127 38 -92 -4 -100 60 -127 24 -106 62 -113 120 48

tfl.pseudo_qconst11 i1 [120, 1, 1, 30]
000000 ec f1 82 13 22 dd e1 04 31 d2 00 fa b8 d0 fe 1b
       -20 -15 -126 19 34 -35 -31 4 49 -46 0 -6 -72 -48 -2 27
000010 08 e4 dd f2 82 3b 23 cd 81 0d d1 47 9d 49 04 fa
       8 -28 -35 -14 -126 59 35 -51 -127 13 -47 71 -99 73 4 -6
000020 26 04 28 04 04 c7 fb 8c dc fe c9 f7 4f 0b f0 0c
       38 4 40 4 4 -57 -5 -116 -36 -2 -55 -9 79 11 -16 12
000030 16 0c 6c db ee ed 43 2a 20 81 18 14 23 35 4f bd
       22 12 108 -37 -18 -19 67 42 32 -127 24 20 35 53 79 -67
000040 dc 0a 2e 87 c0 93 22 b8 8e f4 eb 05 d5 de 30 f6
       -36 10 46 -121 -64 -109 34 -72 -114 -12 -21 5 -43 -34 48 -10
000050 c8 7f 03 f4 ac 12 de 60 a5 da 0a ef fa ca 0b 17
       -56 127 3 -12 -84 18 -34 96 -91 -38 10 -17 -6 -54 11 23
000060 fe fe 24 fd 2a db ed f5 21 ef 50 19 1d fa 20 06
       -2 -2 36 -3 42 -37 -19 -11 33 -17 80 25 29 -6 32 6
000070 09 fe ed fd 03 16 2c 7f e4 ef f5 31 fb 05 0b 7f
       9 -2 -19 -3 3 22 44 127 -28 -17 -11 49 -5 5 11 127
000080 de ce fb d4 1e fd eb 0b 29 d5 e9 0f 06 f6 e9 f0
       -34 -50 -5 -44 30 -3 -21 11 41 -43 -23 15 6 -10 -23 -16
000090 33 da eb fd 08 f5 f3 0b cf 21 7f 11 02 d0 f3 19
       51 -38 -21 -3 8 -11 -13 11 -49 33 127 17 2 -48 -13 25
0000a0 e6 0a 0c 02 38 0f f6 36 b4 e3 cf f6 e3 10 d7 24
       -26 10 12 2 56 15 -10 54 -76 -29 -49 -10 -29 16 -41 36
0000b0 c2 bb 13 38 fa dc e4 81 5e 00 02 9a d3 c5 25 b7
       -62 -69 19 56 -6 -36 -28 -127 94 0 2 -102 -45 -59 37 -73
0000c0 a9 f1 08 29 e5 45 06 e1 58 0b 02 2a 5b 17 10 21
       -87 -15 8 41 -27 69 6 -31 88 11 2 42 91 23 16 33
0000d0 5c 33 fc 16 18 20 f9 ef 12 be 60 d6 df 88 b7 20
       92 51 -4 22 24 32 -7 -17 18 -66 96 -42 -33 -120 -73 32
0000e0 81 41 f6 38 23 f6 e9 02 13 fd 2b f4 fd e9 35 ee
       -127 65 -10 56 35 -10 -23 2 19 -3 43 -12 -3 -23 53 -18
0000f0 ee 28 f2 b3 c3 14 ff 18 e3 fc f2 b5 20 1c 81 06
       -18 40 -14 -77 -61 20 -1 24 -29 -4 -14 -75 32 28 -127 6

tfl.pseudo_qconst13 i1 [1, 3, 3, 30]
000000 0e 16 c7 68 d5 90 ef cc 16 16 00 3f a8 c3 17 c1
       14 22 -57 104 -43 -112 -17 -52 22 22 0 63 -88 -61 23 -63
000010 f4 51 df d4 46 57 88 00 41 be 69 1c f5 24 dc 7f
       -12 81 -33 -44 70 87 -120 0 65 -66 105 28 -11 36 -36 127
000020 8a 6f 4e 57 44 cc 65 7f b4 d4 29 37 42 31 f0 ef
       -118 111 78 87 68 -52 101 127 -76 -44 41 55 66 49 -16 -17
000030 31 7f 0b 9f 57 7f cc 58 f8 13 d7 5c 3f da 50 28
       49 127 11 -97 87 127 -52 88 -8 19 -41 92 63 -38 80 40
000040 29 20 f7 f8 ea 5a ff 81 e6 23 ae ce b2 dd e1 09
       41 32 -9 -8 -22 90 -1 -127 -26 35 -82 -50 -78 -35 -31 9
000050 dd d4 ef d8 de 40 13 33 08 01 51 ed e1 14 81 81
       -35 -44 -17 -40 -34 64 19 51 8 1 81 -19 -31 20 -127 -127
000060 b9 a9 64 fb 0b 45 7f cb 26 10 81 1e 07 30 3c 17
       -71 -87 100 -5 11 69 127 -53 38 16 -127 30 7 48 60 23
000070 f6 04 40 a9 18 3a d5 7f 81 b8 b1 7f 8d f0 44 e3
       -10 4 64 -87 24 58 -43 127 -127 -72 -79 127 -115 -16 68 -29
000080 14 4a 8f 07 34 0e 4c ef bd 3e 7f a5 d8 81 0d 47
       20 74 -113 7 52 14 76 -17 -67 62 127 -91 -40 -127 13 71
000090 81 1f 83 7f 81 23 67 f9 81 00 4d d5 ec 11 87 39
       -127 31 -125 127 -127 35 103 -7 -127 0 77 -43 -20 17 -121 57
0000a0 09 d9 58 1b ba ef 8c 9d 1e fc 81 e1 3a 3c a6 79
       9 -39 88 27 -70 -17 -116 -99 30 -4 -127 -31 58 60 -90 121
0000b0 ca e6 94 ad cb f9 e4 c8 8a 01 60 81 65 ea 46 cd
       -54 -26 -108 -83 -53 -7 -28 -56 -118 1 96 -127 101 -22 70 -51
0000c0 20 7f 9e 1d b3 fc e4 df 32 39 f0 8d 5d cc 1e 47
       32 127 -98 29 -77 -4 -28 -33 50 57 -16 -115 93 -52 30 71
0000d0 f0 fe 22 f0 ca fd e3 fa 81 9a 15 dd 81 0e 09 9f
       -16 -2 34 -16 -54 -3 -29 -6 -127 -102 21 -35 -127 14 9 -97
0000e0 bb 81 a7 33 47 ff c8 ab 7f aa bb 81 81 5d f8 0d
       -69 -127 -89 51 71 -1 -56 -85 127 -86 -69 -127 -127 93 -8 13
0000f0 d0 cb 01 c0 33 d1 1e be 81 1b fb 2e 59 dc 81 5d
       -48 -53 1 -64 51 -47 30 -66 -127 27 -5 46 89 -36 -127 93

tfl.pseudo_qconst15 i1 [1, 3, 3, 30]
000000 13 1e f9 fa 20 fc 81 a1 39 65 a8 55 ea e8 34 ba
       19 30 -7 -6 32 -4 -127 -95 57 101 -88 85 -22 -24 52 -70
000010 12 d5 ef 42 31 1c f3 7f 6d 0e 7f de 84 b5 68 74
       18 -43 -17 66 49 28 -13 127 109 14 127 -34 -124 -75 104 116
000020 0e 42 b5 fa b9 ce cb 4a e3 55 81 1a 38 fa 92 49
       14 66 -75 -6 -71 -50 -53 74 -29 85 -127 26 56 -6 -110 73
000030 ad 4e f8 7f b6 3f c6 d7 31 c0 e6 46 0b c6 a8 12
       -83 78 -8 127 -74 63 -58 -41 49 -64 -26 70 11 -58 -88 18
000040 f4 0b 18 b7 cf d4 81 16 07 e4 c3 1f 81 23 08 9e
       -12 11 24 -73 -49 -44 -127 22 7 -28 -61 31 -127 35 8 -98
000050 de 5a 3b 1e 7f c7 3e 81 58 f5 03 e5 dc 26 44 e5
       -34 90 59 30 127 -57 62 -127 88 -11 3 -27 -36 38 68 -27
000060 40 d0 0e e1 e9 c0 42 12 2d c4 2d b2 fc 27 17 26
       64 -48 14 -31 -23 -64 66 18 45 -60 45 -78 -4 39 23 38
000070 e5 8a 37 2c 72 c7 81 dc 2c 75 6a 7f 34 df 0e 7f
       -27 -118 55 44 114 -57 -127 -36 44 117 106 127 52 -33 14 127
000080 83 5a 00 3c 2c 8a 27 cb df 48 e0 0c 81 4b 26 55
       -125 90 0 60 44 -118 39 -53 -33 72 -32 12 -127 75 38 85
000090 12 d8 24 4f 39 71 81 a8 7f 44 ba c9 bc 40 d8 0a
       18 -40 36 79 57 113 -127 -88 127 68 -70 -55 -68 64 -40 10
0000a0 ac 68 c3 3a c6 a2 b8 7f 15 e1 b0 44 c2 58 ef 9d
       -84 104 -61 58 -58 -94 -72 127 21 -31 -80 68 -62 88 -17 -99
0000b0 03 74 6a 63 eb fb dd 34 09 e7 04 1f 0c 81 a9 81
       3 116 106 99 -21 -5 -35 52 9 -25 4 31 12 -127 -87 -127
0000c0 4b 69 c3 c3 34 a1 0a a0 c6 fa 81 b0 47 f9 fc 17
       75 105 -61 -61 52 -95 10 -96 -58 -6 -127 -80 71 -7 -4 23
0000d0 bd e4 5a 81 46 56 81 81 62 fe 81 95 d8 a7 7e 81
       -67 -28 90 -127 70 86 -127 -127 98 -2 -127 -107 -40 -89 126 -127
0000e0 bf 52 06 5c 7f ce 7b de 88 b6 17 9b 22 14 23 78
       -65 82 6 92 127 -50 123 -34 -120 -74 23 -101 34 20 35 120
0000f0 b5 44 35 0f 1a 25 39 14 cb 06 db c1 3c 87 81 81
       -75 68 53 15 26 37 57 20 -53 6 -37 -63 60 -121 -127 -127

tfl.pseudo_qconst17 i1 [1, 3, 3, 30]
000000 24 81 ad 71 da ef 3a a7 7e 25 72 07 53 f1 77 48
       36 -127 -83 113 -38 -17 58 -89 126 37 114 7 83 -15 119 72
000010 7f 92 b5 38 87 07 6c 46 e3 df 7f bc 81 50 b0 c1
       127 -110 -75 56 -121 7 108 70 -29 -33 127 -68 -127 80 -80 -63
000020 b1 65 f6 58 92 45 7f d6 e4 bb 49 cc 5d 25 02 23
       -79 101 -10 88 -110 69 127 -42 -28 -69 73 -52 93 37 2 35
000030 e9 92 97 0b c8 60 87 24 6a f6 fa 42 4b ec 81 7c
       -23 -110 -105 11 -56 96 -121 36 106 -10 -6 66 75 -20 -127 124
000040 2a a7 a6 a9 19 9c 70 81 e9 46 1d 23 99 72 45 d3
       42 -89 -90 -87 25 -100 112 -127 -23 70 29 35 -103 114 69 -45
000050 05 a4 7f 7f bd 75 2e fc 34 aa 0b d7 39 20 81 09
       5 -92 127 127 -67 117 46 -4 52 -86 11 -41 57 32 -127 9
000060 22 2a 6e 16 48 63 7f 8b be 3a 57 92 81 37 7f 71
       34 42 110 22 72 99 127 -117 -66 58 87 -110 -127 55 127 113
000070 fa bd f4 a8 69 de 8c 6a f0 a5 47 ef e6 81 0a 72
       -6 -67 -12 -88 105 -34 -116 106 -16 -91 71 -17 -26 -127 10 114
000080 42 7f b8 70 7d 00 e2 81 23 7f d7 3c 7d 7f e0 63
       66 127 -72 112 125 0 -30 -127 35 127 -41 60 125 127 -32 99
000090 81 0b 3e 5b 5c 7f 81 d0 42 e4 15 48 7f 41 63 2d
       -127 11 62 91 92 127 -127 -48 66 -28 21 72 127 65 99 45
0000a0 3d 2f 27 91 c4 f1 97 6d 62 fc 13 f0 51 fb 27 78
       61 47 39 -111 -60 -15 -105 109 98 -4 19 -16 81 -5 39 120
0000b0 ed 7f 1c 35 42 e4 65 bf e1 a5 df 21 3d c0 7f cc
       -19 127 28 53 66 -28 101 -65 -31 -91 -33 33 61 -64 127 -52
0000c0 97 04 b4 34 31 a0 26 32 13 7c 9f 89 08 81 f4 cb
       -105 4 -76 52 49 -96 38 50 19 124 -97 -119 8 -127 -12 -53
0000d0 e1 46 2b fb 7d 8e a5 73 ee 7f 17 1c e4 fc ea 81
       -31 70 43 -5 125 -114 -91 115 -18 127 23 28 -28 -4 -22 -127
0000e0 66 c0 08 5e 7f dd 0b 7b d1 69 06 ee 55 f5 7b 7d
       102 -64 8 94 127 -35 11 123 -47 105 6 -18 85 -11 123 125
0000f0 41 37 24 81 eb da a8 c7 70 5a 73 16 2d 95 81 cc
       65 55 36 -127 -21 -38 -88 -57 112 90 115 22 45 -107 -127 -52

tfl.pseudo_qconst19 i1 [30, 3, 3, 3]
000000 81 54 45 2b 52 0a 15 1d eb 9a 47 6b b0 14 4c d0
       -127 84 69 43 82 10 21 29 -21 -102 71 107 -80 20 76 -48
000010 54 c4 e2 5e 96 ca 21 f2 6b 36 cc c9 e8 15 aa e8
       84 -60 -30 94 -106 -54 33 -14 107 54 -52 -55 -24 21 -86 -24
000020 b6 20 7d ad 6e 25 40 a3 7f 27 64 28 51 0d 9c c5
       -74 32 125 -83 110 37 64 -93 127 39 100 40 81 13 -100 -59
000030 cc 66 2f 05 33 5b 2c 4b 4a 2d 71 67 33 7f 5f f5
       -52 102 47 5 51 91 44 75 74 45 113 103 51 127 95 -11
000040 e9 eb 05 f7 fe fa f0 d7 0c bc 90 16 c2 a0 28 db
       -23 -21 5 -9 -2 -6 -16 -41 12 -68 -112 22 -62 -96 40 -37
000050 b6 67 ee b9 73 e2 a1 60 cc bb 65 ee e0 7f e9 d6
       -74 103 -18 -71 115 -30 -95 96 -52 -69 101 -18 -32 127 -23 -42
000060 6c dd e0 fe c6 f7 1e e8 05 12 d5 f2 60 4f 4c f3
       108 -35 -32 -2 -58 -9 30 -24 5 18 -43 -14 96 79 76 -13
000070 de d8 ec d2 cf 7f 76 5a 18 25 13 12 ef ec 6e 56
       -34 -40 -20 -46 -49 127 118 90 24 37 19 18 -17 -20 110 86
000080 41 f9 d8 dd ef d3 cc 45 81 a1 42 de 9d 08 2a 33
       65 -7 -40 -35 -17 -45 -52 69 -127 -95 66 -34 -99 8 42 51
000090 a5 9e 55 6a f6 72 d8 93 6f e3 ea ab b5 b8 96 65
       -91 -98 85 106 -10 114 -40 -109 111 -29 -22 -85 -75 -72 -106 101
0000a0 dd fe 0b f1 27 96 a8 74 1c f0 66 81 66 50 cb 9f
       -35 -2 11 -15 39 -106 -88 116 28 -16 102 -127 102 80 -53 -97
0000b0 91 71 57 81 05 ef 86 93 9f be fa c1 44 a9 ad 96
       -111 113 87 -127 5 -17 -122 -109 -97 -66 -6 -63 68 -87 -83 -106
0000c0 10 83 6b 8d 40 ef 88 30 5c 81 f2 f2 0c fe 1d 30
       16 -125 107 -115 64 -17 -120 48 92 -127 -14 -14 12 -2 29 48
0000d0 8e ac e6 cf 45 c7 0b e4 e6 69 fe e1 5e d9 fd 67
       -114 -84 -26 -49 69 -57 11 -28 -26 105 -2 -31 94 -39 -3 103
0000e0 cc ed 61 ea be 66 a4 da 6c a4 f7 51 f8 dd 7f b9
       -52 -19 97 -22 -66 102 -92 -38 108 -92 -9 81 -8 -35 127 -71
0000f0 e4 60 bd 15 4b c2 fb 53 bd 00 31 e7 11 f3 02 f9
       -28 96 -67 21 75 -62 -5 83 -67 0 49 -25 17 -13 2 -7
