skin-lesion-models/classification/LBCNN_NF_(16, 2)_LI8ac86.61_tfsz_41.0_lat_0.579.tflite (tflite, 41656 bytes, 3 tensors)

tfl.pseudo_qconst i1 [7, 4704]
000000 cb bc d6 30 f7 ea 25 14 d3 73 00 ea f7 fd f1 09
       -53 -68 -42 48 -9 -22 37 20 -45 115 0 -22 -9 -3 -15 9
000010 00 ec f4 ce 2b fd e9 09 f7 03 08 24 00 00 f5 fb
       0 -20 -12 -50 43 -3 -23 9 -9 3 8 36 0 0 -11 -5
000020 43 14 13 ec b1 c2 f4 27 14 ef 24 06 05 30 df d9
       67 20 19 -20 -79 -62 -12 39 20 -17 36 6 5 48 -33 -39
000030 f8 3b c5 11 08 fa f2 25 db 0f fa d3 33 2d f8 de
       -8 59 -59 17 8 -6 -14 37 -37 15 -6 -45 51 45 -8 -34
000040 f1 e6 33 f7 c7 f1 ac ba cd fe 11 2b d6 fb 02 df
       -15 -26 51 -9 -57 -15 -84 -70 -51 -2 17 43 -42 -5 2 -33
000050 f4 df d0 1c dc d6 14 fa f8 03 fb f5 de 06 03 32
       -12 -33 -48 28 -36 -42 20 -6 -8 3 -5 -11 -34 6 3 50
000060 06 21 05 2d 17 03 58 de dc 1a fb ec e3 08 2e 2d
       6 33 5 45 23 3 88 -34 -36 26 -5 -20 -29 8 46 45
000070 ec 1d 1a df 28 fb 17 ea fe fa 06 f4 09 08 39 06
       -20 29 26 -33 40 -5 23 -22 -2 -6 6 -12 9 8 57 6
000080 09 e3 0b fe 6e fa 24 ea 0f 03 fa ed ea 08 08 1a
       9 -29 11 -2 110 -6 36 -22 15 3 -6 -19 -22 8 8 26
000090 fb e7 21 e7 ed 28 ed de 19 f2 02 03 fb ea ea f5
       -5 -25 33 -25 -19 40 -19 -34 25 -14 2 3 -5 -22 -22 -11
0000a0 33 fe ea fd 3c 09 03 36 19 fb 0c 03 ca f5 08 09
       51 -2 -22 -3 60 9 3 54 25 -5 12 3 -54 -11 8 9
0000b0 3b 0c 1f f2 fe 32 ef d8 05 0c e4 d9 fe fb 0c 06
       59 12 31 -14 -2 50 -17 -40 5 12 -28 -39 -2 -5 12 6
0000c0 e7 11 fd d8 00 03 e3 ed 19 ba ed e4 14 d2 fa ed
       -25 17 -3 -40 0 3 -29 -19 25 -70 -19 -28 20 -46 -6 -19
0000d0 11 09 0b cd ef 0b b6 41 fa 0e 11 ea 14 14 f7 14
       17 9 11 -51 -17 11 -74 65 -6 14 17 -22 20 20 -9 20
0000e0 f5 1f 21 ef ef fb fe 03 ed db 2d ec 03 e4 e1 e4
       -11 31 33 -17 -17 -5 -2 3 -19 -37 45 -20 3 -28 -31 -28
0000f0 f8 25 ef 0b 2d 36 05 fb 21 1c f1 1a 09 0e fe df
       -8 37 -17 11 45 54 5 -5 33 28 -15 26 9 14 -2 -33

tfl.pseudo_qconst2 i1 [1, 3, 3, 96]
000000 81 81 81 81 81 81 81 81 81 81 81 7f 7f 7f 7f 7f
       -127 -127 -127 -127 -127 -127 -127 -127 -127 -127 -127 127 127 127 127 127
000010 7f 7f 81 81 81 81 81 81 81 7f 7f 7f 81 81 7f 81
       127 127 -127 -127 -127 -127 -127 -127 -127 127 127 127 -127 -127 127 -127
000020 81 81 7f 7f 7f 81 7f 81 7f 81 81 81 81 81 7f 81
       -127 -127 127 127 127 -127 127 -127 127 -127 -127 -127 -127 -127 127 -127
000030 81 81 7f 81 7f 7f 7f 7f 7f 7f 81 7f 7f 81 81 81
       -127 -127 127 -127 127 127 127 127 127 127 -127 127 127 -127 -127 -127
000040 81 7f 7f 81 7f 81 81 7f 7f 7f 81 7f 81 7f 81 7f
       -127 127 127 -127 127 -127 -127 127 127 127 -127 127 -127 127 -127 127
000050 7f 7f 7f 81 81 7f 7f 81 7f 81 81 7f 7f 7f 7f 7f
       127 127 127 -127 -127 127 127 -127 127 -127 -127 127 127 127 127 127
000060 81 7f 7f 81 7f 81 7f 81 81 81 7f 81 7f 81 81 81
       -127 127 127 -127 127 -127 127 -127 -127 -127 127 -127 127 -127 -127 -127
000070 7f 81 81 81 81 81 81 81 81 81 81 81 81 81 81 7f
       127 -127 -127 -127 -127 -127 -127 -127 -127 -127 -127 -127 -127 -127 -127 127
000080 81 81 7f 7f 7f 81 7f 7f 7f 7f 81 7f 81 81 7f 81
       -127 -127 127 127 127 -127 127 127 127 127 -127 127 -127 -127 127 -127
000090 7f 7f 81 7f 7f 7f 81 7f 7f 81 81 7f 81 7f 7f 7f
       127 127 -127 127 127 127 -127 127 127 -127 -127 127 -127 127 127 127
0000a0 7f 7f 7f 81 81 7f 81 81 7f 7f 81 7f 7f 7f 81 7f
       127 127 127 -127 -127 127 -127 -127 127 127 -127 127 127 127 -127 127
0000b0 81 7f 81 81 81 81 81 7f 7f 7f 81 81 81 7f 7f 7f
       -127 127 -127 -127 -127 -127 -127 127 127 127 -127 -127 -127 127 127 127
0000c0 7f 81 81 81 7f 81 81 7f 7f 81 7f 7f 7f 7f 7f 7f
       127 -127 -127 -127 127 -127 -127 127 127 -127 127 127 127 127 127 127
0000d0 7f 81 81 81 81 7f 81 7f 7f 7f 7f 81 7f 7f 81 81
       127 -127 -127 -127 -127 127 -127 127 127 127 127 -127 127 127 -127 -127
0000e0 81 7f 81 81 7f 7f 81 7f 81 81 81 7f 7f 81 81 81
       -127 127 -127 -127 127 127 -127 127 -127 -127 -127 127 127 -127 -127 -127
0000f0 7f 7f 7f 81 7f 7f 81 7f 81 81 7f 81 81 81 7f 7f
       127 127 127 -127 127 127 -127 127 -127 -127 127 -127 -127 -127 127 127

tfl.pseudo_qconst4 i1 [1, 3, 3, 48]
000000 7f 81 7f 81 7f 7f 81 81 81 7f 81 7f 81 7f 81 7f
       127 -127 127 -127 127 127 -127 -127 -127 127 -127 127 -127 127 -127 127
000010 81 7f 81 7f 81 81 81 81 7f 81 7f 81 81 81 81 81
       -127 127 -127 127 -127 -127 -127 -127 127 -127 127 -127 -127 -127 -127 -127
000020 81 81 81 81 7f 81 7f 81 7f 81 81 81 7f 81 7f 7f
       -127 -127 -127 -127 127 -127 127 -127 127 -127 -127 -127 127 -127 127 127
000030 81 81 81 81 81 81 7f 7f 7f 81 7f 7f 7f 81 7f 7f
       -127 -127 -127 -127 -127 -127 127 127 127 -127 127 127 127 -127 127 127
000040 7f 7f 81 7f 81 81 81 81 7f 7f 81 7f 81 81 7f 7f
       127 127 -127 127 -127 -127 -127 -127 127 127 -127 127 -127 -127 127 127
000050 7f 81 7f 7f 7f 81 81 7f 7f 81 7f 81 7f 7f 7f 81
       127 -127 127 127 127 -127 -127 127 127 -127 127 -127 127 127 127 -127
000060 7f 7f 7f 7f 7f 7f 81 7f 81 7f 7f 7f 7f 81 81 81
       127 127 127 127 127 127 -127 127 -127 127 127 127 127 -127 -127 -127
000070 7f 7f 7f 7f 81 7f 81 81 81 81 81 7f 81 81 81 81
       127 127 127 127 -127 127 -127 -127 -127 -127 -127 127 -127 -127 -127 -127
000080 81 7f 81 7f 81 81 7f 81 7f 7f 7f 7f 7f 81 81 7f
       -127 127 -127 127 -127 -127 127 -127 127 127 127 127 127 -127 -127 127
000090 81 81 81 7f 7f 7f 7f 81 7f 81 81 7f 81 81 7f 81
       -127 -127 -127 127 127 127 127 -127 127 -127 -127 127 -127 -127 127 -127
0000a0 7f 81 81 7f 7f 81 81 7f 7f 7f 81 81 7f 7f 7f 81
       127 -127 -127 127 127 -127 -127 127 127 127 -127 -127 127 127 127 -127
0000b0 81 7f 7f 81 7f 81 81 81 7f 81 81 81 7f 7f 7f 7f
       -127 127 127 -127 127 -127 -127 -127 127 -127 -127 -127 127 127 127 127
0000c0 7f 7f 7f 81 81 81 81 7f 81 7f 7f 7f 81 81 81 7f
       127 127 127 -127 -127 -127 -127 127 -127 127 127 127 -127 -127 -127 127
0000d0 7f 81 7f 7f 7f 7f 7f 7f 81 7f 7f 81 7f 7f 7f 7f
       127 -127 127 127 127 127 127 127 -127 127 127 -127 127 127 127 127
0000e0 81 81 81 81 7f 7f 7f 7f 81 7f 81 7f 7f 7f 7f 7f
       -127 -127 -127 -127 127 127 127 127 -127 127 -127 127 127 127 127 127
0000f0 81 81 81 81 81 81 81 81 7f 81 7f 81 81 7f 81 81
       -127 -127 -127 -127 -127 -127 -127 -127 127 -127 127 -127 -127 127 -127 -127
