skin-lesion-models/classification/LBCNN_NF_(4, 3, 2)_LI8ac58.01_tfsz_16.0_lat_0.295_FSH_ 16.9_RAM_15.87.tflite (tflite, 16904 bytes, 4 tensors)

tfl.pseudo_qconst i1 [7, 1152]
0 15 2 15 -22 -17 97 -50
-7 -15 -52 37 5 17 2 -10
-2 5 -12 75 -22 -52 17 7
5 2 15 20 -5 -30 2 -12
0 12 -12 -25 22 -7 -12 0
-57 -22 12 0 -10 -5 10 0
-7 -5 -5 -32 7 -5 -7 15
10 -17 -15 -22 67 17 -20 -12
-2 5 -7 -15 0 7 -10 -2
-17 -2 -22 -62 -5 -17 -92 35
-7 35 -12 2 -20 -17 5 -15
10 -5 -15 -2 52 -22 -10 22
0 -5 35 -57 10 -5 -20 2
15 -10 2 -47 -10 5 0 12
-30 17 5 5 0 2 2 5
20 5 5 20 -10 5 -2 -25
-7 12 7 17 -70 10 -5 5
0 5 2 17 0 -5 10 0
15 -10 17 2 82 52 -92 25
-17 5 -27 25 -25 0 -35 27
-15 10 32 15 -52 15 -12 -2
2 7 40 -32 -2 20 0 5
-12 37 30 32 -42 17 0 -5
12 -17 12 -2 -5 45 -10 15
30 7 -10 27 5 -12 30 -7
17 25 -32 -15 2 -40 5 -17
5 -7 -2 -10 -2 17 -2 5
-30 25 -2 -15 -42 -87 42 5
-20 -7 7 10 32 15 22 -25
37 -12 -20 20 -52 -50 -22 65
0 -7 27 -7 0 -35 -5 -22
-17 -72 -5 7 25 2 5 -5
00000000: 000f 020f eaef 61ce f9f1 cc25 0511 02f6
00000010: fe05 f44b eacc 1107 0502 0f14 fbe2 02f4
00000020: 000c f4e7 16f9 f400 c7ea 0c00 f6fb 0a00
00000030: f9fb fbe0 07fb f90f 0aef f1ea 4311 ecf4
00000040: fe05 f9f1 0007 f6fe effe eac2 fbef a423
00000050: f923 f402 ecef 05f1 0afb f1fe 34ea f616
00000060: 00fb 23c7 0afb ec02 0ff6 02d1 f605 000c
00000070: e211 0505 0002 0205 1405 0514 f605 fee7
00000080: f90c 0711 ba0a fb05 0005 0211 00fb 0a00
00000090: 0ff6 1102 5234 a419 ef05 e519 e700 dd1b
000000a0: f10a 200f cc0f f4fe 0207 28e0 fe14 0005
000000b0: f425 1e20 d611 00fb 0cef 0cfe fb2d f60f
000000c0: 1e07 f61b 05f4 1ef9 1119 e0f1 02d8 05ef
000000d0: 05f9 fef6 fe11 fe05 e219 fef1 d6a9 2a05
000000e0: ecf9 070a 200f 16e7 25f4 ec14 ccce ea41
000000f0: 00f9 1bf9 00dd fbea efb8 fb07 1902 05fb

tfl.pseudo_qconst2 i1 [1, 3, 3, 72]
-127 127 127 127 -127 127 -127 127
-127 -127 -127 127 127 127 127 -127
-127 127 -127 127 -127 -127 -127 127
-127 -127 127 127 -127 127 -127 -127
-127 127 127 -127 127 -127 -127 127
-127 -127 127 127 -127 127 127 127
127 -127 -127 -127 -127 127 -127 -127
127 -127 127 127 -127 -127 -127 127
127 127 -127 -127 127 127 -127 -127
127 127 -127 127 -127 127 -127 127
-127 -127 -127 -127 127 127 -127 127
127 127 -127 -127 -127 -127 -127 127
127 -127 127 -127 127 127 -127 127
127 127 127 127 127 -127 -127 127
127 -127 127 -127 127 -127 -127 127
-127 -127 -127 127 127 127 -127 -127
127 -127 127 -127 -127 127 -127 127
-127 -127 -127 -127 -127 -127 -127 -127
127 127 127 127 127 -127 127 127
127 -127 127 127 127 127 127 127
127 -127 127 127 -127 127 -127 -127
127 -127 127 127 -127 127 -127 -127
127 -127 127 -127 -127 -127 -127 127
127 127 -127 -127 127 127 127 -127
127 -127 -127 127 127 127 -127 127
127 127 -127 -127 127 127 -127 -127
127 127 127 127 -127 127 127 127
-127 127 -127 -127 127 127 127 127
-127 127 -127 -127 -127 127 127 -127
127 -127 127 127 127 -127 127 -127
127 127 -127 127 -127 -127 127 -127
-127 -127 127 127 -127 127 -127 127
00000000: 817f 7f7f 817f 817f 8181 817f 7f7f 7f81
00000010: 817f 817f 8181 817f 8181 7f7f 817f 8181
00000020: 817f 7f81 7f81 817f 8181 7f7f 817f 7f7f
00000030: 7f81 8181 817f 8181 7f81 7f7f 8181 817f
00000040: 7f7f 8181 7f7f 8181 7f7f 817f 817f 817f
00000050: 8181 8181 7f7f 817f 7f7f 8181 8181 817f
00000060: 7f81 7f81 7f7f 817f 7f7f 7f7f 7f81 817f
00000070: 7f81 7f81 7f81 817f 8181 817f 7f7f 8181
00000080: 7f81 7f81 817f 817f 8181 8181 8181 8181
00000090: 7f7f 7f7f 7f81 7f7f 7f81 7f7f 7f7f 7f7f
000000a0: 7f81 7f7f 817f 8181 7f81 7f7f 817f 8181
000000b0: 7f81 7f81 8181 817f 7f7f 8181 7f7f 7f81
000000c0: 7f81 817f 7f7f 817f 7f7f 8181 7f7f 8181
000000d0: 7f7f 7f7f 817f 7f7f 817f 8181 7f7f 7f7f
000000e0: 817f 8181 817f 7f81 7f81 7f7f 7f81 7f81
000000f0: 7f7f 817f 8181 7f81 8181 7f7f 817f 817f

tfl.pseudo_qconst4 i1 [1, 3, 3, 36]
-127 127 127 127 127 127 127 127
-127 -127 127 -127 127 127 -127 -127
-127 -127 127 -127 127 -127 -127 -127
-127 -127 127 127 127 127 127 -127
-127 -127 127 -127 -127 127 -127 127
-127 -127 127 -127 127 -127 127 -127
127 -127 -127 -127 127 -127 127 -127
-127 -127 127 -127 -127 -127 127 -127
-127 -127 -127 127 -127 127 -127 127
127 -127 -127 127 127 127 -127 127
127 -127 -127 127 127 127 127 127
127 127 -127 127 -127 -127 -127 127
127 -127 127 -127 127 127 127 -127
127 -127 127 127 -127 127 -127 127
-127 127 -127 127 127 -127 -127 -127
127 -127 127 127 127 127 -127 127
127 127 127 -127 -127 127 127 127
-127 127 127 127 -127 -127 -127 -127
127 127 -127 -127 127 127 -127 127
127 127 127 -127 127 127 -127 -127
-127 127 127 -127 127 127 127 -127
127 127 127 -127 -127 127 -127 127
127 127 -127 127 -127 127 127 -127
127 127 127 127 127 -127 127 127
127 -127 -127 127 127 127 -127 -127
127 127 -127 127 127 -127 127 -127
-127 -127 127 -127 127 127 127 127
127 127 -127 127 127 127 127 -127
127 127 -127 127 127 -127 -127 127
-127 127 -127 127 -127 127 -127 127
127 -127 -127 -127 127 -127 -127 127
-127 -127 127 -127 127 -127 127 -127
00000000: 817f 7f7f 7f7f 7f7f 8181 7f81 7f7f 8181
00000010: 8181 7f81 7f81 8181 8181 7f7f 7f7f 7f81
00000020: 8181 7f81 817f 817f 8181 7f81 7f81 7f81
00000030: 7f81 8181 7f81 7f81 8181 7f81 8181 7f81
00000040: 8181 817f 817f 817f 7f81 817f 7f7f 817f
00000050: 7f81 817f 7f7f 7f7f 7f7f 817f 8181 817f
00000060: 7f81 7f81 7f7f 7f81 7f81 7f7f 817f 817f
00000070: 817f 817f 7f81 8181 7f81 7f7f 7f7f 817f
00000080: 7f7f 7f81 817f 7f7f 817f 7f7f 8181 8181
00000090: 7f7f 8181 7f7f 817f 7f7f 7f81 7f7f 8181
000000a0: 817f 7f81 7f7f 7f81 7f7f 7f81 817f 817f
000000b0: 7f7f 817f 817f 7f81 7f7f 7f7f 7f81 7f7f
000000c0: 7f81 817f 7f7f 8181 7f7f 817f 7f81 7f81
000000d0: 8181 7f81 7f7f 7f7f 7f7f 817f 7f7f 7f81
000000e0: 7f7f 817f 7f81 817f 817f 817f 817f 817f
000000f0: 7f81 8181 7f81 817f 8181 7f81 7f81 7f81

tfl.pseudo_qconst6 i1 [1, 3, 3, 12]
-127 127 127 127 127 127 -127 -127
127 127 -127 127 127 -127 127 127
-127 -127 -127 -127 -127 -127 -127 127
-127 127 -127 127 -127 127 -127 127
127 127 -127 127 127 -127 127 -127
127 127 -127 -127 -127 -127 -127 -127
127 127 -127 127 -127 -127 127 127
-127 127 -127 -127 -127 -127 -127 -127
127 -127 127 -127 127 -127 127 127
127 -127 127 127 -127 127 -127 -127
127 -127 -127 -127 127 127 -127 -127
-127 127 -127 127 -127 -127 127 -127
-127 127 -127 -127 127 -127 127 127
127 127 127 127
00000000: 817f 7f7f 7f7f 8181 7f7f 817f 7f81 7f7f
00000010: 8181 8181 8181 817f 817f 817f 817f 817f
00000020: 7f7f 817f 7f81 7f81 7f7f 8181 8181 8181
00000030: 7f7f 817f 8181 7f7f 817f 8181 8181 8181
00000040: 7f81 7f81 7f81 7f7f 7f81 7f7f 817f 8181
00000050: 7f81 8181 7f7f 8181 817f 817f 8181 7f81
00000060: 817f 8181 7f81 7f7f 7f7f 7f7f
