skin-lesion-models/classification/VRES_Nr0_d_0.6_[40, 120, 60, 40]_[2, 1, 1, 0]_[]LI8ac97.57_tfsz_94.0_lat_1.35_FSH_ 94.75_RAM_112.64.tflite (tflite, 94752 bytes, 21 tensors)

tfl.pseudo_qconst1 i1 [7, 40]
0	0x12	18
1	0x81	-127
2	0xf8	-8
3	0x04	4
4	0xfd	-3
5	0xb9	-71
6	0xb0	-80
7	0xbd	-67
8	0xdd	-35
9	0xfa	-6
10	0xe8	-24
11	0x01	1
12	0xe9	-23
13	0xf4	-12
14	0xf6	-10
15	0xe9	-23
16	0x10	16
17	0xa5	-91
18	0x0f	15
19	0xfe	-2
20	0xcf	-49
21	0xd1	-47
22	0xfc	-4
23	0xbd	-67
24	0x06	6
25	0xf0	-16
26	0x9e	-98
27	0xc9	-55
28	0xf8	-8
29	0xc8	-56
30	0xb4	-76
31	0xfc	-4
32	0xa5	-91
33	0xfc	-4
34	0xcd	-51
35	0xaf	-81
36	0xa8	-88
37	0xf0	-16
38	0xc3	-61
39	0xeb	-21
40	0xe0	-32
41	0xef	-17
42	0xfa	-6
43	0xfc	-4
44	0xf3	-13
45	0xe9	-23
46	0xa5	-91
47	0xf2	-14
48	0x16	22
49	0xf7	-9
50	0xb4	-76
51	0xff	-1
52	0xe2	-30
53	0xbf	-65
54	0x81	-127
55	0x1f	31
56	0x0e	14
57	0x95	-107
58	0x07	7
59	0xc4	-60
60	0xf3	-13
61	0xf6	-10
62	0xbd	-67
63	0xed	-19
64	0xd0	-48
65	0xa4	-92
66	0xec	-20
67	0xeb	-21
68	0xf4	-12
69	0xf3	-13
70	0xe9	-23
71	0xf4	-12
72	0xa0	-96
73	0xc2	-62
74	0xf6	-10
75	0xb0	-80
76	0xa2	-94
77	0xe8	-24
78	0xb1	-79
79	0xe6	-26
80	0xcf	-49
81	0xe7	-25
82	0xa2	-94
83	0xfa	-6
84	0xef	-17
85	0x81	-127
86	0xf5	-11
87	0xe1	-31
88	0xd2	-46
89	0x99	-103
90	0xda	-38
91	0xf6	-10
92	0xd8	-40
93	0xe0	-32
94	0xee	-18
95	0xe7	-25
96	0xb7	-73
97	0xe0	-32
98	0xb2	-78
99	0xb9	-71
100	0xbd	-67
101	0xc6	-58
102	0xe5	-27
103	0xe9	-23
104	0xbe	-66
105	0x8b	-117
106	0xe4	-28
107	0xa2	-94
108	0xf2	-14
109	0x9a	-102
110	0x8d	-115
111	0xc1	-63
112	0xef	-17
113	0xea	-22
114	0xf8	-8
115	0xe7	-25
116	0xe4	-28
117	0xdf	-33
118	0x9c	-100
119	0xdf	-33
120	0x0c	12
121	0xf5	-11
122	0xa7	-89
123	0x0e	14
124	0xba	-70
125	0xb0	-80
126	0x91	-111
127	0xe1	-31
128	0x26	38
129	0xb1	-79
130	0xe1	-31
131	0xc1	-63
132	0x47	71
133	0xb4	-76
134	0x84	-124
135	0x1e	30
136	0x1e	30
137	0x89	-119
138	0xc9	-55
139	0x11	17
140	0xf9	-7
141	0xce	-50
142	0xff	-1
143	0xf2	-14
144	0x04	4
145	0xeb	-21
146	0x81	-127
147	0xf9	-7
148	0xb0	-80
149	0xef	-17
150	0x9a	-102
151	0xc0	-64
152	0x03	3
153	0x03	3
154	0xf9	-7
155	0x05	5
156	0xf6	-10
157	0xe1	-31
158	0xf6	-10
159	0x40	64
160	0xc3	-61
161	0xd3	-45
162	0xda	-38
163	0x95	-107
164	0x9c	-100
165	0xca	-54
166	0xe5	-27
167	0x81	-127
168	0xb4	-76
169	0xe3	-29
170	0xc6	-58
171	0x9b	-101
172	0xcb	-53
173	0x83	-125
174	0xe0	-32
175	0xc6	-58
176	0xa9	-87
177	0xcd	-51
178	0x99	-103
179	0xd8	-40
180	0x8c	-116
181	0xa0	-96
182	0x9b	-101
183	0xd9	-39
184	0xa9	-87
185	0xbf	-65
186	0xe0	-32
187	0xc8	-56
188	0x95	-107
189	0xdb	-37
190	0xc1	-63
191	0x98	-104
192	0xde	-34
193	0x94	-108
194	0xa6	-90
195	0xdc	-36
196	0xd7	-41
197	0xd2	-46
198	0xd7	-41
199	0xcb	-53
200	0xdf	-33
201	0x81	-127
202	0xbd	-67
203	0xc8	-56
204	0xd9	-39
205	0xf2	-14
206	0x08	8
207	0xba	-70
208	0x22	34
209	0xb9	-71
210	0xfa	-6
211	0xd0	-48
212	0x41	65
213	0xfe	-2
214	0xad	-83
215	0xdd	-35
216	0xd6	-42
217	0xfe	-2
218	0x1b	27
219	0xd9	-39
220	0x02	2
221	0x00	0
222	0xd3	-45
223	0xfd	-3
224	0x0e	14
225	0xe8	-24
226	0x00	0
227	0xee	-18
228	0x0b	11
229	0xaa	-86
230	0xf9	-7
231	0xeb	-21
232	0xbd	-67
233	0xd5	-43
234	0x04	4
235	0xbd	-67
236	0xa6	-90
237	0xb1	-79
238	0x02	2
239	0x46	70
240	0x0d	13
241	0xdf	-33
242	0xef	-17
243	0xb7	-73
244	0xb8	-72
245	0xe2	-30
246	0xf7	-9
247	0xe4	-28
248	0xd3	-45
249	0xef	-17
250	0x9d	-99
251	0xc2	-62
252	0xe1	-31
253	0xea	-22
254	0xeb	-21
255	0xe5	-27

tfl.pseudo_qconst3 i1 [1, 3, 3, 40]
0	0x1b	27
1	0xac	-84
2	0x1a	26
3	0xcb	-53
4	0xa5	-91
5	0xf3	-13
6	0xd8	-40
7	0x4a	74
8	0x01	1
9	0x10	16
10	0x65	101
11	0xd8	-40
12	0x22	34
13	0xec	-20
14	0xf3	-13
15	0x7f	127
16	0x14	20
17	0xfd	-3
18	0xff	-1
19	0xdb	-37
20	0xec	-20
21	0x4f	79
22	0x10	16
23	0x6f	111
24	0xea	-22
25	0x7f	127
26	0x1b	27
27	0xf3	-13
28	0x0a	10
29	0xeb	-21
30	0xf3	-13
31	0xe1	-31
32	0x09	9
33	0xec	-20
34	0x7f	127
35	0xfd	-3
36	0xf0	-16
37	0x1b	27
38	0x00	0
39	0x3f	63
40	0x1f	31
41	0x81	-127
42	0x2f	47
43	0xdf	-33
44	0x9a	-102
45	0xe4	-28
46	0x28	40
47	0xda	-38
48	0x23	35
49	0x0e	14
50	0xf0	-16
51	0xc7	-57
52	0xbf	-65
53	0xd8	-40
54	0xe1	-31
55	0x02	2
56	0x1a	26
57	0xc5	-59
58	0xe2	-30
59	0x17	23
60	0x39	57
61	0x77	119
62	0x3a	58
63	0x56	86
64	0xe0	-32
65	0x32	50
66	0x16	22
67	0xf0	-16
68	0x37	55
69	0xfd	-3
70	0xe5	-27
71	0xcc	-52
72	0x12	18
73	0xb8	-72
74	0x62	98
75	0xce	-50
76	0xf9	-7
77	0x0d	13
78	0xe7	-25
79	0x07	7
80	0x1a	26
81	0x08	8
82	0x05	5
83	0xf6	-10
84	0x11	17
85	0xf4	-12
86	0xd1	-47
87	0x30	48
88	0xf4	-12
89	0x02	2
90	0x1d	29
91	0x0c	12
92	0x1c	28
93	0xf7	-9
94	0xee	-18
95	0x01	1
96	0xec	-20
97	0xfb	-5
98	0x03	3
99	0xad	-83
100	0x07	7
101	0xf2	-14
102	0xf4	-12
103	0x7f	127
104	0xd1	-47
105	0xfb	-5
106	0x2e	46
107	0x09	9
108	0x29	41
109	0xed	-19
110	0x0f	15
111	0x07	7
112	0xfe	-2
113	0xe5	-27
114	0x2d	45
115	0xf7	-9
116	0xdf	-33
117	0xae	-82
118	0x07	7
119	0x4a	74
120	0x24	36
121	0xd3	-45
122	0x5b	91
123	0xd0	-48
124	0x81	-127
125	0xc3	-61
126	0x14	20
127	0x5e	94
128	0x30	48
129	0x28	40
130	0x7f	127
131	0xb4	-76
132	0xec	-20
133	0xf4	-12
134	0xdd	-35
135	0x32	50
136	0x2a	42
137	0x81	-127
138	0xe4	-28
139	0x96	-106
140	0x2e	46
141	0x2f	47
142	0x64	100
143	0x6e	110
144	0xed	-19
145	0x6f	111
146	0x57	87
147	0x81	-127
148	0x7f	127
149	0xf1	-15
150	0xea	-22
151	0xf1	-15
152	0x1a	26
153	0xc6	-58
154	0x2b	43
155	0xa4	-92
156	0x81	-127
157	0xb5	-75
158	0xdc	-36
159	0xdf	-33
160	0x7f	127
161	0xd7	-41
162	0x7f	127
163	0x81	-127
164	0x88	-120
165	0x81	-127
166	0x7f	127
167	0x7f	127
168	0x7f	127
169	0x7f	127
170	0x01	1
171	0x81	-127
172	0x81	-127
173	0x81	-127
174	0x81	-127
175	0x1e	30
176	0x7f	127
177	0xe9	-23
178	0x81	-127
179	0x81	-127
180	0x7f	127
181	0x7c	124
182	0x7f	127
183	0x27	39
184	0x81	-127
185	0x4b	75
186	0x7f	127
187	0xdf	-33
188	0x71	113
189	0x81	-127
190	0x81	-127
191	0x81	-127
192	0x7f	127
193	0x81	-127
194	0x49	73
195	0x81	-127
196	0xc5	-59
197	0x81	-127
198	0x81	-127
199	0x81	-127
200	0x3f	63
201	0x24	36
202	0x26	38
203	0xe5	-27
204	0xba	-70
205	0xd0	-48
206	0x11	17
207	0x05	5
208	0x2a	42
209	0x16	22
210	0x24	36
211	0xbe	-66
212	0xde	-34
213	0xda	-38
214	0xd3	-45
215	0xfc	-4
216	0x1c	28
217	0xd4	-44
218	0xcf	-49
219	0xd6	-42
220	0x2e	46
221	0x45	69
222	0x38	56
223	0xf0	-16
224	0xd8	-40
225	0x62	98
226	0xfb	-5
227	0xdd	-35
228	0x14	20
229	0x06	6
230	0xea	-22
231	0xd4	-44
232	0x0c	12
233	0xc8	-56
234	0x26	38
235	0x00	0
236	0xd3	-45
237	0xae	-82
238	0xe2	-30
239	0xc4	-60
240	0x0d	13
241	0xc9	-55
242	0x19	25
243	0xea	-22
244	0xae	-82
245	0x07	7
246	0xe0	-32
247	0x78	120
248	0xff	-1
249	0x15	21
250	0x50	80
251	0xe7	-25
252	0x2c	44
253	0xfb	-5
254	0xff	-1
255	0x16	22

tfl.pseudo_qconst5 i1 [40, 1, 1, 60]
0	0x2d	45
1	0xf4	-12
2	0x2f	47
3	0x41	65
4	0xf1	-15
5	0xe3	-29
6	0x0a	10
7	0xf2	-14
8	0xcd	-51
9	0x00	0
10	0x81	-127
11	0x0f	15
12	0xed	-19
13	0xca	-54
14	0xef	-17
15	0xc7	-57
16	0x1b	27
17	0xdc	-36
18	0x26	38
19	0x3f	63
20	0x07	7
21	0xe0	-32
22	0x0a	10
23	0x30	48
24	0x46	70
25	0xcf	-49
26	0xf2	-14
27	0x90	-112
28	0xf3	-13
29	0x0a	10
30	0x17	23
31	0x11	17
32	0x44	68
33	0xe5	-27
34	0xb9	-71
35	0xd5	-43
36	0x12	18
37	0xff	-1
38	0xf2	-14
39	0xdd	-35
40	0xef	-17
41	0x35	53
42	0x3f	63
43	0xfd	-3
44	0xfd	-3
45	0xed	-19
46	0x26	38
47	0x0e	14
48	0xe4	-28
49	0xd8	-40
50	0xe9	-23
51	0x24	36
52	0xec	-20
53	0xe6	-26
54	0x2b	43
55	0xb0	-80
56	0x11	17
57	0x4a	74
58	0x44	68
59	0x2b	43
60	0x4b	75
61	0x16	22
62	0x4f	79
63	0x49	73
64	0x96	-106
65	0x12	18
66	0x99	-103
67	0x35	53
68	0xec	-20
69	0x25	37
70	0xe0	-32
71	0x20	32
72	0xcd	-51
73	0xa1	-95
74	0xe0	-32
75	0xf7	-9
76	0x98	-104
77	0xee	-18
78	0xcf	-49
79	0xd7	-41
80	0xe2	-30
81	0x09	9
82	0x18	24
83	0x7a	122
84	0x14	20
85	0x04	4
86	0x3c	60
87	0x09	9
88	0xeb	-21
89	0xc0	-64
90	0x29	41
91	0xd2	-46
92	0xf4	-12
93	0x49	73
94	0x34	52
95	0xbe	-66
96	0xfd	-3
97	0xe1	-31
98	0x3e	62
99	0xf8	-8
100	0xcf	-49
101	0x2f	47
102	0x1e	30
103	0xf5	-11
104	0x31	49
105	0x1b	27
106	0x28	40
107	0x2e	46
108	0xc6	-58
109	0xe5	-27
110	0xfb	-5
111	0x30	48
112	0x7f	127
113	0xe0	-32
114	0xbc	-68
115	0xde	-34
116	0x13	19
117	0x8d	-115
118	0x6b	107
119	0x08	8
120	0x3d	61
121	0x2d	45
122	0xe7	-25
123	0xe4	-28
124	0x41	65
125	0xf5	-11
126	0x0b	11
127	0xde	-34
128	0xd2	-46
129	0x20	32
130	0xd2	-46
131	0xcb	-53
132	0x0f	15
133	0xdf	-33
134	0xb3	-77
135	0xd3	-45
136	0x46	70
137	0xab	-85
138	0x02	2
139	0x01	1
140	0xd2	-46
141	0xfb	-5
142	0xfd	-3
143	0x09	9
144	0xe1	-31
145	0x85	-123
146	0xde	-34
147	0x26	38
148	0x28	40
149	0xbe	-66
150	0xce	-50
151	0x11	17
152	0x04	4
153	0xd9	-39
154	0x1d	29
155	0xd4	-44
156	0xee	-18
157	0xe0	-32
158	0xe6	-26
159	0x26	38
160	0x45	69
161	0xf5	-11
162	0x32	50
163	0xbc	-68
164	0xe2	-30
165	0xce	-50
166	0xd1	-47
167	0x35	53
168	0xe8	-24
169	0x07	7
170	0x81	-127
171	0xcc	-52
172	0xa4	-92
173	0xe4	-28
174	0x40	64
175	0xc4	-60
176	0x0f	15
177	0x0d	13
178	0x24	36
179	0xcc	-52
180	0xe6	-26
181	0x04	4
182	0x45	69
183	0x1e	30
184	0xfd	-3
185	0x58	88
186	0xe0	-32
187	0x3c	60
188	0x16	22
189	0xf3	-13
190	0xf0	-16
191	0x05	5
192	0xfa	-6
193	0x0b	11
194	0x8c	-116
195	0xf9	-7
196	0x2a	42
197	0xf0	-16
198	0xfd	-3
199	0xaf	-81
200	0x81	-127
201	0x11	17
202	0xfc	-4
203	0x50	80
204	0xdc	-36
205	0xe0	-32
206	0xed	-19
207	0x5f	95
208	0x04	4
209	0xe1	-31
210	0xfa	-6
211	0x22	34
212	0x18	24
213	0xd9	-39
214	0xf5	-11
215	0xd2	-46
216	0xde	-34
217	0xff	-1
218	0xef	-17
219	0x3f	63
220	0xf2	-14
221	0xbb	-69
222	0x35	53
223	0xca	-54
224	0xa7	-89
225	0x32	50
226	0xe5	-27
227	0xcb	-53
228	0xba	-70
229	0xdf	-33
230	0xda	-38
231	0xee	-18
232	0x34	52
233	0x89	-119
234	0x10	16
235	0xf2	-14
236	0xc3	-61
237	0xbb	-69
238	0xd0	-48
239	0xd8	-40
240	0xda	-38
241	0x13	19
242	0x7f	127
243	0x44	68
244	0xf1	-15
245	0xff	-1
246	0x1f	31
247	0x71	113
248	0x0a	10
249	0xf6	-10
250	0x0a	10
251	0x16	22
252	0xfc	-4
253	0x13	19
254	0xa0	-96
255	0xfb	-5

tfl.pseudo_qconst7 i1 [1, 3, 3, 60]
0	0x78	120
1	0x81	-127
2	0xaf	-81
3	0x7f	127
4	0x30	48
5	0x99	-103
6	0x94	-108
7	0x57	87
8	0x46	70
9	0x6d	109
10	0x81	-127
11	0x46	70
12	0x71	113
13	0xbc	-68
14	0x81	-127
15	0x7f	127
16	0x7f	127
17	0x72	114
18	0x48	72
19	0x8e	-114
20	0x96	-106
21	0x2a	42
22	0x6d	109
23	0x4b	75
24	0x06	6
25	0x83	-125
26	0x81	-127
27	0x7f	127
28	0xa0	-96
29	0x3f	63
30	0x20	32
31	0x96	-106
32	0x59	89
33	0x8b	-117
34	0xf3	-13
35	0x66	102
36	0xe5	-27
37	0x60	96
38	0x6b	107
39	0x4c	76
40	0xd5	-43
41	0x4b	75
42	0x7f	127
43	0xed	-19
44	0x5b	91
45	0x20	32
46	0xf4	-12
47	0x54	84
48	0x8e	-114
49	0x81	-127
50	0x7f	127
51	0x81	-127
52	0x73	115
53	0x1d	29
54	0x0a	10
55	0x81	-127
56	0xaf	-81
57	0x5a	90
58	0x50	80
59	0x05	5
60	0x3d	61
61	0xbd	-67
62	0xfa	-6
63	0xfb	-5
64	0x11	17
65	0xb2	-78
66	0xe7	-25
67	0x62	98
68	0x30	48
69	0x50	80
70	0xd7	-41
71	0x7f	127
72	0x7f	127
73	0x81	-127
74	0xd6	-42
75	0x63	99
76	0x6b	107
77	0x7b	123
78	0x44	68
79	0xd5	-43
80	0xe6	-26
81	0x24	36
82	0x7f	127
83	0x44	68
84	0x14	20
85	0x81	-127
86	0xd3	-45
87	0x07	7
88	0xb0	-80
89	0x7f	127
90	0x50	80
91	0xa3	-93
92	0x30	48
93	0x8a	-118
94	0xd6	-42
95	0x3f	63
96	0xd2	-46
97	0x73	115
98	0x7f	127
99	0x1a	26
100	0xdf	-33
101	0x5c	92
102	0x3f	63
103	0xf5	-11
104	0x61	97
105	0x43	67
106	0x44	68
107	0x60	96
108	0x81	-127
109	0xe0	-32
110	0x22	34
111	0xcf	-49
112	0x15	21
113	0x34	52
114	0xb2	-78
115	0xd9	-39
116	0x81	-127
117	0x37	55
118	0x7f	127
119	0x2a	42
120	0x7a	122
121	0x99	-103
122	0x10	16
123	0x46	70
124	0xf4	-12
125	0x1d	29
126	0xc6	-58
127	0x58	88
128	0x20	32
129	0x48	72
130	0x8e	-114
131	0x32	50
132	0x22	34
133	0xb6	-74
134	0xdf	-33
135	0x38	56
136	0xbd	-67
137	0x0f	15
138	0x05	5
139	0xd8	-40
140	0xeb	-21
141	0x04	4
142	0x2d	45
143	0x7f	127
144	0x33	51
145	0x0a	10
146	0x2a	42
147	0x4f	79
148	0x81	-127
149	0x06	6
150	0x58	88
151	0xb5	-75
152	0x1c	28
153	0x0a	10
154	0xbb	-69
155	0xf0	-16
156	0x81	-127
157	0x1e	30
158	0x47	71
159	0x3f	63
160	0xbf	-65
161	0x46	70
162	0x6c	108
163	0x81	-127
164	0x30	48
165	0x3b	59
166	0x33	51
167	0x27	39
168	0xb3	-77
169	0xd8	-40
170	0x6b	107
171	0xde	-34
172	0xd5	-43
173	0x02	2
174	0x81	-127
175	0xaf	-81
176	0x1a	26
177	0xb3	-77
178	0x6f	111
179	0x3f	63
180	0x7f	127
181	0x86	-122
182	0xd9	-39
183	0x18	24
184	0x3f	63
185	0xbd	-67
186	0xb0	-80
187	0x59	89
188	0x04	4
189	0x7f	127
190	0xd8	-40
191	0x3f	63
192	0x5b	91
193	0xc7	-57
194	0xb9	-71
195	0x07	7
196	0x59	89
197	0x5e	94
198	0x7f	127
199	0xba	-70
200	0xfb	-5
201	0xe6	-26
202	0x62	98
203	0x71	113
204	0x53	83
205	0x92	-110
206	0xb1	-79
207	0x4c	76
208	0xb2	-78
209	0x55	85
210	0x14	20
211	0x81	-127
212	0x7f	127
213	0x93	-109
214	0xb9	-71
215	0x1b	27
216	0xd7	-41
217	0x7f	127
218	0x66	102
219	0x23	35
220	0x81	-127
221	0x7f	127
222	0x63	99
223	0x22	34
224	0x7f	127
225	0x0a	10
226	0x18	24
227	0x7f	127
228	0xa7	-89
229	0xa4	-92
230	0x66	102
231	0xa6	-90
232	0x29	41
233	0x7c	124
234	0xbc	-68
235	0xd2	-46
236	0x95	-107
237	0x73	115
238	0x6e	110
239	0x4d	77
240	0x37	55
241	0xc3	-61
242	0xed	-19
243	0x2e	46
244	0x4f	79
245	0xd2	-46
246	0xec	-20
247	0x4a	74
248	0x30	48
249	0x61	97
250	0xb9	-71
251	0x53	83
252	0x3e	62
253	0xd1	-47
254	0xeb	-21
255	0x0f	15

tfl.pseudo_qconst9 i1 [60, 1, 1, 60]
0	0x37	55
1	0x3a	58
2	0xd3	-45
3	0x1e	30
4	0x00	0
5	0xcf	-49
6	0xdd	-35
7	0xb4	-76
8	0x0b	11
9	0x9d	-99
10	0x0f	15
11	0xc7	-57
12	0xf7	-9
13	0xbe	-66
14	0x92	-110
15	0xc9	-55
16	0x41	65
17	0x1c	28
18	0x2b	43
19	0xb1	-79
20	0x07	7
21	0xc3	-61
22	0xb7	-73
23	0xb1	-79
24	0x0d	13
25	0xe7	-25
26	0x99	-103
27	0x2c	44
28	0x37	55
29	0x7f	127
30	0xaf	-81
31	0xb5	-75
32	0x71	113
33	0x3a	58
34	0x2f	47
35	0xf3	-13
36	0x4f	79
37	0x02	2
38	0xb0	-80
39	0xa1	-95
40	0x4f	79
41	0xcc	-52
42	0xc3	-61
43	0xf3	-13
44	0x17	23
45	0xee	-18
46	0x21	33
47	0x09	9
48	0x20	32
49	0xd3	-45
50	0xb5	-75
51	0x1d	29
52	0x1b	27
53	0x54	84
54	0x02	2
55	0xe1	-31
56	0x55	85
57	0xf8	-8
58	0x25	37
59	0x40	64
60	0xfb	-5
61	0xfb	-5
62	0x4e	78
63	0xdc	-36
64	0xc0	-64
65	0xf3	-13
66	0xee	-18
67	0x2d	45
68	0x46	70
69	0xf4	-12
70	0xe6	-26
71	0x04	4
72	0x43	67
73	0x40	64
74	0x41	65
75	0x3c	60
76	0xf6	-10
77	0x8e	-114
78	0xc5	-59
79	0x18	24
80	0xdb	-37
81	0xf2	-14
82	0x19	25
83	0x30	48
84	0x2a	42
85	0x13	19
86	0x13	19
87	0xe8	-24
88	0xa9	-87
89	0x9e	-98
90	0xc4	-60
91	0xe4	-28
92	0xd5	-43
93	0x32	50
94	0x0a	10
95	0xd2	-46
96	0x01	1
97	0xf2	-14
98	0x03	3
99	0x07	7
100	0xf2	-14
101	0x30	48
102	0x98	-104
103	0x67	103
104	0x35	53
105	0xf0	-16
106	0xd2	-46
107	0xd5	-43
108	0x26	38
109	0x18	24
110	0x17	23
111	0x3a	58
112	0x7f	127
113	0xb1	-79
114	0x0e	14
115	0x49	73
116	0xe6	-26
117	0xb3	-77
118	0xc7	-57
119	0xeb	-21
120	0xae	-82
121	0xd5	-43
122	0x09	9
123	0x3d	61
124	0x26	38
125	0x33	51
126	0x2b	43
127	0xd8	-40
128	0xb7	-73
129	0x1b	27
130	0x22	34
131	0xe4	-28
132	0x9e	-98
133	0xaa	-86
134	0x13	19
135	0x95	-107
136	0xfe	-2
137	0xd5	-43
138	0x04	4
139	0x1e	30
140	0x05	5
141	0xc4	-60
142	0xe7	-25
143	0x0e	14
144	0x42	66
145	0xf9	-7
146	0x81	-127
147	0x3b	59
148	0x01	1
149	0x18	24
150	0x29	41
151	0x10	16
152	0x17	23
153	0xc1	-63
154	0xf2	-14
155	0xd2	-46
156	0xff	-1
157	0xee	-18
158	0xac	-84
159	0xfe	-2
160	0x17	23
161	0x17	23
162	0x13	19
163	0x07	7
164	0xfb	-5
165	0x31	49
166	0xcc	-52
167	0x07	7
168	0xdb	-37
169	0xe0	-32
170	0xe5	-27
171	0x2a	42
172	0x2a	42
173	0x1c	28
174	0xf7	-9
175	0xe1	-31
176	0x0a	10
177	0x0e	14
178	0xe5	-27
179	0xd8	-40
180	0x4b	75
181	0x2f	47
182	0x09	9
183	0xea	-22
184	0xe4	-28
185	0x10	16
186	0x3d	61
187	0x55	85
188	0xef	-17
189	0x1e	30
190	0xb5	-75
191	0x32	50
192	0xd2	-46
193	0x05	5
194	0xea	-22
195	0xab	-85
196	0x02	2
197	0x13	19
198	0xc0	-64
199	0x48	72
200	0x42	66
201	0x50	80
202	0x96	-106
203	0xaf	-81
204	0xc0	-64
205	0x0f	15
206	0x9a	-102
207	0xb7	-73
208	0xfc	-4
209	0xf3	-13
210	0x8d	-115
211	0xd0	-48
212	0x16	22
213	0xdb	-37
214	0x53	83
215	0x4e	78
216	0x1b	27
217	0x54	84
218	0x4f	79
219	0xa5	-91
220	0x3c	60
221	0xbe	-66
222	0xbe	-66
223	0x23	35
224	0xe9	-23
225	0xd7	-41
226	0xee	-18
227	0xd2	-46
228	0xcc	-52
229	0x21	33
230	0xd6	-42
231	0x3e	62
232	0x5e	94
233	0x55	85
234	0x81	-127
235	0x12	18
236	0x6a	106
237	0xbd	-67
238	0x32	50
239	0x29	41
240	0xa3	-93
241	0xf6	-10
242	0xe7	-25
243	0x6d	109
244	0x32	50
245	0x40	64
246	0x3d	61
247	0xc7	-57
248	0x81	-127
249	0x29	41
250	0x16	22
251	0xff	-1
252	0xc2	-62
253	0xe9	-23
254	0x1c	28
255	0xa9	-87

tfl.pseudo_qconst11 i1 [1, 3, 3, 60]
0	0x11	17
1	0x00	0
2	0x7f	127
3	0x81	-127
4	0x3d	61
5	0x68	104
6	0xb2	-78
7	0x1e	30
8	0x15	21
9	0xcd	-51
10	0xeb	-21
11	0x36	54
12	0x41	65
13	0x26	38
14	0x34	52
15	0x5f	95
16	0xe5	-27
17	0x11	17
18	0x94	-108
19	0x37	55
20	0x2f	47
21	0x1c	28
22	0xb7	-73
23	0xcb	-53
24	0x14	20
25	0xd5	-43
26	0x08	8
27	0x01	1
28	0x81	-127
29	0xf1	-15
30	0x50	80
31	0x29	41
32	0x81	-127
33	0x10	16
34	0x9b	-101
35	0x08	8
36	0x93	-109
37	0x81	-127
38	0x64	100
39	0xd0	-48
40	0x9e	-98
41	0xdb	-37
42	0x1d	29
43	0x24	36
44	0x57	87
45	0xf7	-9
46	0xf4	-12
47	0xb3	-77
48	0xf8	-8
49	0x43	67
50	0x1c	28
51	0x57	87
52	0x05	5
53	0xb7	-73
54	0xfd	-3
55	0x9c	-100
56	0x93	-109
57	0xb5	-75
58	0xdb	-37
59	0xfa	-6
60	0x16	22
61	0xce	-50
62	0x6e	110
63	0xca	-54
64	0x78	120
65	0x5d	93
66	0xbc	-68
67	0x1b	27
68	0x0c	12
69	0x35	53
70	0xae	-82
71	0x3e	62
72	0x3c	60
73	0x47	71
74	0x10	16
75	0x7f	127
76	0x81	-127
77	0x2e	46
78	0x81	-127
79	0xf2	-14
80	0x11	17
81	0x6d	109
82	0x29	41
83	0xc3	-61
84	0x9c	-100
85	0xcb	-53
86	0x2f	47
87	0x1e	30
88	0xd5	-43
89	0xe6	-26
90	0x33	51
91	0x3d	61
92	0xef	-17
93	0x08	8
94	0xaa	-86
95	0xf9	-7
96	0xd9	-39
97	0xbd	-67
98	0x7f	127
99	0xf6	-10
100	0xaa	-86
101	0xea	-22
102	0x70	112
103	0xf9	-7
104	0x30	48
105	0xf6	-10
106	0xed	-19
107	0xc6	-58
108	0xc4	-60
109	0x51	81
110	0x54	84
111	0x5a	90
112	0x93	-109
113	0x49	73
114	0xb4	-76
115	0xd2	-46
116	0xc5	-59
117	0x26	38
118	0x19	25
119	0x1c	28
120	0x3d	61
121	0x82	-126
122	0x45	69
123	0xed	-19
124	0x7f	127
125	0x7f	127
126	0x81	-127
127	0x7f	127
128	0xea	-22
129	0x7f	127
130	0xaa	-86
131	0x3f	63
132	0x3d	61
133	0x7f	127
134	0x28	40
135	0xf1	-15
136	0x98	-104
137	0x26	38
138	0x14	20
139	0xf0	-16
140	0x81	-127
141	0x3a	58
142	0x7b	123
143	0x81	-127
144	0x9f	-97
145	0x81	-127
146	0x2c	44
147	0x0d	13
148	0x12	18
149	0xc7	-57
150	0xf5	-11
151	0x3f	63
152	0x15	21
153	0x22	34
154	0xb2	-78
155	0x05	5
156	0xaf	-81
157	0x90	-112
158	0x6e	110
159	0x28	40
160	0xbb	-69
161	0x0a	10
162	0x7f	127
163	0xf1	-15
164	0x79	121
165	0xd4	-44
166	0xa8	-88
167	0x81	-127
168	0x99	-103
169	0x66	102
170	0x7f	127
171	0x23	35
172	0xb7	-73
173	0x47	71
174	0xb1	-79
175	0x9f	-97
176	0x17	23
177	0x70	112
178	0x5b	91
179	0x26	38
180	0x30	48
181	0xc8	-56
182	0x16	22
183	0x9f	-97
184	0x2b	43
185	0x15	21
186	0xd4	-44
187	0x36	54
188	0x1c	28
189	0xeb	-21
190	0xc9	-55
191	0x60	96
192	0x0b	11
193	0xd8	-40
194	0x1a	26
195	0x7b	123
196	0xaa	-86
197	0xe7	-25
198	0xa6	-90
199	0x64	100
200	0x1d	29
201	0x4e	78
202	0xd8	-40
203	0xb8	-72
204	0x13	19
205	0x05	5
206	0x1b	27
207	0xc4	-60
208	0xa7	-89
209	0xdd	-35
210	0x6f	111
211	0x3b	59
212	0xa8	-88
213	0x06	6
214	0xe7	-25
215	0xc1	-63
216	0xdb	-37
217	0x9e	-98
218	0x20	32
219	0x1a	26
220	0xc6	-58
221	0xca	-54
222	0x4f	79
223	0xaa	-86
224	0x53	83
225	0xfe	-2
226	0x08	8
227	0xba	-70
228	0xec	-20
229	0x3a	58
230	0x3a	58
231	0xfd	-3
232	0x81	-127
233	0x26	38
234	0xea	-22
235	0xbe	-66
236	0x81	-127
237	0xe6	-26
238	0x12	18
239	0x0e	14
240	0x07	7
241	0xb2	-78
242	0xeb	-21
243	0xd8	-40
244	0x48	72
245	0x29	41
246	0xd5	-43
247	0x17	23
248	0x14	20
249	0x4f	79
250	0xa8	-88
251	0x3b	59
252	0x18	24
253	0x0d	13
254	0xf6	-10
255	0x6b	107

tfl.pseudo_qconst13 i1 [1, 3, 3, 60]
0	0xb1	-79
1	0x81	-127
2	0x59	89
3	0x4a	74
4	0x58	88
5	0x81	-127
6	0x55	85
7	0x2a	42
8	0x28	40
9	0x7c	124
10	0x5c	92
11	0xf8	-8
12	0x00	0
13	0x25	37
14	0xca	-54
15	0xf4	-12
16	0x4a	74
17	0xfa	-6
18	0x81	-127
19	0x31	49
20	0xd7	-41
21	0xd6	-42
22	0xe5	-27
23	0xfe	-2
24	0x1a	26
25	0xe9	-23
26	0x25	37
27	0x56	86
28	0x81	-127
29	0x18	24
30	0x5b	91
31	0xb4	-76
32	0x7f	127
33	0xc4	-60
34	0x60	96
35	0x3b	59
36	0x81	-127
37	0x81	-127
38	0x7f	127
39	0x17	23
40	0x7f	127
41	0xb8	-72
42	0x7f	127
43	0xdf	-33
44	0xe9	-23
45	0xea	-22
46	0xad	-83
47	0x7f	127
48	0x0d	13
49	0xc6	-58
50	0xb5	-75
51	0xd6	-42
52	0x81	-127
53	0xe2	-30
54	0x30	48
55	0x81	-127
56	0x27	39
57	0x6f	111
58	0xf5	-11
59	0xe9	-23
60	0x53	83
61	0x02	2
62	0x21	33
63	0x36	54
64	0x64	100
65	0xc3	-61
66	0x2d	45
67	0x6e	110
68	0x0e	14
69	0x7f	127
70	0x3e	62
71	0x89	-119
72	0x31	49
73	0x09	9
74	0x00	0
75	0x70	112
76	0x1b	27
77	0xab	-85
78	0x0c	12
79	0x37	55
80	0x84	-124
81	0x7f	127
82	0x9c	-100
83	0x36	54
84	0x1a	26
85	0x48	72
86	0x0b	11
87	0x1a	26
88	0xd0	-48
89	0x7a	122
90	0x27	39
91	0x81	-127
92	0x3e	62
93	0xb5	-75
94	0x7f	127
95	0x3a	58
96	0xdc	-36
97	0xf1	-15
98	0x6b	107
99	0xbf	-65
100	0x40	64
101	0x22	34
102	0x30	48
103	0x6b	107
104	0x9d	-99
105	0xe9	-23
106	0xe6	-26
107	0x11	17
108	0x48	72
109	0xfd	-3
110	0x96	-106
111	0x81	-127
112	0x11	17
113	0xb1	-79
114	0x51	81
115	0xd6	-42
116	0x20	32
117	0xee	-18
118	0x7f	127
119	0xa3	-93
120	0x44	68
121	0xc9	-55
122	0x7f	127
123	0xfd	-3
124	0x7f	127
125	0x9c	-100
126	0x05	5
127	0x65	101
128	0x33	51
129	0x3f	63
130	0x0b	11
131	0xa5	-91
132	0x59	89
133	0x7f	127
134	0xf3	-13
135	0x5d	93
136	0x03	3
137	0xe4	-28
138	0xf1	-15
139	0x16	22
140	0xaa	-86
141	0x7c	124
142	0xc8	-56
143	0x7f	127
144	0xca	-54
145	0x33	51
146	0xce	-50
147	0xc0	-64
148	0x04	4
149	0x5b	91
150	0xc4	-60
151	0xad	-83
152	0x35	53
153	0x9a	-102
154	0x40	64
155	0x14	20
156	0x31	49
157	0xc6	-58
158	0x4d	77
159	0xec	-20
160	0x38	56
161	0x41	65
162	0xe5	-27
163	0x44	68
164	0x81	-127
165	0x9e	-98
166	0x24	36
167	0xd7	-41
168	0x72	114
169	0x81	-127
170	0xe3	-29
171	0xb5	-75
172	0xb6	-74
173	0xcf	-49
174	0x7a	122
175	0xc6	-58
176	0x7f	127
177	0x95	-107
178	0x23	35
179	0xda	-38
180	0xb7	-73
181	0xcc	-52
182	0x26	38
183	0x11	17
184	0x08	8
185	0x09	9
186	0x5b	91
187	0x2e	46
188	0x2a	42
189	0x3a	58
190	0x15	21
191	0x81	-127
192	0xaf	-81
193	0x36	54
194	0xcb	-53
195	0x25	37
196	0xbd	-67
197	0xf7	-9
198	0xd7	-41
199	0xef	-17
200	0xf5	-11
201	0x08	8
202	0xf7	-9
203	0xe6	-26
204	0x0f	15
205	0x0f	15
206	0x34	52
207	0x4f	79
208	0xb6	-74
209	0xeb	-21
210	0x22	34
211	0xd4	-44
212	0x29	41
213	0xeb	-21
214	0x77	119
215	0x69	105
216	0xcf	-49
217	0xd5	-43
218	0x2b	43
219	0xdd	-35
220	0x1c	28
221	0xc0	-64
222	0x09	9
223	0xf8	-8
224	0x11	17
225	0x81	-127
226	0xe9	-23
227	0x19	25
228	0xf8	-8
229	0xe9	-23
230	0xd8	-40
231	0xc3	-61
232	0x0d	13
233	0xe5	-27
234	0x22	34
235	0xb9	-71
236	0x22	34
237	0x25	37
238	0x14	20
239	0xe8	-24
240	0x5e	94
241	0x08	8
242	0xd5	-43
243	0x25	37
244	0x5f	95
245	0xf4	-12
246	0x0f	15
247	0x42	66
248	0x13	19
249	0x33	51
250	0xff	-1
251	0xaf	-81
252	0xe4	-28
253	0x13	19
254	0x0a	10
255	0x79	121

tfl.pseudo_qconst15 i1 [60, 1, 1, 120]
0	0xbe	-66
1	0x41	65
2	0xeb	-21
3	0x2e	46
4	0xa7	-89
5	0x02	2
6	0xd4	-44
7	0x1f	31
8	0xee	-18
9	0xf9	-7
10	0xfc	-4
11	0xe6	-26
12	0x45	69
13	0xbc	-68
14	0xd9	-39
15	0x48	72
16	0x0a	10
17	0x06	6
18	0x3c	60
19	0xe6	-26
20	0x5d	93
21	0x3f	63
22	0x2c	44
23	0xed	-19
24	0x49	73
25	0x26	38
26	0x09	9
27	0xe1	-31
28	0x17	23
29	0x06	6
30	0x2e	46
31	0xdf	-33
32	0x17	23
33	0x1d	29
34	0xf4	-12
35	0xad	-83
36	0x28	40
37	0xae	-82
38	0x08	8
39	0xf7	-9
40	0xf5	-11
41	0x2e	46
42	0x3a	58
43	0x20	32
44	0x0d	13
45	0x1d	29
46	0xf0	-16
47	0x81	-127
48	0xdc	-36
49	0x0d	13
50	0x42	66
51	0x22	34
52	0xfa	-6
53	0x35	53
54	0x14	20
55	0x0d	13
56	0x09	9
57	0x55	85
58	0xfc	-4
59	0xcd	-51
60	0x45	69
61	0x0d	13
62	0x44	68
63	0xd0	-48
64	0xfa	-6
65	0xc4	-60
66	0x25	37
67	0x5b	91
68	0xff	-1
69	0xf1	-15
70	0x14	20
71	0x10	16
72	0xd4	-44
73	0x3e	62
74	0xb0	-80
75	0x49	73
76	0xac	-84
77	0x18	24
78	0xea	-22
79	0xf0	-16
80	0xd7	-41
81	0x38	56
82	0x02	2
83	0x13	19
84	0x09	9
85	0xfc	-4
86	0x21	33
87	0xe7	-25
88	0x14	20
89	0x39	57
90	0x20	32
91	0xf3	-13
92	0xc0	-64
93	0xd7	-41
94	0x02	2
95	0xd1	-47
96	0xe7	-25
97	0x2d	45
98	0x52	82
99	0xfe	-2
100	0x12	18
101	0xec	-20
102	0x0f	15
103	0xf3	-13
104	0xee	-18
105	0x2e	46
106	0x1e	30
107	0xf8	-8
108	0xf2	-14
109	0xfa	-6
110	0x5a	90
111	0x47	71
112	0xaf	-81
113	0x32	50
114	0x1f	31
115	0xf3	-13
116	0x25	37
117	0xdf	-33
118	0xd5	-43
119	0x49	73
120	0xe5	-27
121	0xf8	-8
122	0x15	21
123	0x34	52
124	0x23	35
125	0x3b	59
126	0x61	97
127	0x33	51
128	0x15	21
129	0xab	-85
130	0xf8	-8
131	0x18	24
132	0x06	6
133	0x66	102
134	0x50	80
135	0xd9	-39
136	0x34	52
137	0xfd	-3
138	0x30	48
139	0xff	-1
140	0xdc	-36
141	0x7b	123
142	0x2b	43
143	0x24	36
144	0x1e	30
145	0x22	34
146	0x12	18
147	0x48	72
148	0xfe	-2
149	0xa6	-90
150	0xd5	-43
151	0xe3	-29
152	0x01	1
153	0x1a	26
154	0x08	8
155	0x16	22
156	0x26	38
157	0x4f	79
158	0xc1	-63
159	0x11	17
160	0xa1	-95
161	0x00	0
162	0x0c	12
163	0xdf	-33
164	0x41	65
165	0x0e	14
166	0xf4	-12
167	0x06	6
168	0xdd	-35
169	0xe1	-31
170	0x04	4
171	0x03	3
172	0xc3	-61
173	0xf1	-15
174	0xf0	-16
175	0x35	53
176	0x4b	75
177	0xe3	-29
178	0xf6	-10
179	0xc4	-60
180	0x03	3
181	0xf3	-13
182	0xf4	-12
183	0xc5	-59
184	0xd0	-48
185	0x3c	60
186	0xdb	-37
187	0xf8	-8
188	0x0c	12
189	0x1f	31
190	0x06	6
191	0x09	9
192	0x43	67
193	0x48	72
194	0xe0	-32
195	0x0b	11
196	0xd2	-46
197	0xdb	-37
198	0xe4	-28
199	0x03	3
200	0xe1	-31
201	0xf3	-13
202	0xba	-70
203	0x78	120
204	0x1c	28
205	0x43	67
206	0x34	52
207	0x35	53
208	0x2e	46
209	0xda	-38
210	0xdf	-33
211	0xb5	-75
212	0x04	4
213	0xeb	-21
214	0x1a	26
215	0x5d	93
216	0x1e	30
217	0x41	65
218	0xa1	-95
219	0x19	25
220	0xc6	-58
221	0xb8	-72
222	0x83	-125
223	0x28	40
224	0x45	69
225	0x06	6
226	0xa6	-90
227	0xd0	-48
228	0x7f	127
229	0x32	50
230	0xf7	-9
231	0xfe	-2
232	0xfe	-2
233	0x4a	74
234	0xbe	-66
235	0x11	17
236	0x25	37
237	0xf7	-9
238	0x22	34
239	0x0d	13
240	0x1d	29
241	0xe7	-25
242	0x25	37
243	0x0a	10
244	0xc5	-59
245	0x1d	29
246	0xca	-54
247	0x20	32
248	0x18	24
249	0xfc	-4
250	0x14	20
251	0xde	-34
252	0xf8	-8
253	0x14	20
254	0x42	66
255	0xef	-17

tfl.pseudo_qconst17 i1 [1, 3, 3, 120]
0	0x38	56
1	0x7f	127
2	0xc1	-63
3	0x31	49
4	0x7f	127
5	0x6a	106
6	0xf5	-11
7	0x0c	12
8	0x37	55
9	0xff	-1
10	0xe5	-27
11	0x9c	-100
12	0x30	48
13	0x6d	109
14	0x81	-127
15	0x10	16
16	0x47	71
17	0x90	-112
18	0xd5	-43
19	0x07	7
20	0xfa	-6
21	0x3c	60
22	0x24	36
23	0xa9	-87
24	0xf7	-9
25	0xaf	-81
26	0xd8	-40
27	0xde	-34
28	0x7f	127
29	0xec	-20
30	0xf6	-10
31	0x7f	127
32	0x7f	127
33	0xa1	-95
34	0x7f	127
35	0x20	32
36	0x41	65
37	0x7f	127
38	0xe6	-26
39	0x0f	15
40	0xfb	-5
41	0x8d	-115
42	0x25	37
43	0xf6	-10
44	0x00	0
45	0x7f	127
46	0xeb	-21
47	0xdd	-35
48	0xde	-34
49	0x5a	90
50	0x79	121
51	0x58	88
52	0x33	51
53	0x01	1
54	0x81	-127
55	0x65	101
56	0xa0	-96
57	0x5f	95
58	0x7f	127
59	0x7f	127
60	0x7f	127
61	0xb0	-80
62	0x5e	94
63	0x81	-127
64	0x7f	127
65	0x04	4
66	0xad	-83
67	0x6c	108
68	0xe0	-32
69	0xb3	-77
70	0x99	-103
71	0xee	-18
72	0x14	20
73	0xb0	-80
74	0xf1	-15
75	0x20	32
76	0x7f	127
77	0xce	-50
78	0x7f	127
79	0x7f	127
80	0xae	-82
81	0x23	35
82	0xea	-22
83	0x81	-127
84	0xe9	-23
85	0xfe	-2
86	0x18	24
87	0x6b	107
88	0x6e	110
89	0x3c	60
90	0xb4	-76
91	0x4d	77
92	0x76	118
93	0x1f	31
94	0x3f	63
95	0x95	-107
96	0xef	-17
97	0x81	-127
98	0x2f	47
99	0x7f	127
100	0x49	73
101	0x3b	59
102	0x7f	127
103	0x3a	58
104	0x81	-127
105	0x7f	127
106	0x24	36
107	0x7f	127
108	0x7f	127
109	0x81	-127
110	0x1a	26
111	0x81	-127
112	0xe0	-32
113	0x7f	127
114	0x7f	127
115	0xb9	-71
116	0xf3	-13
117	0x81	-127
118	0x7f	127
119	0xf4	-12
120	0x67	103
121	0x2d	45
122	0xfc	-4
123	0x4f	79
124	0x12	18
125	0x7f	127
126	0xe0	-32
127	0xe5	-27
128	0xda	-38
129	0x09	9
130	0xd1	-47
131	0xca	-54
132	0xd7	-41
133	0x35	53
134	0xa6	-90
135	0x13	19
136	0x7c	124
137	0xe5	-27
138	0x09	9
139	0x54	84
140	0x17	23
141	0x53	83
142	0x3e	62
143	0xb7	-73
144	0xd9	-39
145	0xcd	-51
146	0x08	8
147	0x81	-127
148	0x5c	92
149	0x58	88
150	0x16	22
151	0x77	119
152	0x11	17
153	0x01	1
154	0x13	19
155	0x7f	127
156	0x1f	31
157	0x36	54
158	0xaf	-81
159	0x02	2
160	0xf0	-16
161	0xc1	-63
162	0x48	72
163	0xd2	-46
164	0x83	-125
165	0x78	120
166	0x19	25
167	0xb0	-80
168	0x43	67
169	0xf6	-10
170	0x7f	127
171	0x2f	47
172	0xf9	-7
173	0x22	34
174	0xb8	-72
175	0x7f	127
176	0xe9	-23
177	0x72	114
178	0x6e	110
179	0x25	37
180	0x71	113
181	0xeb	-21
182	0x52	82
183	0xab	-85
184	0x29	41
185	0xf6	-10
186	0xd2	-46
187	0x56	86
188	0xa9	-87
189	0xdd	-35
190	0x81	-127
191	0x45	69
192	0x0b	11
193	0xd5	-43
194	0xd5	-43
195	0x0b	11
196	0x5f	95
197	0x02	2
198	0x4c	76
199	0x1b	27
200	0x94	-108
201	0xe9	-23
202	0xca	-54
203	0xb8	-72
204	0x37	55
205	0xcd	-51
206	0x22	34
207	0x4d	77
208	0xe0	-32
209	0x24	36
210	0xc8	-56
211	0x5c	92
212	0x7f	127
213	0x2a	42
214	0x7f	127
215	0xbb	-69
216	0xff	-1
217	0xaf	-81
218	0x28	40
219	0x4a	74
220	0x46	70
221	0x7f	127
222	0x55	85
223	0x31	49
224	0xbe	-66
225	0x26	38
226	0x43	67
227	0x2e	46
228	0x7b	123
229	0xaa	-86
230	0x5c	92
231	0xc9	-55
232	0xc8	-56
233	0x46	70
234	0x71	113
235	0x81	-127
236	0xfb	-5
237	0x86	-122
238	0x43	67
239	0x0b	11
240	0x79	121
241	0x03	3
242	0x38	56
243	0x7f	127
244	0xdf	-33
245	0x57	87
246	0x81	-127
247	0x35	53
248	0xae	-82
249	0xcd	-51
250	0xc0	-64
251	0x0e	14
252	0x81	-127
253	0xf4	-12
254	0xcc	-52
255	0x58	88

tfl.pseudo_qconst19 i1 [120, 1, 1, 120]
0	0xff	-1
1	0xed	-19
2	0xed	-19
3	0xd3	-45
4	0x20	32
5	0xfe	-2
6	0x28	40
7	0xe5	-27
8	0x10	16
9	0xd8	-40
10	0x11	17
11	0x27	39
12	0x4a	74
13	0x3a	58
14	0x42	66
15	0xbb	-69
16	0x1b	27
17	0xd3	-45
18	0x04	4
19	0xee	-18
20	0xf1	-15
21	0xe5	-27
22	0x02	2
23	0x1c	28
24	0x27	39
25	0xf3	-13
26	0x0a	10
27	0xbc	-68
28	0xc8	-56
29	0x56	86
30	0xc0	-64
31	0x0d	13
32	0xbe	-66
33	0xe3	-29
34	0x2b	43
35	0x16	22
36	0x00	0
37	0x39	57
38	0xdc	-36
39	0x21	33
40	0xdc	-36
41	0xa4	-92
42	0x2a	42
43	0x11	17
44	0xea	-22
45	0xcc	-52
46	0x53	83
47	0x41	65
48	0x14	20
49	0xf6	-10
50	0xf9	-7
51	0xf4	-12
52	0x1f	31
53	0xd6	-42
54	0xe3	-29
55	0x32	50
56	0x22	34
57	0x1c	28
58	0x2d	45
59	0xe9	-23
60	0xd2	-46
61	0xb1	-79
62	0xf3	-13
63	0xc8	-56
64	0xd5	-43
65	0xfe	-2
66	0x5a	90
67	0xaf	-81
68	0xde	-34
69	0x5f	95
70	0x6e	110
71	0xfd	-3
72	0xfc	-4
73	0xb0	-80
74	0xee	-18
75	0x10	16
76	0x18	24
77	0x15	21
78	0xff	-1
79	0x17	23
80	0xde	-34
81	0xd9	-39
82	0xbf	-65
83	0xdd	-35
84	0xb1	-79
85	0xf6	-10
86	0xe2	-30
87	0x98	-104
88	0x2e	46
89	0x13	19
90	0xa6	-90
91	0x45	69
92	0x3a	58
93	0x23	35
94	0x35	53
95	0xd5	-43
96	0x18	24
97	0xd8	-40
98	0x60	96
99	0x2b	43
100	0xc0	-64
101	0x24	36
102	0xae	-82
103	0x11	17
104	0xcb	-53
105	0x04	4
106	0xeb	-21
107	0x0d	13
108	0x40	64
109	0x96	-106
110	0x7f	127
111	0x13	19
112	0x41	65
113	0xbd	-67
114	0x15	21
115	0x10	16
116	0xb1	-79
117	0xee	-18
118	0xee	-18
119	0xda	-38
120	0x17	23
121	0x1d	29
122	0xdf	-33
123	0x01	1
124	0x27	39
125	0x25	37
126	0x01	1
127	0xec	-20
128	0x00	0
129	0x2a	42
130	0x39	57
131	0xfb	-5
132	0xde	-34
133	0x4f	79
134	0xf0	-16
135	0xda	-38
136	0x06	6
137	0xf5	-11
138	0x4a	74
139	0x30	48
140	0x9a	-102
141	0x1d	29
142	0x0c	12
143	0xe9	-23
144	0xcd	-51
145	0x1f	31
146	0xf6	-10
147	0xe1	-31
148	0x25	37
149	0xde	-34
150	0xf1	-15
151	0x1d	29
152	0x15	21
153	0x20	32
154	0xfe	-2
155	0x20	32
156	0xd9	-39
157	0xd0	-48
158	0x42	66
159	0x5a	90
160	0x14	20
161	0xf5	-11
162	0xfe	-2
163	0x1b	27
164	0x15	21
165	0x1a	26
166	0xf0	-16
167	0x0a	10
168	0xe1	-31
169	0xea	-22
170	0x23	35
171	0x25	37
172	0x35	53
173	0x10	16
174	0xe3	-29
175	0x1f	31
176	0xdd	-35
177	0x0e	14
178	0x24	36
179	0xf0	-16
180	0x2b	43
181	0x20	32
182	0x0b	11
183	0x50	80
184	0x3d	61
185	0x81	-127
186	0xd5	-43
187	0x07	7
188	0x1e	30
189	0x14	20
190	0xd3	-45
191	0x00	0
192	0xc2	-62
193	0x26	38
194	0xf5	-11
195	0x31	49
196	0xc0	-64
197	0x0a	10
198	0xf2	-14
199	0x3f	63
200	0x36	54
201	0x15	21
202	0x0f	15
203	0xd4	-44
204	0x23	35
205	0xcb	-53
206	0x40	64
207	0xdc	-36
208	0xc1	-63
209	0xf8	-8
210	0xe3	-29
211	0x2b	43
212	0xb3	-77
213	0xd6	-42
214	0x3a	58
215	0xfa	-6
216	0x2b	43
217	0x08	8
218	0x3a	58
219	0x1d	29
220	0xf5	-11
221	0xc4	-60
222	0x0e	14
223	0xe1	-31
224	0xe7	-25
225	0x33	51
226	0x14	20
227	0x38	56
228	0x0a	10
229	0x31	49
230	0x22	34
231	0x3c	60
232	0x21	33
233	0xff	-1
234	0x22	34
235	0xfd	-3
236	0xe2	-30
237	0xf0	-16
238	0x57	87
239	0x31	49
240	0xe3	-29
241	0xb1	-79
242	0x09	9
243	0x05	5
244	0xf3	-13
245	0xbf	-65
246	0x62	98
247	0x0a	10
248	0xf1	-15
249	0x96	-106
250	0xb5	-75
251	0xb0	-80
252	0x43	67
253	0x18	24
254	0x01	1
255	0x0b	11

tfl.pseudo_qconst21 i1 [1, 3, 3, 120]
0	0x4f	79
1	0xe5	-27
2	0xc0	-64
3	0x1a	26
4	0x8e	-114
5	0x7f	127
6	0x9d	-99
7	0xa6	-90
8	0xba	-70
9	0xd7	-41
10	0x03	3
11	0xe6	-26
12	0xe8	-24
13	0xbf	-65
14	0xd8	-40
15	0x4d	77
16	0x1b	27
17	0x6b	107
18	0x81	-127
19	0x8c	-116
20	0x71	113
21	0xd5	-43
22	0x81	-127
23	0xff	-1
24	0x1e	30
25	0x7f	127
26	0x16	22
27	0xa7	-89
28	0xe0	-32
29	0xa6	-90
30	0x05	5
31	0xe8	-24
32	0xcf	-49
33	0xd7	-41
34	0x81	-127
35	0xfd	-3
36	0xd0	-48
37	0x7b	123
38	0x24	36
39	0x8b	-117
40	0x56	86
41	0x0d	13
42	0xa4	-92
43	0xcf	-49
44	0x54	84
45	0x81	-127
46	0x79	121
47	0x2a	42
48	0x35	53
49	0x81	-127
50	0x50	80
51	0x7f	127
52	0x20	32
53	0xd9	-39
54	0xc8	-56
55	0x6e	110
56	0x7f	127
57	0xc1	-63
58	0xfd	-3
59	0x6b	107
60	0xdb	-37
61	0xcf	-49
62	0x76	118
63	0xba	-70
64	0x34	52
65	0x7d	125
66	0xc7	-57
67	0x5a	90
68	0xe9	-23
69	0x7f	127
70	0x3f	63
71	0x12	18
72	0x3b	59
73	0xea	-22
74	0x81	-127
75	0xbc	-68
76	0x23	35
77	0x81	-127
78	0x3f	63
79	0x08	8
80	0x2f	47
81	0x39	57
82	0xe7	-25
83	0xad	-83
84	0xc6	-58
85	0x81	-127
86	0x39	57
87	0x57	87
88	0xe2	-30
89	0x1c	28
90	0x81	-127
91	0x49	73
92	0x7f	127
93	0x50	80
94	0xec	-20
95	0xc0	-64
96	0x74	116
97	0x68	104
98	0xaa	-86
99	0xb6	-74
100	0xfe	-2
101	0x6c	108
102	0xb1	-79
103	0x7f	127
104	0xa2	-94
105	0x5d	93
106	0x96	-106
107	0x99	-103
108	0xe5	-27
109	0x2f	47
110	0x0b	11
111	0xea	-22
112	0x7f	127
113	0x7f	127
114	0x81	-127
115	0xc6	-58
116	0x6a	106
117	0x2f	47
118	0x81	-127
119	0x5e	94
120	0x20	32
121	0x10	16
122	0xf4	-12
123	0x2b	43
124	0x94	-108
125	0x21	33
126	0xac	-84
127	0x10	16
128	0xa2	-94
129	0xc4	-60
130	0x2f	47
131	0x4f	79
132	0xd1	-47
133	0x81	-127
134	0xa1	-95
135	0xd8	-40
136	0x7f	127
137	0x5c	92
138	0xa1	-95
139	0x94	-108
140	0x2a	42
141	0xdc	-36
142	0xdc	-36
143	0x5b	91
144	0x25	37
145	0xcf	-49
146	0x07	7
147	0xe2	-30
148	0xb9	-71
149	0xb1	-79
150	0xd8	-40
151	0x39	57
152	0xb7	-73
153	0x9b	-101
154	0xc2	-62
155	0xf6	-10
156	0x1a	26
157	0x7f	127
158	0x01	1
159	0x3f	63
160	0x7f	127
161	0x46	70
162	0xb1	-79
163	0x81	-127
164	0x6e	110
165	0x90	-112
166	0xd8	-40
167	0x7f	127
168	0x18	24
169	0x50	80
170	0x0d	13
171	0x3d	61
172	0x51	81
173	0x8c	-116
174	0xae	-82
175	0x0e	14
176	0x42	66
177	0x23	35
178	0xcf	-49
179	0x07	7
180	0x06	6
181	0xdc	-36
182	0x35	53
183	0xec	-20
184	0x7f	127
185	0x7f	127
186	0xdf	-33
187	0x68	104
188	0xf8	-8
189	0x42	66
190	0xe9	-23
191	0x35	53
192	0x20	32
193	0x39	57
194	0xad	-83
195	0xf4	-12
196	0x25	37
197	0x97	-105
198	0x93	-109
199	0xd7	-41
200	0x36	54
201	0x35	53
202	0xe3	-29
203	0xb6	-74
204	0x31	49
205	0xc8	-56
206	0x38	56
207	0xc1	-63
208	0x24	36
209	0x44	68
210	0xb6	-74
211	0x3a	58
212	0x37	55
213	0x12	18
214	0xba	-70
215	0xe1	-31
216	0x7f	127
217	0x31	49
218	0xae	-82
219	0x1a	26
220	0x39	57
221	0x69	105
222	0x8b	-117
223	0x09	9
224	0xaa	-86
225	0x36	54
226	0xc6	-58
227	0xb5	-75
228	0x29	41
229	0x32	50
230	0xab	-85
231	0x04	4
232	0x72	114
233	0x36	54
234	0xda	-38
235	0xe5	-27
236	0x00	0
237	0xbf	-65
238	0xce	-50
239	0x32	50
240	0x61	97
241	0x51	81
242	0x3b	59
243	0x47	71
244	0xd1	-47
245	0xaa	-86
246	0x69	105
247	0x3b	59
248	0xd0	-48
249	0xd6	-42
250	0x29	41
251	0x7f	127
252	0x35	53
253	0xb0	-80
254	0x81	-127
255	0x8c	-116

tfl.pseudo_qconst23 i1 [1, 3, 3, 120]
0	0x93	-109
1	0xce	-50
2	0xef	-17
3	0x2e	46
4	0x9f	-97
5	0x20	32
6	0x7f	127
7	0xcb	-53
8	0x7f	127
9	0x11	17
10	0x25	37
11	0x49	73
12	0x6d	109
13	0x7f	127
14	0xb9	-71
15	0x81	-127
16	0x1f	31
17	0x81	-127
18	0x7f	127
19	0x43	67
20	0x7f	127
21	0x4b	75
22	0x7f	127
23	0xf6	-10
24	0x43	67
25	0x5b	91
26	0xc8	-56
27	0x4b	75
28	0x0d	13
29	0x0c	12
30	0x7f	127
31	0xbb	-69
32	0x5e	94
33	0xb8	-72
34	0x7f	127
35	0x12	18
36	0x0d	13
37	0x7f	127
38	0xe4	-28
39	0x81	-127
40	0x23	35
41	0x1c	28
42	0xfc	-4
43	0xb5	-75
44	0x29	41
45	0x7f	127
46	0x7f	127
47	0xe6	-26
48	0x81	-127
49	0x7f	127
50	0xfc	-4
51	0x81	-127
52	0x56	86
53	0x52	82
54	0x81	-127
55	0x0b	11
56	0x81	-127
57	0xda	-38
58	0x81	-127
59	0x9c	-100
60	0x34	52
61	0xdf	-33
62	0xfb	-5
63	0x00	0
64	0x6e	110
65	0x49	73
66	0x02	2
67	0x62	98
68	0x06	6
69	0x81	-127
70	0x24	36
71	0xea	-22
72	0x2c	44
73	0x33	51
74	0x7f	127
75	0xf8	-8
76	0x3c	60
77	0x0b	11
78	0x5f	95
79	0xbf	-65
80	0x2d	45
81	0xde	-34
82	0xcf	-49
83	0x81	-127
84	0xc0	-64
85	0x7f	127
86	0xea	-22
87	0x1c	28
88	0x5d	93
89	0x32	50
90	0x81	-127
91	0xca	-54
92	0x22	34
93	0x34	52
94	0x7f	127
95	0xe2	-30
96	0x7d	125
97	0x1c	28
98	0x81	-127
99	0xae	-82
100	0xbf	-65
101	0x88	-120
102	0xe1	-31
103	0x7b	123
104	0x78	120
105	0x54	84
106	0xd9	-39
107	0xa4	-92
108	0xfd	-3
109	0x30	48
110	0xf9	-7
111	0xaf	-81
112	0x7f	127
113	0x81	-127
114	0x3e	62
115	0x2a	42
116	0xc4	-60
117	0xef	-17
118	0x7f	127
119	0x16	22
120	0x81	-127
121	0x07	7
122	0xcf	-49
123	0x20	32
124	0xd4	-44
125	0x7f	127
126	0x69	105
127	0xeb	-21
128	0x53	83
129	0xf0	-16
130	0xfe	-2
131	0x0f	15
132	0x2a	42
133	0xff	-1
134	0x0c	12
135	0xc8	-56
136	0x68	104
137	0xe0	-32
138	0x27	39
139	0x0d	13
140	0x4a	74
141	0x25	37
142	0xff	-1
143	0x5c	92
144	0x0e	14
145	0x27	39
146	0x13	19
147	0xf9	-7
148	0x9d	-99
149	0x1c	28
150	0x6d	109
151	0x81	-127
152	0x22	34
153	0x0c	12
154	0xf4	-12
155	0x58	88
156	0x1f	31
157	0x63	99
158	0x07	7
159	0x9d	-99
160	0x37	55
161	0x33	51
162	0x28	40
163	0x07	7
164	0xf6	-10
165	0x7e	126
166	0xe2	-30
167	0xc5	-59
168	0xd7	-41
169	0x0d	13
170	0xe4	-28
171	0xe1	-31
172	0x5a	90
173	0x24	36
174	0xa5	-91
175	0x43	67
176	0x95	-107
177	0xf9	-7
178	0xdf	-33
179	0xaa	-86
180	0x21	33
181	0xe2	-30
182	0xf6	-10
183	0xdc	-36
184	0x2e	46
185	0xe7	-25
186	0x09	9
187	0xe4	-28
188	0xfa	-6
189	0xda	-38
190	0x02	2
191	0xf8	-8
192	0x0a	10
193	0x48	72
194	0x25	37
195	0xe0	-32
196	0x01	1
197	0x1d	29
198	0x7f	127
199	0xa9	-87
200	0x39	57
201	0x22	34
202	0xe3	-29
203	0xe5	-27
204	0x17	23
205	0x1b	27
206	0x2b	43
207	0x11	17
208	0x15	21
209	0xee	-18
210	0x09	9
211	0xe4	-28
212	0x43	67
213	0x1e	30
214	0x3d	61
215	0xfe	-2
216	0x7f	127
217	0xac	-84
218	0xe7	-25
219	0xef	-17
220	0xdd	-35
221	0xa8	-88
222	0xbd	-67
223	0xfe	-2
224	0x7f	127
225	0xfa	-6
226	0xdd	-35
227	0x07	7
228	0x07	7
229	0x13	19
230	0x13	19
231	0xd7	-41
232	0x17	23
233	0xd7	-41
234	0x2b	43
235	0x0b	11
236	0x24	36
237	0xa5	-91
238	0x15	21
239	0x47	71
240	0xd9	-39
241	0x69	105
242	0x06	6
243	0x52	82
244	0x63	99
245	0x21	33
246	0xd3	-45
247	0xb2	-78
248	0xff	-1
249	0xec	-20
250	0x90	-112
251	0x91	-111
252	0x78	120
253	0xd4	-44
254	0x81	-127
255	0xf8	-8

tfl.pseudo_qconst25 i1 [120, 1, 1, 40]
0	0xa5	-91
1	0x2a	42
2	0xb3	-77
3	0x05	5
4	0xb1	-79
5	0x0e	14
6	0x42	66
7	0x0a	10
8	0xe2	-30
9	0x2a	42
10	0xd0	-48
11	0xed	-19
12	0xc0	-64
13	0xf1	-15
14	0x81	-127
15	0xec	-20
16	0x60	96
17	0xcf	-49
18	0x57	87
19	0xe9	-23
20	0x01	1
21	0x12	18
22	0x26	38
23	0x4f	79
24	0x30	48
25	0xbb	-69
26	0x1e	30
27	0x0c	12
28	0x4a	74
29	0x08	8
30	0x27	39
31	0x3c	60
32	0xb2	-78
33	0x36	54
34	0x4a	74
35	0x06	6
36	0x58	88
37	0xc0	-64
38	0xee	-18
39	0xce	-50
40	0x96	-106
41	0xf6	-10
42	0xfb	-5
43	0xed	-19
44	0x23	35
45	0x21	33
46	0x20	32
47	0x1f	31
48	0x87	-121
49	0x65	101
50	0x9b	-101
51	0x06	6
52	0x2c	44
53	0x1a	26
54	0x3e	62
55	0xe7	-25
56	0x23	35
57	0x83	-125
58	0x47	71
59	0xe0	-32
60	0x7b	123
61	0xfb	-5
62	0x3a	58
63	0x73	115
64	0x7f	127
65	0xdc	-36
66	0xca	-54
67	0x0c	12
68	0x9e	-98
69	0x31	49
70	0x0f	15
71	0x7f	127
72	0xcc	-52
73	0x29	41
74	0x3c	60
75	0x12	18
76	0x18	24
77	0xbd	-67
78	0xe9	-23
79	0x46	70
80	0xe9	-23
81	0x78	120
82	0xf5	-11
83	0xe7	-25
84	0x46	70
85	0xba	-70
86	0x32	50
87	0xeb	-21
88	0x2d	45
89	0xc5	-59
90	0x15	21
91	0x1c	28
92	0x09	9
93	0x78	120
94	0x25	37
95	0x99	-103
96	0x18	24
97	0x31	49
98	0x24	36
99	0xfb	-5
100	0x29	41
101	0x93	-109
102	0xbc	-68
103	0xeb	-21
104	0xfb	-5
105	0xb5	-75
106	0x06	6
107	0x25	37
108	0xfd	-3
109	0xa6	-90
110	0x69	105
111	0xe7	-25
112	0x0f	15
113	0x6d	109
114	0x81	-127
115	0x2e	46
116	0xee	-18
117	0x59	89
118	0xfe	-2
119	0x92	-110
120	0xce	-50
121	0xfa	-6
122	0xfd	-3
123	0x85	-123
124	0x08	8
125	0x0f	15
126	0x0e	14
127	0x1e	30
128	0x0f	15
129	0x18	24
130	0x50	80
131	0xa0	-96
132	0x2f	47
133	0x82	-126
134	0x4e	78
135	0x05	5
136	0x37	55
137	0xe1	-31
138	0x60	96
139	0x57	87
140	0x84	-124
141	0xde	-34
142	0x38	56
143	0x28	40
144	0xd2	-46
145	0xee	-18
146	0x2b	43
147	0x75	117
148	0xc6	-58
149	0x24	36
150	0xfe	-2
151	0xe4	-28
152	0xc5	-59
153	0xc4	-60
154	0xa7	-89
155	0x4b	75
156	0xfd	-3
157	0xe7	-25
158	0xc5	-59
159	0x81	-127
160	0xbd	-67
161	0x54	84
162	0xce	-50
163	0x1e	30
164	0x28	40
165	0xc9	-55
166	0xb1	-79
167	0xe5	-27
168	0x4b	75
169	0x08	8
170	0x1a	26
171	0x20	32
172	0xe1	-31
173	0xb1	-79
174	0xcb	-53
175	0x34	52
176	0xe1	-31
177	0xa7	-89
178	0x38	56
179	0xeb	-21
180	0xb9	-71
181	0x4e	78
182	0x65	101
183	0x0b	11
184	0xfc	-4
185	0x81	-127
186	0xb5	-75
187	0xe9	-23
188	0x12	18
189	0xca	-54
190	0x12	18
191	0xc1	-63
192	0x06	6
193	0x6b	107
194	0xe8	-24
195	0x25	37
196	0x14	20
197	0x0b	11
198	0x3f	63
199	0x86	-122
200	0xfc	-4
201	0xcb	-53
202	0x15	21
203	0x0e	14
204	0x0f	15
205	0x01	1
206	0x6c	108
207	0x8c	-116
208	0x5b	91
209	0xea	-22
210	0x4a	74
211	0xad	-83
212	0x4d	77
213	0xc7	-57
214	0xe2	-30
215	0x58	88
216	0x5a	90
217	0xa9	-87
218	0x39	57
219	0x3d	61
220	0xca	-54
221	0x19	25
222	0x16	22
223	0xe9	-23
224	0xc1	-63
225	0x90	-112
226	0xe3	-29
227	0x04	4
228	0xee	-18
229	0x16	22
230	0xcc	-52
231	0x81	-127
232	0xa5	-91
233	0xee	-18
234	0xba	-70
235	0xed	-19
236	0xdd	-35
237	0x24	36
238	0xe4	-28
239	0x91	-111
240	0xb1	-79
241	0x05	5
242	0xd2	-46
243	0x3a	58
244	0x40	64
245	0xea	-22
246	0x19	25
247	0xfd	-3
248	0x38	56
249	0xfe	-2
250	0x1b	27
251	0xcc	-52
252	0xe2	-30
253	0x19	25
254	0xf1	-15
255	0xca	-54

tfl.pseudo_qconst27 i1 [1, 3, 3, 40]
0	0x7b	123
1	0x87	-121
2	0x93	-109
3	0xca	-54
4	0x7f	127
5	0xc3	-61
6	0x94	-108
7	0x42	66
8	0x6d	109
9	0x59	89
10	0x71	113
11	0x81	-127
12	0x81	-127
13	0xdb	-37
14	0xb2	-78
15	0xb6	-74
16	0xb7	-73
17	0xc4	-60
18	0x7f	127
19	0x55	85
20	0xd4	-44
21	0x81	-127
22	0xb8	-72
23	0x95	-107
24	0x88	-120
25	0x81	-127
26	0xac	-84
27	0x65	101
28	0x78	120
29	0x7f	127
30	0xb5	-75
31	0xbe	-66
32	0x3b	59
33	0xcc	-52
34	0xb3	-77
35	0x6c	108
36	0xb9	-71
37	0x93	-109
38	0x55	85
39	0x8f	-113
40	0x74	116
41	0x8f	-113
42	0xbe	-66
43	0xa2	-94
44	0x5c	92
45	0x81	-127
46	0x96	-106
47	0x56	86
48	0x7f	127
49	0x7f	127
50	0x57	87
51	0xbd	-67
52	0x90	-112
53	0xd5	-43
54	0x9e	-98
55	0xbc	-68
56	0x94	-108
57	0x8c	-116
58	0x6d	109
59	0x67	103
60	0x9c	-100
61	0x97	-105
62	0xa2	-94
63	0x93	-109
64	0x81	-127
65	0x9b	-101
66	0x8b	-117
67	0x6e	110
68	0x7f	127
69	0x4d	77
70	0x81	-127
71	0xa7	-89
72	0x7f	127
73	0x81	-127
74	0x81	-127
75	0x64	100
76	0xa6	-90
77	0xdb	-37
78	0x7f	127
79	0x81	-127
80	0x64	100
81	0x81	-127
82	0xf1	-15
83	0x1d	29
84	0x17	23
85	0xb8	-72
86	0x9e	-98
87	0x68	104
88	0x3f	63
89	0x2d	45
90	0x17	23
91	0xa6	-90
92	0xa0	-96
93	0xc3	-61
94	0xb5	-75
95	0xa9	-87
96	0x9e	-98
97	0x81	-127
98	0x54	84
99	0x4b	75
100	0xbf	-65
101	0x91	-111
102	0xfc	-4
103	0x05	5
104	0xaf	-81
105	0xb9	-71
106	0xc3	-61
107	0x09	9
108	0x64	100
109	0x51	81
110	0xb4	-76
111	0xc5	-59
112	0x54	84
113	0xbf	-65
114	0xdd	-35
115	0x4d	77
116	0xd4	-44
117	0x9a	-102
118	0x57	87
119	0xc0	-64
120	0x5d	93
121	0xab	-85
122	0xfd	-3
123	0xb3	-77
124	0x31	49
125	0xb3	-77
126	0xb8	-72
127	0x36	54
128	0x47	71
129	0x1d	29
130	0x5d	93
131	0xa5	-91
132	0xc3	-61
133	0xb2	-78
134	0xb6	-74
135	0xb1	-79
136	0xb4	-76
137	0xcd	-51
138	0x4b	75
139	0x6a	106
140	0xa6	-90
141	0xb9	-71
142	0x8e	-114
143	0x84	-124
144	0xb8	-72
145	0xac	-84
146	0xab	-85
147	0x51	81
148	0x37	55
149	0x5b	91
150	0xc9	-55
151	0xc1	-63
152	0x2d	45
153	0xb9	-71
154	0xc0	-64
155	0x5d	93
156	0xae	-82
157	0xaf	-81
158	0x35	53
159	0xc4	-60
160	0x4e	78
161	0xa5	-91
162	0x00	0
163	0xe4	-28
164	0x30	48
165	0xc9	-55
166	0xd4	-44
167	0x51	81
168	0x38	56
169	0x4a	74
170	0x51	81
171	0xa5	-91
172	0xb8	-72
173	0xd4	-44
174	0xb0	-80
175	0xb7	-73
176	0xa2	-94
177	0xc1	-63
178	0x33	51
179	0x47	71
180	0xb3	-77
181	0xd9	-39
182	0xbf	-65
183	0xaf	-81
184	0xa9	-87
185	0xbf	-65
186	0xa7	-89
187	0x3c	60
188	0x48	72
189	0x42	66
190	0xa7	-89
191	0x9c	-100
192	0x48	72
193	0xac	-84
194	0xb3	-77
195	0x7c	124
196	0xc3	-61
197	0xca	-54
198	0x47	71
199	0xbb	-69
200	0x70	112
201	0xa7	-89
202	0x10	16
203	0x22	34
204	0x20	32
205	0xb4	-76
206	0xb1	-79
207	0x6d	109
208	0x3d	61
209	0x6e	110
210	0x2c	44
211	0xb6	-74
212	0xad	-83
213	0xba	-70
214	0xca	-54
215	0xc0	-64
216	0xac	-84
217	0xa9	-87
218	0x2c	44
219	0x38	56
220	0xe0	-32
221	0xdc	-36
222	0xd8	-40
223	0xdc	-36
224	0xaf	-81
225	0xc5	-59
226	0xd3	-45
227	0x35	53
228	0x62	98
229	0x5e	94
230	0xc0	-64
231	0xa7	-89
232	0x2f	47
233	0xbd	-67
234	0xe4	-28
235	0x76	118
236	0xbf	-65
237	0x81	-127
238	0x35	53
239	0xee	-18
240	0x14	20
241	0xb3	-77
242	0x45	69
243	0x81	-127
244	0x5c	92
245	0xb0	-80
246	0xaa	-86
247	0x44	68
248	0x43	67
249	0x1a	26
250	0x7b	123
251	0xa0	-96
252	0xdf	-33
253	0x81	-127
254	0x9d	-99
255	0x81	-127

tfl.pseudo_qconst29 i1 [40, 1, 1, 40]
0	0x81	-127
1	0x0a	10
2	0xee	-18
3	0xb7	-73
4	0xde	-34
5	0x57	87
6	0x44	68
7	0x09	9
8	0x8c	-116
9	0x06	6
10	0xf2	-14
11	0x1c	28
12	0x32	50
13	0x5c	92
14	0xf7	-9
15	0x9e	-98
16	0x3a	58
17	0xdb	-37
18	0xb5	-75
19	0xf3	-13
20	0xdf	-33
21	0xc3	-61
22	0x88	-120
23	0xe3	-29
24	0xfd	-3
25	0xf0	-16
26	0x65	101
27	0x27	39
28	0x70	112
29	0xb9	-71
30	0x90	-112
31	0x1d	29
32	0xdd	-35
33	0xd1	-47
34	0xd1	-47
35	0x16	22
36	0xcf	-49
37	0x4f	79
38	0xbe	-66
39	0xf5	-11
40	0x20	32
41	0x41	65
42	0xe4	-28
43	0x03	3
44	0x94	-108
45	0xff	-1
46	0x44	68
47	0x24	36
48	0xc1	-63
49	0x15	21
50	0x35	53
51	0x09	9
52	0xdc	-36
53	0xae	-82
54	0xe7	-25
55	0xd6	-42
56	0x39	57
57	0x05	5
58	0xea	-22
59	0x0c	12
60	0x07	7
61	0x54	84
62	0x3b	59
63	0xb9	-71
64	0xf5	-11
65	0xbe	-66
66	0x1d	29
67	0xe9	-23
68	0xeb	-21
69	0x36	54
70	0x3b	59
71	0x65	101
72	0xd0	-48
73	0xda	-38
74	0xf6	-10
75	0x7f	127
76	0x07	7
77	0xb3	-77
78	0xd5	-43
79	0xfe	-2
80	0x29	41
81	0x2b	43
82	0xd6	-42
83	0xed	-19
84	0xec	-20
85	0x4f	79
86	0x11	17
87	0x1c	28
88	0x10	16
89	0x15	21
90	0xcb	-53
91	0x17	23
92	0x22	34
93	0xf1	-15
94	0x21	33
95	0xbe	-66
96	0xe2	-30
97	0xfc	-4
98	0x09	9
99	0x55	85
100	0xfa	-6
101	0x09	9
102	0x0e	14
103	0x0c	12
104	0xdc	-36
105	0xc9	-55
106	0xfc	-4
107	0xd8	-40
108	0x55	85
109	0xf6	-10
110	0x23	35
111	0xf5	-11
112	0x2d	45
113	0xd6	-42
114	0x81	-127
115	0xfa	-6
116	0xe3	-29
117	0xbd	-67
118	0xdb	-37
119	0x38	56
120	0xef	-17
121	0xe4	-28
122	0xf1	-15
123	0xe6	-26
124	0xfe	-2
125	0xc1	-63
126	0xd3	-45
127	0xfa	-6
128	0x09	9
129	0x2a	42
130	0x12	18
131	0x2d	45
132	0x05	5
133	0xeb	-21
134	0x17	23
135	0xdf	-33
136	0xf7	-9
137	0x40	64
138	0xdc	-36
139	0xed	-19
140	0x05	5
141	0xfd	-3
142	0xf2	-14
143	0x1e	30
144	0x0c	12
145	0xfc	-4
146	0xf6	-10
147	0xf1	-15
148	0x10	16
149	0xce	-50
150	0x15	21
151	0x0a	10
152	0x07	7
153	0xed	-19
154	0xfd	-3
155	0x81	-127
156	0xf3	-13
157	0xd5	-43
158	0x07	7
159	0x19	25
160	0x01	1
161	0x4b	75
162	0x1c	28
163	0xbc	-68
164	0x18	24
165	0x3f	63
166	0x07	7
167	0x39	57
168	0xf1	-15
169	0x08	8
170	0x1c	28
171	0xbb	-69
172	0xe0	-32
173	0x07	7
174	0xf0	-16
175	0x2a	42
176	0x05	5
177	0x0a	10
178	0xf6	-10
179	0x11	17
180	0xe6	-26
181	0xc6	-58
182	0xf0	-16
183	0x02	2
184	0xec	-20
185	0x3a	58
186	0xa0	-96
187	0x4a	74
188	0x7f	127
189	0xd2	-46
190	0xfc	-4
191	0x41	65
192	0xf8	-8
193	0xa1	-95
194	0x02	2
195	0x13	19
196	0x5c	92
197	0xd3	-45
198	0x1f	31
199	0xc0	-64
200	0x4b	75
201	0xf9	-7
202	0xfc	-4
203	0xf0	-16
204	0x23	35
205	0x22	34
206	0xfc	-4
207	0x3b	59
208	0xe0	-32
209	0x27	39
210	0x04	4
211	0x11	17
212	0xaf	-81
213	0x29	41
214	0xff	-1
215	0x23	35
216	0xd3	-45
217	0xe3	-29
218	0xd6	-42
219	0xd8	-40
220	0x00	0
221	0xff	-1
222	0xf1	-15
223	0x74	116
224	0x05	5
225	0xf0	-16
226	0x3a	58
227	0x59	89
228	0xcb	-53
229	0x28	40
230	0xff	-1
231	0x22	34
232	0x81	-127
233	0xce	-50
234	0x26	38
235	0x2f	47
236	0x01	1
237	0xd9	-39
238	0xd5	-43
239	0x48	72
240	0x1e	30
241	0x30	48
242	0x0a	10
243	0x01	1
244	0x1c	28
245	0xdb	-37
246	0xf5	-11
247	0xef	-17
248	0x08	8
249	0xd2	-46
250	0xa2	-94
251	0xf0	-16
252	0x2b	43
253	0xaa	-86
254	0x42	66
255	0x1e	30

tfl.pseudo_qconst30 i1 [1, 3, 3, 40]
0	0x20	32
1	0xce	-50
2	0x64	100
3	0xea	-22
4	0x2e	46
5	0xd4	-44
6	0x38	56
7	0x5e	94
8	0xe8	-24
9	0xfa	-6
10	0x4a	74
11	0x83	-125
12	0x16	22
13	0xef	-17
14	0x10	16
15	0x4c	76
16	0x0e	14
17	0xfe	-2
18	0xe4	-28
19	0xbf	-65
20	0x59	89
21	0x14	20
22	0x05	5
23	0x8f	-113
24	0x3d	61
25	0xee	-18
26	0xbc	-68
27	0xc6	-58
28	0xe8	-24
29	0x13	19
30	0x38	56
31	0xb7	-73
32	0x19	25
33	0x33	51
34	0x2a	42
35	0x49	73
36	0x81	-127
37	0xd3	-45
38	0x60	96
39	0xfd	-3
40	0x7f	127
41	0x81	-127
42	0x74	116
43	0x24	36
44	0xe8	-24
45	0x36	54
46	0x3a	58
47	0x39	57
48	0x3c	60
49	0xd8	-40
50	0x55	85
51	0x81	-127
52	0x7f	127
53	0x47	71
54	0x18	24
55	0x58	88
56	0xc4	-60
57	0xe4	-28
58	0x2a	42
59	0x7f	127
60	0x7f	127
61	0xf5	-11
62	0x7e	126
63	0x81	-127
64	0x4f	79
65	0x44	68
66	0x04	4
67	0xac	-84
68	0xcd	-51
69	0x5a	90
70	0x13	19
71	0x81	-127
72	0x29	41
73	0xc5	-59
74	0x7f	127
75	0x24	36
76	0x97	-105
77	0xef	-17
78	0x3c	60
79	0x30	48
80	0x10	16
81	0xd7	-41
82	0x5f	95
83	0x7f	127
84	0x8e	-114
85	0x8e	-114
86	0x57	87
87	0x08	8
88	0x4f	79
89	0x87	-121
90	0x1b	27
91	0xfd	-3
92	0xd8	-40
93	0x7c	124
94	0x81	-127
95	0x23	35
96	0xca	-54
97	0x81	-127
98	0xfd	-3
99	0x45	69
100	0x54	84
101	0xe7	-25
102	0x42	66
103	0xc9	-55
104	0xe7	-25
105	0x56	86
106	0x40	64
107	0x81	-127
108	0xd4	-44
109	0x7f	127
110	0x13	19
111	0x07	7
112	0xf5	-11
113	0x81	-127
114	0xff	-1
115	0x3e	62
116	0x12	18
117	0x48	72
118	0x1c	28
119	0xe0	-32
120	0x42	66
121	0x8e	-114
122	0xe6	-26
123	0xe3	-29
124	0x5b	91
125	0xda	-38
126	0x7f	127
127	0xf5	-11
128	0xed	-19
129	0x1d	29
130	0x1d	29
131	0xcc	-52
132	0xf2	-14
133	0x4e	78
134	0x21	33
135	0x41	65
136	0x29	41
137	0xec	-20
138	0x14	20
139	0x28	40
140	0x33	51
141	0xb0	-80
142	0x1d	29
143	0xdc	-36
144	0x7b	123
145	0x7f	127
146	0x01	1
147	0xca	-54
148	0xd0	-48
149	0x08	8
150	0x32	50
151	0xe9	-23
152	0x49	73
153	0x44	68
154	0x23	35
155	0x1b	27
156	0x8f	-113
157	0x66	102
158	0x1b	27
159	0x06	6
160	0x13	19
161	0xe7	-25
162	0xda	-38
163	0x26	38
164	0x0f	15
165	0xb0	-80
166	0x48	72
167	0xd9	-39
168	0xeb	-21
169	0x01	1
170	0x7f	127
171	0x1f	31
172	0x04	4
173	0x01	1
174	0xe4	-28
175	0x17	23
176	0xd1	-47
177	0xec	-20
178	0x7f	127
179	0x51	81
180	0xca	-54
181	0xb5	-75
182	0x7f	127
183	0xb4	-76
184	0xe8	-24
185	0x45	69
186	0x34	52
187	0xec	-20
188	0x81	-127
189	0xfc	-4
190	0x7f	127
191	0x06	6
192	0x28	40
193	0x1b	27
194	0x41	65
195	0x19	25
196	0x87	-121
197	0x28	40
198	0xc3	-61
199	0xd3	-45
200	0x2e	46
201	0x5e	94
202	0xf2	-14
203	0x05	5
204	0xd4	-44
205	0x81	-127
206	0x5d	93
207	0xb4	-76
208	0x1b	27
209	0xc3	-61
210	0x67	103
211	0x1a	26
212	0x3e	62
213	0x12	18
214	0x95	-107
215	0x38	56
216	0x81	-127
217	0x26	38
218	0x00	0
219	0xba	-70
220	0xf2	-14
221	0x81	-127
222	0xfe	-2
223	0xad	-83
224	0xc9	-55
225	0xe3	-29
226	0x5d	93
227	0xe4	-28
228	0xf6	-10
229	0x18	24
230	0x25	37
231	0xaa	-86
232	0x7f	127
233	0x16	22
234	0x0d	13
235	0x31	49
236	0x37	55
237	0x7f	127
238	0x98	-104
239	0xbd	-67
240	0x34	52
241	0xdf	-33
242	0xc1	-63
243	0xb2	-78
244	0x7f	127
245	0x82	-126
246	0x03	3
247	0xfb	-5
248	0xb2	-78
249	0xf1	-15
250	0xd4	-44
251	0xe3	-29
252	0xef	-17
253	0x23	35
254	0xcd	-51
255	0x6e	110
