skin-lesion-models/detection/ColNAS-m_N_k_3_c_4LI8ac92.38_tfsz_18.0_lat_0.253_FSH_ 18.57_RAM_18.43.tflite (tflite, 18576 bytes, 6 tensors)

tfl.pseudo_qconst1 i1 [2, 30]
-120 -51 85 -63 123 -13 73 101
92 55 92 43 10 -127 61 -66
-88 -102 -74 -66 113 86 79 -42
84 -44 -47 -95 -109 110 71 80
-61 85 11 116 -107 -66 -34 -68
-80 -116 -108 52 -110 68 93 113
40 84 -73 -29 -52 125 -14 117
88 76 127 -97
00000000: 88cd 55c1 7bf3 4965 5c37 5c2b 0a81 3dbe
00000010: a89a b6be 7156 4fd6 54d4 d1a1 936e 4750
00000020: c355 0b74 95be debc b08c 9434 9244 5d71
00000030: 2854 b7e3 cc7d f275 584c 7f9f

tfl.pseudo_qconst3 i1 [30, 3, 3, 21]
-22 -127 13 -35 61 -8 73 -55
-35 27 -52 12 -13 32 39 44
-18 -2 30 81 71 -27 -82 61
-26 39 60 -24 -22 16 76 -40
-13 12 33 -2 -16 -44 -60 36
-5 68 25 45 62 -23 34 11
-46 -49 -70 56 33 55 58 28
28 2 27 14 7 26 -4 41
-108 -1 1 85 -27 70 -42 13
32 -82 97 81 52 28 6 8
-70 47 31 29 -63 -45 -3 -36
97 39 -20 -43 -4 52 52 40
27 -15 14 -48 -45 -48 80 38
-34 -53 37 17 39 61 69 -22
-57 -2 -11 43 15 29 27 41
-52 -33 26 18 -55 52 -43 -123
29 78 46 29 18 -54 116 13
17 89 54 45 -5 -4 -98 -27
29 27 -36 -48 -35 -17 20 37
0 26 -32 49 -10 20 -1 67
40 -61 -79 -31 66 6 27 32
-100 24 61 38 44 -39 -76 14
58 56 -36 36 -15 -12 -37 -78
-37 -8 52 -60 -25 -31 -118 9
25 90 40 53 -37 79 34 -25
20 -5 2 15 40 -53 -90 59
23 65 11 -48 22 17 66 90
-34 -96 51 43 35 18 47 29
50 -40 39 -52 73 -27 31 1
-1 56 36 63 45 -14 -103 11
56 17 40 61 -46 35 -32 -54
3 44 -24 55 -2 -104 18 43
00000000: ea81 0ddd 3df8 49c9 dd1b cc0c f320 272c
00000010: eefe 1e51 47e5 ae3d e627 3ce8 ea10 4cd8
00000020: f30c 21fe f0d4 c424 fb44 192d 3ee9 220b
00000030: d2cf ba38 2137 3a1c 1c02 1b0e 071a fc29
00000040: 94ff 0155 e546 d60d 20ae 6151 341c 0608
00000050: ba2f 1f1d c1d3 fddc 6127 ecd5 fc34 3428
00000060: 1bf1 0ed0 d3d0 5026 decb 2511 273d 45ea
00000070: c7fe f52b 0f1d 1b29 ccdf 1a12 c934 d585
00000080: 1d4e 2e1d 12ca 740d 1159 362d fbfc 9ee5
00000090: 1d1b dcd0 ddef 1425 001a e031 f614 ff43
000000a0: 28c3 b1e1 4206 1b20 9c18 3d26 2cd9 b40e
000000b0: 3a38 dc24 f1f4 dbb2 dbf8 34c4 e7e1 8a09
000000c0: 195a 2835 db4f 22e7 14fb 020f 28cb a63b
000000d0: 1741 0bd0 1611 425a dea0 332b 2312 2f1d
000000e0: 32d8 27cc 49e5 1f01 ff38 243f 2df2 990b
000000f0: 3811 283d d223 e0ca 032c e837 fe98 122b

tfl.pseudo_qconst5 i1 [21, 3, 3, 13]
-59 -107 -21 21 -47 23 -45 -63
22 -49 -42 -75 -50 -9 89 -33
-3 -70 -19 -74 -5 -32 -32 -7
-32 41 -11 -43 51 29 59 -7
-9 15 -41 47 1 -1 13 -51
-127 -68 4 -34 -16 56 25 -17
81 -40 19 12 -27 35 1 -50
60 -26 -32 -75 -11 -45 -83 -66
82 5 10 -9 -40 -28 -34 115
67 32 -120 19 91 -9 49 -56
43 56 -17 -27 -36 55 -31 29
-28 -86 38 -89 52 88 70 82
-35 17 -13 -74 20 30 -63 29
-7 55 -77 -8 9 -59 22 58
19 33 -29 -31 81 4 -22 110
52 57 35 62 -91 -39 57 101
-6 49 -62 -47 -24 8 -32 4
64 36 0 68 -62 21 23 41
6 -35 12 -8 16 -102 94 -22
-62 -19 46 -71 -1 7 8 71
78 -10 -11 -94 -75 42 -5 66
-8 -79 -67 27 -70 -16 72 23
-53 -38 -11 6 -27 5 -8 43
-29 80 -33 30 -127 89 16 -24
36 -44 -19 -78 41 11 -8 89
34 23 -51 -75 5 75 -23 -39
126 -92 23 -2 -101 9 19 37
2 25 5 43 51 -39 -48 -28
-30 -85 -1 -57 0 -13 70 -39
54 -54 -27 27 -39 -61 5 -41
-103 5 46 33 -54 -16 50 20
-60 -25 -77 -110 25 11 47 52
00000000: c595 eb15 d117 d3c1 16cf d6b5 cef7 59df
00000010: fdba edb6 fbe0 e0f9 e029 f5d5 331d 3bf9
00000020: f70f d72f 01ff 0dcd 81bc 04de f038 19ef
00000030: 51d8 130c e523 01ce 3ce6 e0b5 f5d3 adbe
00000040: 5205 0af7 d8e4 de73 4320 8813 5bf7 31c8
00000050: 2b38 efe5 dc37 e11d e4aa 26a7 3458 4652
00000060: dd11 f3b6 141e c11d f937 b3f8 09c5 163a
00000070: 1321 e3e1 5104 ea6e 3439 233e a5d9 3965
00000080: fa31 c2d1 e808 e004 4024 0044 c215 1729
00000090: 06dd 0cf8 109a 5eea c2ed 2eb9 ff07 0847
000000a0: 4ef6 f5a2 b52a fb42 f8b1 bd1b baf0 4817
000000b0: cbda f506 e505 f82b e350 df1e 8159 10e8
000000c0: 24d4 edb2 290b f859 2217 cdb5 054b e9d9
000000d0: 7ea4 17fe 9b09 1325 0219 052b 33d9 d0e4
000000e0: e2ab ffc7 00f3 46d9 36ca e51b d9c3 05d7
000000f0: 9905 2e21 caf0 3214 c4e7 b392 190b 2f34

tfl.pseudo_qconst7 i1 [13, 3, 3, 7]
-1 83 6 -60 -53 -58 -33 -15
5 127 33 -59 -12 88 49 83
38 13 28 -49 32 -37 -20 -91
39 30 -12 -5 -18 -80 86 -18
58 -13 38 65 -25 35 -48 30
-23 -59 -47 -18 14 -46 -75 41
8 -27 -73 66 -17 36 -11 36
-72 -56 -101 -10 -54 -16 63 -30
-96 -113 127 33 -18 52 28 -76
24 14 45 -15 -10 116 19 -77
-71 60 16 -1 -101 -91 -11 -42
3 16 -18 120 -68 8 41 -43
-64 3 -29 -91 27 102 -38 95
-4 -51 10 -35 -114 -29 -48 -34
19 -102 109 50 56 -34 -52 -26
27 -1 55 -25 12 15 16 -47
21 69 34 -72 16 -41 -72 12
-33 -22 -44 -74 -23 98 -57 39
51 0 -91 3 -63 2 23 -32
-75 29 48 -73 -18 62 -72 -109
-8 -58 71 -16 -78 42 88 58
63 48 23 127 108 -45 -19 18
-14 3 69 68 -85 -33 -89 45
60 25 17 91 48 -98 42 45
-33 -62 5 -10 -17 -99 13 23
-90 101 83 70 46 17 -5 25
-82 1 89 29 18 53 93 -78
34 -74 12 -14 -75 -45 75 22
43 -46 20 -35 -105 127 -16 -17
-15 -16 7 24 59 28 -25 -60
14 22 72 -59 64 -83 45 38
122 -79 27 -43 30 18 -61 -17
00000000: ff53 06c4 cbc6 dff1 057f 21c5 f458 3153
00000010: 260d 1ccf 20db eca5 271e f4fb eeb0 56ee
00000020: 3af3 2641 e723 d01e e9c5 d1ee 0ed2 b529
00000030: 08e5 b742 ef24 f524 b8c8 9bf6 caf0 3fe2
00000040: a08f 7f21 ee34 1cb4 180e 2df1 f674 13b3
00000050: b93c 10ff 9ba5 f5d6 0310 ee78 bc08 29d5
00000060: c003 e3a5 1b66 da5f fccd 0add 8ee3 d0de
00000070: 139a 6d32 38de cce6 1bff 37e7 0c0f 10d1
00000080: 1545 22b8 10d7 b80c dfea d4b6 e962 c727
00000090: 3300 a503 c102 17e0 b51d 30b7 ee3e b893
000000a0: f8c6 47f0 b22a 583a 3f30 177f 6cd3 ed12
000000b0: f203 4544 abdf a72d 3c19 115b 309e 2a2d
000000c0: dfc2 05f6 ef9d 0d17 a665 5346 2e11 fb19
000000d0: ae01 591d 1235 5db2 22b6 0cf2 b5d3 4b16
000000e0: 2bd2 14dd 977f f0ef f1f0 0718 3b1c e7c4
000000f0: 0e16 48c5 40ad 2d26 7ab1 1bd5 1e12 c3ef

tfl.pseudo_qconst9 i1 [7, 3, 3, 3]
107 127 -113 -83 92 17 -93 -31
-77 64 51 -63 -84 33 85 -13
-3 20 75 17 66 -40 13 68
-94 -61 36 -127 -92 18 -25 62
-77 32 -80 4 -36 89 55 -84
-65 -43 -77 -77 -84 98 106 -54
103 83 -6 -74 76 119 116 19
105 -81 -37 -64 1 76 -127 -19
-95 -70 -1 -54 85 -10 -57 -90
-53 55 33 -88 72 85 25 93
-89 -71 -44 94 8 99 -4 62
-88 32 -100 -66 61 -60 22 29
-88 37 -38 38 -37 -76 -76 70
20 -126 -86 -127 -12 65 -116 -37
-91 102 -4 48 -80 -27 13 102
127 71 121 37 -3 -33 10 -11
-42 -27 -64 -61 -122 -37 110 122
85 -57 -69 -4 -68 -86 34 71
-74 -104 -25 -85 -82 101 7 -63
53 69 -127 119 83 -98 93 7
-52 -91 -22 -48 18 -14 16 -127
-39 36 39 -9 -45 -18 -95 27
-61 -12 -48 -28 96 -40 7 -22
-45 -22 -112 44 -104
00000000: 6b7f 8fad 5c11 a3e1 b340 33c1 ac21 55f3
00000010: fd14 4b11 42d8 0d44 a2c3 2481 a412 e73e
00000020: b320 b004 dc59 37ac bfd5 b3b3 ac62 6aca
00000030: 6753 fab6 4c77 7413 69af dbc0 014c 81ed
00000040: a1ba ffca 55f6 c7a6 cb37 21a8 4855 195d
00000050: a7b9 d45e 0863 fc3e a820 9cbe 3dc4 161d
00000060: a825 da26 dbb4 b446 1482 aa81 f441 8cdb
00000070: a566 fc30 b0e5 0d66 7f47 7925 fddf 0af5
00000080: d6e5 c0c3 86db 6e7a 55c7 bbfc bcaa 2247
00000090: b698 e7ab ae65 07c1 3545 8177 539e 5d07
000000a0: cca5 ead0 12f2 1081 d924 27f7 d3ee a11b
000000b0: c3f4 d0e4 60d8 07ea d3ea 902c 98

tfl.pseudo_qconst11 i1 [3, 3, 3, 3]
3 78 -18 -91 -70 -127 -94 35
-103 -49 -124 -30 -38 36 -104 -56
118 -24 -46 27 -91 34 -109 -47
-77 45 -100 -75 23 -94 -54 -35
-44 48 71 -25 -58 52 -35 -34
-59 -127 59 -93 -43 28 29 -93
-42 -30 -64 32 -31 -69 -45 -65
-20 71 -47 115 30 -127 -6 -112
117 23 -48 -85 -107 -119 -26 69
30 34 -14 27 71 -38 -112 82
59
00000000: 034e eea5 ba81 a223 99cf 84e2 da24 98c8
00000010: 76e8 d21b a522 93d1 b32d 9cb5 17a2 cadd
00000020: d430 47e7 c634 ddde c581 3ba3 d51c 1da3
00000030: d6e2 c020 e1bb d3bf ec47 d173 1e81 fa90
00000040: 7517 d0ab 9589 e645 1e22 f21b 47da 9052
00000050: 3b
