skin-lesion-models/detection/HVTINY_N_0_d_0.0_[1, 4, 2, 1]_k_30_c_3LI8ac92.57_tfsz_38.0_lat_0.75_FSH_ 38.41_RAM_147.45.tflite (tflite, 38416 bytes, 10 tensors)

tfl.pseudo_qconst1 i1 [2, 30]
23 -75 99 89 37 -73 80 9
47 53 -6 -70 -42 3 -52 -1
127 92 -30 -104 -64 38 63 7
86 105 26 -17 15 -48 -100 10
74 -114 -41 89 -25 -80 -99 -51
-59 -127 76 -76 -90 -87 -86 -103
103 -27 -124 -35 -16 98 -12 27
-47 62 66 -97
00000000: 17b5 6359 25b7 5009 2f35 faba d603 ccff
00000010: 7f5c e298 c026 3f07 5669 1aef 0fd0 9c0a
00000020: 4a8e d759 e7b0 9dcd c581 4cb4 a6a9 aa99
00000030: 67e5 84dd f062 f41b d13e 429f

tfl.pseudo_qconst3 i1 [30, 1, 1, 60]
77 -44 19 -87 41 -40 -87 90
-9 -38 -29 117 -96 15 -107 -26
-59 -122 -64 39 -43 -113 80 24
-104 1 -23 -10 26 -36 -53 78
-5 70 -68 5 95 -24 -75 34
78 -15 -112 25 67 -110 2 -36
-114 76 58 -89 111 39 86 127
58 -90 94 -51 5 -100 45 17
58 31 89 -103 63 73 40 27
-32 10 -96 -46 -60 78 -91 -28
-84 -22 104 -120 -82 -119 77 -63
-36 -21 -15 27 -8 49 76 -78
23 108 -77 83 68 127 94 -42
-20 53 -105 119 0 -13 87 20
14 22 13 -98 57 -49 17 24
-94 -40 31 -7 14 33 -29 -71
-15 -28 -22 3 -38 -14 0 -82
-50 127 78 91 -33 107 16 13
-69 -64 -85 -41 54 51 95 31
-61 -90 -3 13 31 40 -62 -23
68 -82 -12 66 -89 -13 -17 -71
26 -112 -53 -27 -57 48 -24 37
-3 11 -6 60 -118 112 11 35
-91 65 -32 18 81 -21 87 45
3 6 -24 69 -89 -83 -69 -15
-15 -91 57 87 -64 -26 -29 -7
86 96 -79 110 5 -41 -38 -88
43 89 40 36 127 -6 -113 -25
43 -27 106 -112 -62 -66 -38 70
120 -83 118 -8 49 -13 115 14
-97 69 93 44 -45 -44 -41 66
-53 -82 -59 49 -31 90 -29 101
00000000: 4dd4 13a9 29d8 a95a f7da e375 a00f 95e6
00000010: c586 c027 d58f 5018 9801 e9f6 1adc cb4e
00000020: fb46 bc05 5fe8 b522 4ef1 9019 4392 02dc
00000030: 8e4c 3aa7 6f27 567f 3aa6 5ecd 059c 2d11
00000040: 3a1f 5999 3f49 281b e00a a0d2 c44e a5e4
00000050: acea 6888 ae89 4dc1 dceb f11b f831 4cb2
00000060: 176c b353 447f 5ed6 ec35 9777 00f3 5714
00000070: 0e16 0d9e 39cf 1118 a2d8 1ff9 0e21 e3b9
00000080: f1e4 ea03 daf2 00ae ce7f 4e5b df6b 100d
00000090: bbc0 abd7 3633 5f1f c3a6 fd0d 1f28 c2e9
000000a0: 44ae f442 a7f3 efb9 1a90 cbe5 c730 e825
000000b0: fd0b fa3c 8a70 0b23 a541 e012 51eb 572d
000000c0: 0306 e845 a7ad bbf1 f1a5 3957 c0e6 e3f9
000000d0: 5660 b16e 05d7 daa8 2b59 2824 7ffa 8fe7
000000e0: 2be5 6a90 c2be da46 78ad 76f8 31f3 730e
000000f0: 9f45 5d2c d3d4 d742 cbae c531 e15a e365

tfl.pseudo_qconst5 i1 [1, 3, 3, 60]
120 -97 -45 -20 127 -127 127 52
-57 -72 -127 -127 78 -85 59 106
108 -80 127 40 127 123 106 7
38 -127 -9 -47 126 80 42 -37
-99 85 73 -127 -121 121 -85 -127
115 72 -97 -115 126 -127 28 28
96 -127 55 -112 -6 79 13 -40
-111 -116 36 106 100 -70 127 100
-60 -108 67 48 -43 -37 34 -92
120 -87 -76 82 86 -22 -50 70
73 122 -127 70 95 -80 -83 16
127 124 127 -127 -74 59 127 -47
-118 127 -22 -10 45 101 -49 -101
4 -78 34 118 -53 34 8 -110
-87 7 26 9 -127 -97 30 127
8 -127 -17 96 -5 17 -10 70
9 -39 -98 -75 116 12 6 79
127 41 -8 -71 85 47 104 123
126 -65 -127 -127 34 65 36 -98
-84 106 17 -83 -78 -26 47 24
113 127 -120 -61 61 -122 13 100
-96 55 -35 -23 -75 127 -15 -127
-41 -60 28 -35 33 32 113 24
122 21 104 -14 -77 -127 -13 -46
127 -127 -127 127 54 -89 122 127
-110 127 -30 127 -108 -49 -118 38
104 127 44 -94 -77 123 -6 -58
-8 12 -99 -6 112 117 -114 -83
62 102 71 126 127 -51 56 6
40 79 -38 -69 54 -72 127 15
-17 44 -13 -58 1 -13 111 -127
-127 -46 -124 71 -82 12 -107 35
00000000: 789f d3ec 7f81 7f34 c7b8 8181 4eab 3b6a
00000010: 6cb0 7f28 7f7b 6a07 2681 f7d1 7e50 2adb
00000020: 9d55 4981 8779 ab81 7348 9f8d 7e81 1c1c
00000030: 6081 3790 fa4f 0dd8 918c 246a 64ba 7f64
00000040: c494 4330 d5db 22a4 78a9 b452 56ea ce46
00000050: 497a 8146 5fb0 ad10 7f7c 7f81 b63b 7fd1
00000060: 8a7f eaf6 2d65 cf9b 04b2 2276 cb22 0892
00000070: a907 1a09 819f 1e7f 0881 ef60 fb11 f646
00000080: 09d9 9eb5 740c 064f 7f29 f8b9 552f 687b
00000090: 7ebf 8181 2241 249e ac6a 11ad b2e6 2f18
000000a0: 717f 88c3 3d86 0d64 a037 dde9 b57f f181
000000b0: d7c4 1cdd 2120 7118 7a15 68f2 b381 f3d2
000000c0: 7f81 817f 36a7 7a7f 927f e27f 94cf 8a26
000000d0: 687f 2ca2 b37b fac6 f80c 9dfa 7075 8ead
000000e0: 3e66 477e 7fcd 3806 284f dabb 36b8 7f0f
000000f0: ef2c f3c6 01f3 6f81 81d2 8447 ae0c 9523

tfl.pseudo_qconst7 i1 [60, 1, 1, 120]
-61 22 -108 41 -20 83 -33 121
69 -20 27 -53 -99 -65 -34 8
-69 104 66 -43 25 -47 51 91
39 71 -19 -20 98 -15 31 37
83 -68 100 -2 -127 -113 36 87
-102 -12 -54 -66 75 54 -10 22
61 73 21 -96 80 102 -4 95
63 74 63 20 36 75 -50 40
-23 14 69 47 68 88 -17 47
-35 -65 52 60 -27 -53 -17 -105
-20 91 -88 26 -30 -33 -97 44
-123 18 51 -68 -46 61 -6 74
-50 -12 -24 51 80 92 -57 -96
-62 -96 84 3 48 74 107 36
-3 -108 -44 44 9 18 82 38
-80 -94 -32 -32 28 -16 12 47
29 -61 -32 84 -64 18 43 49
-69 55 -45 47 7 -43 66 -98
58 -17 -10 88 8 -4 -25 53
-17 -72 17 -24 -117 -2 31 -16
-25 -55 -23 -15 80 34 -46 -28
-46 -48 54 -83 -95 -62 35 64
30 52 -43 24 41 -54 93 8
78 4 -127 98 71 104 -35 40
51 -71 -23 90 -41 105 14 -5
9 57 33 5 -82 -59 -80 9
-81 87 10 -102 -114 77 63 94
98 33 -14 27 41 112 -113 21
71 74 67 -63 48 79 77 30
55 59 63 -20 61 39 -57 -86
-29 -3 65 7 69 82 6 44
-73 10 72 45 56 45 80 9
00000000: c316 9429 ec53 df79 45ec 1bcb 9dbf de08
00000010: bb68 42d5 19d1 335b 2747 edec 62f1 1f25
00000020: 53bc 64fe 818f 2457 9af4 cabe 4b36 f616
00000030: 3d49 15a0 5066 fc5f 3f4a 3f14 244b ce28
00000040: e90e 452f 4458 ef2f ddbf 343c e5cb ef97
00000050: ec5b a81a e2df 9f2c 8512 33bc d23d fa4a
00000060: cef4 e833 505c c7a0 c2a0 5403 304a 6b24
00000070: fd94 d42c 0912 5226 b0a2 e0e0 1cf0 0c2f
00000080: 1dc3 e054 c012 2b31 bb37 d32f 07d5 429e
00000090: 3aef f658 08fc e735 efb8 11e8 8bfe 1ff0
000000a0: e7c9 e9f1 5022 d2e4 d2d0 36ad a1c2 2340
000000b0: 1e34 d518 29ca 5d08 4e04 8162 4768 dd28
000000c0: 33b9 e95a d769 0efb 0939 2105 aec5 b009
000000d0: af57 0a9a 8e4d 3f5e 6221 f21b 2970 8f15
000000e0: 474a 43c1 304f 4d1e 373b 3fec 3d27 c7aa
000000f0: e3fd 4107 4552 062c b70a 482d 382d 5009

tfl.pseudo_qconst9 i1 [1, 3, 3, 120]
127 7 -127 -69 24 5 -41 77
81 24 -83 -72 127 8 62 12
-127 -63 -56 28 -75 -9 29 -16
127 96 -39 -46 -18 118 14 127
80 69 127 19 51 -77 -23 17
27 -64 -127 -27 -127 -62 38 -34
93 119 -24 -111 -68 106 -63 78
-115 -13 127 -20 59 -5 69 -19
29 -30 -104 86 53 123 -75 43
114 -11 46 -36 -100 127 62 -110
60 83 -47 127 77 -47 -107 123
-107 -6 -69 -45 -127 102 81 -30
105 -2 -25 127 -67 -2 -57 -69
-61 -58 -39 -38 74 4 29 127
-127 121 84 -31 20 -14 99 -37
49 -46 -1 -94 -68 -27 -96 52
14 107 -78 -4 101 -2 70 110
-60 94 2 48 -59 71 41 -75
112 65 -4 7 69 50 127 16
57 38 82 -9 39 -52 -33 127
79 -68 -80 95 -72 113 -115 80
110 113 -55 -127 -1 80 -19 -25
-107 -88 29 2 48 -3 127 21
88 -30 -46 80 127 -31 -127 -57
-7 50 -127 116 -31 122 127 -72
50 0 19 -64 127 25 -109 127
25 77 -98 5 -122 26 -84 -36
33 -44 -101 62 -127 38 -125 -118
-105 71 111 -30 77 38 127 91
-122 127 78 -116 8 52 103 58
-7 -127 -81 -53 -104 40 -56 -45
105 59 -48 -86 101 -37 127 127
00000000: 7f07 81bb 1805 d74d 5118 adb8 7f08 3e0c
00000010: 81c1 c81c b5f7 1df0 7f60 d9d2 ee76 0e7f
00000020: 5045 7f13 33b3 e911 1bc0 81e5 81c2 26de
00000030: 5d77 e891 bc6a c14e 8df3 7fec 3bfb 45ed
00000040: 1de2 9856 357b b52b 72f5 2edc 9c7f 3e92
00000050: 3c53 d17f 4dd1 957b 95fa bbd3 8166 51e2
00000060: 69fe e77f bdfe c7bb c3c6 d9da 4a04 1d7f
00000070: 8179 54e1 14f2 63db 31d2 ffa2 bce5 a034
00000080: 0e6b b2fc 65fe 466e c45e 0230 c547 29b5
00000090: 7041 fc07 4532 7f10 3926 52f7 27cc df7f
000000a0: 4fbc b05f b871 8d50 6e71 c981 ff50 ede7
000000b0: 95a8 1d02 30fd 7f15 58e2 d250 7fe1 81c7
000000c0: f932 8174 e17a 7fb8 3200 13c0 7f19 937f
000000d0: 194d 9e05 861a acdc 21d4 9b3e 8126 838a
000000e0: 9747 6fe2 4d26 7f5b 867f 4e8c 0834 673a
000000f0: f981 afcb 9828 c8d3 693b d0aa 65db 7f7f

tfl.pseudo_qconst11 i1 [120, 1, 1, 30]
-79 1 -84 -66 86 -28 -74 -59
-118 80 -8 -24 86 52 -8 27
63 -67 -127 4 3 -78 102 28
-97 79 -27 68 -60 60 51 -112
-52 61 -127 -15 -60 -35 -53 -59
49 -46 -76 7 44 -70 -26 -26
-88 61 -9 87 67 -13 64 74
81 62 74 3 -33 -3 -105 -94
55 -20 -73 -93 4 -127 71 5
-91 20 -15 80 75 36 -79 -8
17 33 -37 10 25 -117 121 -10
-20 -124 -73 -98 -16 50 76 -35
-38 58 -106 15 29 -77 -127 -40
-87 -4 -34 -73 90 2 -103 -36
34 26 -7 -45 97 -16 -77 -104
79 -89 13 91 75 -49 70 -3
-34 -46 -25 30 15 -71 -73 0
56 -44 -38 -73 -107 99 -67 60
42 -39 127 -55 24 -20 79 -35
-118 -17 -45 43 -45 -114 69 71
121 107 54 70 -4 -77 -104 40
-113 -20 -12 127 -8 19 -94 -17
-97 74 -8 55 -26 -5 1 -58
-36 -49 57 21 73 71 28 122
-47 -95 14 109 -119 -65 -117 -86
43 11 21 -112 80 127 92 -82
-49 -58 -56 -90 -44 -94 -20 109
53 43 47 49 107 -73 -108 90
2 54 -21 65 127 -48 17 43
39 27 -41 41 31 -17 -45 55
-70 20 -96 78 -92 10 21 83
-18 40 -127 -31 -69 -78 -106 30
00000000: b101 acbe 56e4 b6c5 8a50 f8e8 5634 f81b
00000010: 3fbd 8104 03b2 661c 9f4f e544 c43c 3390
00000020: cc3d 81f1 c4dd cbc5 31d2 b407 2cba e6e6
00000030: a83d f757 43f3 404a 513e 4a03 dffd 97a2
00000040: 37ec b7a3 0481 4705 a514 f150 4b24 b1f8
00000050: 1121 db0a 198b 79f6 ec84 b79e f032 4cdd
00000060: da3a 960f 1db3 81d8 a9fc deb7 5a02 99dc
00000070: 221a f9d3 61f0 b398 4fa7 0d5b 4bcf 46fd
00000080: ded2 e71e 0fb9 b700 38d4 dab7 9563 bd3c
00000090: 2ad9 7fc9 18ec 4fdd 8aef d32b d38e 4547
000000a0: 796b 3646 fcb3 9828 8fec f47f f813 a2ef
000000b0: 9f4a f837 e6fb 01c6 dccf 3915 4947 1c7a
000000c0: d1a1 0e6d 89bf 8baa 2b0b 1590 507f 5cae
000000d0: cfc6 c8a6 d4a2 ec6d 352b 2f31 6bb7 945a
000000e0: 0236 eb41 7fd0 112b 271b d729 1fef d337
000000f0: ba14 a04e a40a 1553 ee28 81e1 bbb2 961e

tfl.pseudo_qconst13 i1 [1, 3, 3, 30]
35 118 127 121 82 -27 29 -53
75 73 81 -67 -127 42 16 -113
50 -8 -103 -78 127 -62 107 -103
13 -111 20 -62 -88 7 81 69
93 87 106 -25 -63 6 127 -16
-47 -111 -51 115 4 94 -10 127
-73 -56 98 16 127 -49 120 -86
-14 47 -116 94 -80 73 45 106
2 -127 71 14 62 -103 22 -105
64 -22 127 -126 0 127 -53 63
125 -127 -33 -84 58 -33 -94 -82
-63 -20 -36 -32 -65 -25 127 -95
127 30 2 -76 -126 -30 -113 127
108 46 -119 -60 -42 127 -81 -48
47 -127 16 24 -94 91 -127 72
-29 37 -69 127 50 10 -53 124
-65 -127 -81 -102 52 6 -41 -28
-62 -58 -25 -34 105 60 -60 50
127 -4 -67 106 61 62 -116 3
72 23 -33 -122 3 -33 -4 76
-20 -127 -39 37 123 -34 41 102
-112 45 53 -60 70 91 15 -127
2 -99 33 127 -36 -98 89 119
69 40 111 119 121 -69 -127 -46
-109 84 -79 -115 -56 58 -16 81
41 -25 2 -44 -64 -63 -113 -5
-107 -5 10 -127 87 52 -21 -28
122 127 -6 85 -114 -3 -72 116
11 -127 -127 -25 -127 98 38 -10
11 21 66 52 -103 -127 45 -5
-127 -114 18 72 39 -78 -44 3
95 124 76 -99 -50 89 79 -121
00000000: 2376 7f79 52e5 1dcb 4b49 51bd 812a 108f
00000010: 32f8 99b2 7fc2 6b99 0d91 14c2 a807 5145
00000020: 5d57 6ae7 c106 7ff0 d191 cd73 045e f67f
00000030: b7c8 6210 7fcf 78aa f22f 8c5e b049 2d6a
00000040: 0281 470e 3e99 1697 40ea 7f82 007f cb3f
00000050: 7d81 dfac 3adf a2ae c1ec dce0 bfe7 7fa1
00000060: 7f1e 02b4 82e2 8f7f 6c2e 89c4 d67f afd0
00000070: 2f81 1018 a25b 8148 e325 bb7f 320a cb7c
00000080: bf81 af9a 3406 d7e4 c2c6 e7de 693c c432
00000090: 7ffc bd6a 3d3e 8c03 4817 df86 03df fc4c
000000a0: ec81 d925 7bde 2966 902d 35c4 465b 0f81
000000b0: 029d 217f dc9e 5977 4528 6f77 79bb 81d2
000000c0: 9354 b18d c83a f051 29e7 02d4 c0c1 8ffb
000000d0: 95fb 0a81 5734 ebe4 7a7f fa55 8efd b874
000000e0: 0b81 81e7 8162 26f6 0b15 4234 9981 2dfb
000000f0: 818e 1248 27b2 d403 5f7c 4c9d ce59 4f87

tfl.pseudo_qconst15 i1 [1, 3, 3, 30]
99 -85 118 127 112 -32 -40 -80
126 49 -111 71 -40 115 107 5
-48 102 -1 22 -66 22 -22 -86
40 117 3 -47 -82 -60 127 -97
127 54 53 127 -104 -113 127 74
-72 -36 64 46 31 -59 -36 77
-16 127 -59 -93 127 -48 50 93
-17 104 -81 19 126 -34 87 -41
92 65 79 -31 103 127 24 -17
-41 73 85 5 -79 -20 -106 -11
-44 68 -86 -100 119 75 119 127
24 96 12 -127 -22 8 117 72
-100 -117 -48 -7 19 -11 7 127
112 67 -64 127 -86 -30 -120 -65
-42 127 -30 101 46 -71 19 -33
57 -65 -23 83 -20 -25 -41 49
68 16 -22 -29 127 11 -15 10
40 102 -117 58 46 4 63 -63
82 127 56 69 -72 17 118 -31
59 -3 127 -37 106 -127 35 -35
-127 -57 -12 58 48 -45 0 116
-24 108 -96 -22 -17 -65 127 16
111 59 112 123 -61 -92 52 54
83 63 -107 66 91 -80 -23 -127
-14 84 127 83 -59 -40 -94 -4
-83 -14 83 29 48 2 38 58
127 11 -6 -105 75 64 19 109
-24 -104 66 39 -59 -24 125 42
21 127 127 30 24 112 -127 -58
-101 66 50 -16 22 36 71 127
31 -22 -24 40 109 123 -127 -94
86 24 25 -93 -8 -23 118 41
00000000: 63ab 767f 70e0 d8b0 7e31 9147 d873 6b05
00000010: d066 ff16 be16 eaaa 2875 03d1 aec4 7f9f
00000020: 7f36 357f 988f 7f4a b8dc 402e 1fc5 dc4d
00000030: f07f c5a3 7fd0 325d ef68 af13 7ede 57d7
00000040: 5c41 4fe1 677f 18ef d749 5505 b1ec 96f5
00000050: d444 aa9c 774b 777f 1860 0c81 ea08 7548
00000060: 9c8b d0f9 13f5 077f 7043 c07f aae2 88bf
00000070: d67f e265 2eb9 13df 39bf e953 ece7 d731
00000080: 4410 eae3 7f0b f10a 2866 8b3a 2e04 3fc1
00000090: 527f 3845 b811 76e1 3bfd 7fdb 6a81 23dd
000000a0: 81c7 f43a 30d3 0074 e86c a0ea efbf 7f10
000000b0: 6f3b 707b c3a4 3436 533f 9542 5bb0 e981
000000c0: f254 7f53 c5d8 a2fc adf2 531d 3002 263a
000000d0: 7f0b fa97 4b40 136d e898 4227 c5e8 7d2a
000000e0: 157f 7f1e 1870 81c6 9b42 32f0 1624 477f
000000f0: 1fea e828 6d7b 81a2 5618 19a3 f8e9 7629

tfl.pseudo_qconst17 i1 [1, 3, 3, 30]
-63 92 127 -102 -93 -62 -24 20
-7 10 -22 123 -95 -55 1 75
-43 -51 69 -35 6 -105 26 -23
88 38 -60 38 16 -45 5 127
100 -95 26 69 -68 -119 -70 120
-39 -19 -67 76 88 -50 15 -26
34 60 -77 127 -53 -80 18 90
124 89 13 -17 127 106 -20 -43
-77 -58 63 1 69 -17 -57 -63
51 -26 13 127 127 29 64 127
-61 -45 23 88 119 53 4 -79
127 -6 11 -26 88 -99 127 -41
-121 -86 123 92 4 36 -70 -48
-34 -46 -70 91 48 40 -127 -42
-57 81 83 39 -11 -37 114 75
67 94 -31 -127 66 -4 -105 -90
125 77 60 6 13 127 -35 110
-26 -58 127 100 -70 -60 79 95
127 35 -4 17 86 127 -28 107
117 -112 -26 88 122 -127 10 90
-107 -74 28 90 -97 102 57 77
-61 98 -47 38 -127 -73 61 11
-42 26 90 125 -17 -40 74 -97
80 127 24 -71 127 62 9 -44
25 44 -127 -65 -71 127 -42 81
-110 28 -102 -17 51 59 -46 -114
106 42 -1 67 56 81 -13 89
-127 -111 110 127 -127 -127 127 62
41 11 38 -10 118 -17 6 110
76 -127 93 127 127 -127 -38 125
-44 36 70 -63 -116 64 75 -56
87 38 19 -84 13 55 43 109
00000000: c15c 7f9a a3c2 e814 f90a ea7b a1c9 014b
00000010: d5cd 45dd 0697 1ae9 5826 c426 10d3 057f
00000020: 64a1 1a45 bc89 ba78 d9ed bd4c 58ce 0fe6
00000030: 223c b37f cbb0 125a 7c59 0def 7f6a ecd5
00000040: b3c6 3f01 45ef c7c1 33e6 0d7f 7f1d 407f
00000050: c3d3 1758 7735 04b1 7ffa 0be6 589d 7fd7
00000060: 87aa 7b5c 0424 bad0 ded2 ba5b 3028 81d6
00000070: c751 5327 f5db 724b 435e e181 42fc 97a6
00000080: 7d4d 3c06 0d7f dd6e e6c6 7f64 bac4 4f5f
00000090: 7f23 fc11 567f e46b 7590 e658 7a81 0a5a
000000a0: 95b6 1c5a 9f66 394d c362 d126 81b7 3d0b
000000b0: d61a 5a7d efd8 4a9f 507f 18b9 7f3e 09d4
000000c0: 192c 81bf b97f d651 921c 9aef 333b d28e
000000d0: 6a2a ff43 3851 f359 8191 6e7f 8181 7f3e
000000e0: 290b 26f6 76ef 066e 4c81 5d7f 7f81 da7d
000000f0: d424 46c1 8c40 4bc8 5726 13ac 0d37 2b6d

tfl.pseudo_qconst19 i1 [30, 3, 3, 3]
-59 -69 10 -106 -111 81 -29 -72
126 50 10 -71 58 109 64 -65
-2 -14 45 -55 -32 102 49 -88
-97 127 57 -19 79 -73 -6 60
37 -24 55 114 31 81 78 20
-25 40 15 127 100 84 46 112
112 41 2 -3 33 47 -106 -75
-125 0 89 76 43 114 90 2
127 -76 -31 -104 -19 2 71 42
57 -35 30 -8 -19 54 -84 -76
-94 -102 -7 96 -19 24 -7 -21
-56 23 -86 -65 107 37 103 -103
58 -123 10 -123 78 -7 60 127
40 117 -67 45 42 26 49 26
-38 -6 60 31 97 105 80 74
-20 41 63 127 21 2 11 61
52 35 -45 101 86 73 58 66
12 -49 125 -36 56 -18 -19 11
117 8 -19 36 20 -74 -51 52
-50 127 -81 87 16 14 99 37
98 -80 127 68 -3 102 -52 84
-64 7 78 110 106 53 104 61
-8 35 -80 -106 52 120 95 63
48 -15 12 -2 15 -13 -58 -3
-3 46 37 7 -68 -120 -56 118
17 119 117 97 -85 -65 86 14
-47 48 49 33 -34 -127 -81 -116
114 66 -93 -32 83 125 110 -16
127 68 111 97 110 -69 -29 72
-58 85 -54 -25 -85 124 -73 2
12 49 122 -127 -32 -87 -59 -42
-21 -60 -7 17 -76 52 -22 -81
00000000: c5bb 0a96 9151 e3b8 7e32 0ab9 3a6d 40bf
00000010: fef2 2dc9 e066 31a8 9f7f 39ed 4fb7 fa3c
00000020: 25e8 3772 1f51 4e14 e728 0f7f 6454 2e70
00000030: 7029 02fd 212f 96b5 8300 594c 2b72 5a02
00000040: 7fb4 e198 ed02 472a 39dd 1ef8 ed36 acb4
00000050: a29a f960 ed18 f9eb c817 aabf 6b25 6799
00000060: 3a85 0a85 4ef9 3c7f 2875 bd2d 2a1a 311a
00000070: dafa 3c1f 6169 504a ec29 3f7f 1502 0b3d
00000080: 3423 d365 5649 3a42 0ccf 7ddc 38ee ed0b
00000090: 7508 ed24 14b6 cd34 ce7f af57 100e 6325
000000a0: 62b0 7f44 fd66 cc54 c007 4e6e 6a35 683d
000000b0: f823 b096 3478 5f3f 30f1 0cfe 0ff3 c6fd
000000c0: fd2e 2507 bc88 c876 1177 7561 abbf 560e
000000d0: d130 3121 de81 af8c 7242 a3e0 537d 6ef0
000000e0: 7f44 6f61 6ebb e348 c655 cae7 ab7c b702
000000f0: 0c31 7a81 e0a9 c5d6 ebc4 f911 b434 eaaf
