skin-lesion-models/detection/LBCNN_LI8ac92.77_tfsz_7.0_FSH_ 7.83_RAM_24.06.tflite (tflite, 7832 bytes, 4 tensors)

tfl.pseudo_qconst1 i1 [2, 864]
43 8 22 -28 19 40 116 107
-37 -127 42 64 -21 10 -11 1
45 -14 -25 -13 -14 -57 -33 -30
-12 5 26 -47 11 22 58 79
35 -16 6 13 -7 38 -37 -22
22 -27 -21 -7 30 -1 53 -105
-18 17 13 -37 -37 47 49 55
86 14 12 11 -11 36 -41 3
-4 -1 0 1 -7 -17 59 -80
-24 32 -4 -33 -78 37 -1 19
45 6 16 6 -15 48 -35 11
2 31 -12 -2 6 -6 38 -44
-22 13 20 -16 -54 25 4 32
-23 -10 2 -2 -55 32 -39 33
-7 14 -33 -26 5 -36 -4 48
14 2 -35 82 -17 38 13 32
-32 4 -24 0 -63 34 -29 46
1 -28 -42 -39 -31 -54 -28 98
-91 8 16 -51 -20 6 71 64
-57 -105 43 39 -14 2 9 58
25 -29 -58 -47 -38 -32 -70 52
-52 12 33 -31 2 5 -7 -33
-31 -19 -6 -1 5 6 29 16
12 -35 -50 -40 66 1 47 -67
-52 13 27 -32 31 38 -33 -13
-4 -1 -4 2 1 3 -2 -32
-4 -24 15 14 24 10 48 -60
-47 12 9 -34 -1 39 -73 -20
-24 -16 9 2 -7 31 -32 10
-7 -16 24 -4 -47 -21 15 -19
-33 2 8 -27 -28 22 9 2
-28 -20 -1 -13 -43 22 -23 -5
00000000: 2b08 16e4 1328 746b db81 2a40 eb0a f501
00000010: 2df2 e7f3 f2c7 dfe2 f405 1ad1 0b16 3a4f
00000020: 23f0 060d f926 dbea 16e5 ebf9 1eff 3597
00000030: ee11 0ddb db2f 3137 560e 0c0b f524 d703
00000040: fcff 0001 f9ef 3bb0 e820 fcdf b225 ff13
00000050: 2d06 1006 f130 dd0b 021f f4fe 06fa 26d4
00000060: ea0d 14f0 ca19 0420 e9f6 02fe c920 d921
00000070: f90e dfe6 05dc fc30 0e02 dd52 ef26 0d20
00000080: e004 e800 c122 e32e 01e4 d6d9 e1ca e462
00000090: a508 10cd ec06 4740 c797 2b27 f202 093a
000000a0: 19e3 c6d1 dae0 ba34 cc0c 21e1 0205 f9df
000000b0: e1ed faff 0506 1d10 0cdd ced8 4201 2fbd
000000c0: cc0d 1be0 1f26 dff3 fcff fc02 0103 fee0
000000d0: fce8 0f0e 180a 30c4 d10c 09de ff27 b7ec
000000e0: e8f0 0902 f91f e00a f9f0 18fc d1eb 0fed
000000f0: df02 08e5 e416 0902 e4ec fff3 d516 e9fb

tfl.pseudo_qconst3 i1 [1, 3, 3, 24]
-127 127 -127 127 -127 127 127 -127
127 -127 127 127 127 127 127 127
-127 127 127 127 -127 -127 -127 -127
-127 127 127 127 127 127 -127 127
-127 127 -127 -127 -127 -127 -127 -127
-127 -127 127 -127 127 127 127 -127
-127 -127 127 -127 -127 -127 127 127
-127 127 127 -127 -127 127 127 127
127 -127 -127 -127 -127 -127 -127 -127
-127 127 127 -127 -127 127 127 -127
-127 127 -127 -127 -127 -127 -127 127
-127 -127 127 127 -127 -127 -127 -127
127 127 -127 127 -127 -127 127 127
127 -127 -127 127 -127 127 -127 127
-127 -127 127 127 127 -127 127 127
-127 127 -127 -127 -127 -127 -127 127
127 -127 -127 -127 -127 127 -127 -127
-127 -127 127 127 -127 -127 -127 -127
-127 127 -127 -127 127 -127 127 127
-127 -127 -127 -127 127 -127 -127 -127
127 127 -127 -127 -127 -127 -127 127
127 -127 127 -127 -127 -127 127 -127
-127 -127 127 -127 127 127 -127 -127
-127 127 -127 -127 127 127 -127 127
-127 127 127 -127 -127 -127 127 127
127 127 -127 -127 -127 -127 127 127
-127 127 -127 127 -127 127 127 127
00000000: 817f 817f 817f 7f81 7f81 7f7f 7f7f 7f7f
00000010: 817f 7f7f 8181 8181 817f 7f7f 7f7f 817f
00000020: 817f 8181 8181 8181 8181 7f81 7f7f 7f81
00000030: 8181 7f81 8181 7f7f 817f 7f81 817f 7f7f
00000040: 7f81 8181 8181 8181 817f 7f81 817f 7f81
00000050: 817f 8181 8181 817f 8181 7f7f 8181 8181
00000060: 7f7f 817f 8181 7f7f 7f81 817f 817f 817f
00000070: 8181 7f7f 7f81 7f7f 817f 8181 8181 817f
00000080: 7f81 8181 817f 8181 8181 7f7f 8181 8181
00000090: 817f 8181 7f81 7f7f 8181 8181 7f81 8181
000000a0: 7f7f 8181 8181 817f 7f81 7f81 8181 7f81
000000b0: 8181 7f81 7f7f 8181 817f 8181 7f7f 817f
000000c0: 817f 7f81 8181 7f7f 7f7f 8181 8181 7f7f
000000d0: 817f 817f 817f 7f7f

tfl.pseudo_qconst5 i1 [1, 3, 3, 12]
127 -127 127 127 127 127 127 -127
-127 127 -127 127 -127 -127 127 -127
-127 127 127 127 127 127 -127 -127
127 -127 127 127 127 127 -127 127
127 -127 127 127 -127 127 -127 -127
-127 -127 127 127 -127 -127 -127 -127
127 -127 -127 -127 -127 -127 127 127
-127 -127 127 127 -127 -127 -127 127
127 -127 127 -127 -127 127 127 -127
127 127 127 -127 127 127 -127 -127
-127 -127 127 127 -127 -127 127 127
127 127 127 -127 127 127 127 127
-127 -127 -127 127 127 -127 127 -127
127 127 -127 127
00000000: 7f81 7f7f 7f7f 7f81 817f 817f 8181 7f81
00000010: 817f 7f7f 7f7f 8181 7f81 7f7f 7f7f 817f
00000020: 7f81 7f7f 817f 8181 8181 7f7f 8181 8181
00000030: 7f81 8181 8181 7f7f 8181 7f7f 8181 817f
00000040: 7f81 7f81 817f 7f81 7f7f 7f81 7f7f 8181
00000050: 8181 7f7f 8181 7f7f 7f7f 7f81 7f7f 7f7f
00000060: 8181 817f 7f81 7f81 7f7f 817f

tfl.pseudo_qconst7 i1 [1, 3, 3, 6]
127 -127 -127 127 127 -127 127 127
127 -127 127 127 -127 -127 127 127
-127 -127 -127 -127 -127 -127 -127 -127
127 127 127 127 -127 127 -127 -127
127 127 127 -127 127 127 127 127
127 -127 -127 127 127 -127 127 127
-127 -127 -127 -127 127 127
00000000: 7f81 817f 7f81 7f7f 7f81 7f7f 8181 7f7f
00000010: 8181 8181 8181 8181 7f7f 7f7f 817f 8181
00000020: 7f7f 7f81 7f7f 7f7f 7f81 817f 7f81 7f7f
00000030: 8181 8181 7f7f
