skin-lesion-models/detection/VRES_Nr0_d_0.6_[40, 120, 60, 40]_[2, 1, 1, 0]_[]LI8ac95.11_tfsz_94.0_lat_3.502_FSH_ 94.92_RAM_294.91.tflite (tflite, 94928 bytes, 21 tensors)

tfl.pseudo_qconst1 i1 [2, 40]
0	0x27	39
1	0xb5	-75
2	0x1a	26
3	0x22	34
4	0xd5	-43
5	0xe6	-26
6	0x17	23
7	0x87	-121
8	0x8b	-117
9	0xec	-20
10	0x8c	-116
11	0xd2	-46
12	0x3c	60
13	0xd6	-42
14	0xe2	-30
15	0x61	97
16	0x0f	15
17	0xad	-83
18	0xf9	-7
19	0x12	18
20	0x46	70
21	0xf3	-13
22	0x3e	62
23	0x2a	42
24	0x06	6
25	0xdc	-36
26	0x7f	127
27	0x17	23
28	0x2f	47
29	0xff	-1
30	0xc2	-62
31	0x32	50
32	0xe7	-25
33	0xf6	-10
34	0xfb	-5
35	0x45	69
36	0xee	-18
37	0x31	49
38	0xd2	-46
39	0x49	73
40	0x4d	77
41	0x41	65
42	0xc1	-63
43	0xca	-54
44	0x54	84
45	0x60	96
46	0xd3	-45
47	0xf3	-13
48	0x1b	27
49	0xc3	-61
50	0x23	35
51	0x28	40
52	0xe2	-30
53	0x2c	44
54	0x3f	63
55	0x12	18
56	0xd3	-45
57	0x08	8
58	0xa8	-88
59	0x7f	127
60	0x12	18
61	0x3c	60
62	0x0b	11
63	0x63	99
64	0x6a	106
65	0x42	66
66	0x32	50
67	0xdc	-36
68	0xe0	-32
69	0x33	51
70	0x78	120
71	0xbc	-68
72	0x1f	31
73	0xc3	-61
74	0xb5	-75
75	0x24	36
76	0x71	113
77	0x63	99
78	0x16	22
79	0xcb	-53

tfl.pseudo_qconst3 i1 [1, 3, 3, 40]
0	0xc3	-61
1	0x36	54
2	0x1f	31
3	0x18	24
4	0x27	39
5	0x81	-127
6	0xdf	-33
7	0x5d	93
8	0x2b	43
9	0x63	99
10	0xf3	-13
11	0x0c	12
12	0xfb	-5
13	0x04	4
14	0xbe	-66
15	0x04	4
16	0xf7	-9
17	0xbc	-68
18	0xfe	-2
19	0xfa	-6
20	0x23	35
21	0x7f	127
22	0xf1	-15
23	0xf3	-13
24	0x16	22
25	0x15	21
26	0xed	-19
27	0xdc	-36
28	0xce	-50
29	0x52	82
30	0x17	23
31	0xf1	-15
32	0x40	64
33	0x23	35
34	0x11	17
35	0x14	20
36	0xdd	-35
37	0xdb	-37
38	0xda	-38
39	0x03	3
40	0xa0	-96
41	0x7f	127
42	0x33	51
43	0xee	-18
44	0xfd	-3
45	0xbd	-67
46	0xd7	-41
47	0x7f	127
48	0xb8	-72
49	0x44	68
50	0x0d	13
51	0xf1	-15
52	0x19	25
53	0xd8	-40
54	0x81	-127
55	0xcd	-51
56	0xd9	-39
57	0x0a	10
58	0xef	-17
59	0xe7	-25
60	0xe8	-24
61	0x2f	47
62	0xe5	-27
63	0xeb	-21
64	0x15	21
65	0x4e	78
66	0xec	-20
67	0xf2	-14
68	0xc4	-60
69	0x7f	127
70	0xf6	-10
71	0xf9	-7
72	0xf2	-14
73	0x28	40
74	0xd6	-42
75	0x7f	127
76	0x2a	42
77	0x18	24
78	0x07	7
79	0x0d	13
80	0x81	-127
81	0x33	51
82	0x0a	10
83	0xd2	-46
84	0xf7	-9
85	0xae	-82
86	0xe9	-23
87	0x3b	59
88	0xad	-83
89	0x7f	127
90	0xf8	-8
91	0xd7	-41
92	0x07	7
93	0x0d	13
94	0xaa	-86
95	0xf3	-13
96	0x26	38
97	0x09	9
98	0x1a	26
99	0x0c	12
100	0xff	-1
101	0xd8	-40
102	0x1a	26
103	0x16	22
104	0x18	24
105	0x18	24
106	0xf9	-7
107	0xeb	-21
108	0x08	8
109	0x37	55
110	0x26	38
111	0x08	8
112	0xd1	-47
113	0x3e	62
114	0xeb	-21
115	0x0a	10
116	0xf7	-9
117	0x3e	62
118	0x16	22
119	0xe9	-23
120	0xbe	-66
121	0xfd	-3
122	0x04	4
123	0x09	9
124	0x1b	27
125	0xb1	-79
126	0xb2	-78
127	0xfa	-6
128	0x57	87
129	0x02	2
130	0x2a	42
131	0x42	66
132	0xd4	-44
133	0xa6	-90
134	0xfd	-3
135	0xa1	-95
136	0x98	-104
137	0x6a	106
138	0x1c	28
139	0xc9	-55
140	0x6e	110
141	0x57	87
142	0xb1	-79
143	0x81	-127
144	0x02	2
145	0x18	24
146	0x4a	74
147	0xca	-54
148	0x81	-127
149	0x11	17
150	0x9d	-99
151	0x61	97
152	0xce	-50
153	0x70	112
154	0xb6	-74
155	0x75	117
156	0x24	36
157	0xad	-83
158	0x81	-127
159	0x43	67
160	0xab	-85
161	0x22	34
162	0xfa	-6
163	0xaa	-86
164	0x7f	127
165	0xb3	-77
166	0xa8	-88
167	0x48	72
168	0x12	18
169	0xad	-83
170	0x7f	127
171	0x7f	127
172	0x81	-127
173	0xa0	-96
174	0xe0	-32
175	0x81	-127
176	0x81	-127
177	0x7f	127
178	0xfb	-5
179	0x81	-127
180	0x7f	127
181	0x29	41
182	0x93	-109
183	0xb4	-76
184	0x81	-127
185	0x7f	127
186	0x7f	127
187	0x9e	-98
188	0xa5	-91
189	0x41	65
190	0x81	-127
191	0x57	87
192	0x01	1
193	0x35	53
194	0x81	-127
195	0x56	86
196	0x7f	127
197	0x8c	-116
198	0xab	-85
199	0x7f	127
200	0xe6	-26
201	0x26	38
202	0xd3	-45
203	0xed	-19
204	0x59	89
205	0xa7	-89
206	0x81	-127
207	0x3c	60
208	0x02	2
209	0x33	51
210	0x40	64
211	0x15	21
212	0x91	-111
213	0xee	-18
214	0xcc	-52
215	0xb1	-79
216	0xa7	-89
217	0x35	53
218	0x0c	12
219	0xb2	-78
220	0x33	51
221	0xf0	-16
222	0x81	-127
223	0xf3	-13
224	0xb1	-79
225	0x60	96
226	0x51	81
227	0x81	-127
228	0xc9	-55
229	0x29	41
230	0xcc	-52
231	0x7f	127
232	0x35	53
233	0x7f	127
234	0x9e	-98
235	0x6b	107
236	0x54	84
237	0x03	3
238	0xfa	-6
239	0x57	87
240	0x8b	-117
241	0xd2	-46
242	0x99	-103
243	0xd8	-40
244	0xe0	-32
245	0x4b	75
246	0x29	41
247	0x91	-111
248	0x7f	127
249	0xa4	-92
250	0x09	9
251	0x18	24
252	0x0f	15
253	0x96	-106
254	0x49	73
255	0xf5	-11

tfl.pseudo_qconst5 i1 [40, 1, 1, 60]
0	0xf7	-9
1	0xb2	-78
2	0x0f	15
3	0x3f	63
4	0x0d	13
5	0x3e	62
6	0x66	102
7	0x68	104
8	0xb1	-79
9	0x3a	58
10	0x17	23
11	0x57	87
12	0xfa	-6
13	0x62	98
14	0xe1	-31
15	0x6a	106
16	0x0f	15
17	0xdb	-37
18	0xe5	-27
19	0xf7	-9
20	0x9c	-100
21	0x2b	43
22	0xfa	-6
23	0xfa	-6
24	0x20	32
25	0x2b	43
26	0xe8	-24
27	0xbb	-69
28	0xeb	-21
29	0xd0	-48
30	0xea	-22
31	0xe1	-31
32	0xd9	-39
33	0x26	38
34	0x02	2
35	0xfd	-3
36	0x12	18
37	0x7f	127
38	0x0d	13
39	0xdd	-35
40	0x18	24
41	0xf9	-7
42	0x2f	47
43	0x2d	45
44	0x5f	95
45	0xcc	-52
46	0xe4	-28
47	0x23	35
48	0x2d	45
49	0x05	5
50	0x0a	10
51	0x07	7
52	0x20	32
53	0x07	7
54	0xb3	-77
55	0x0b	11
56	0xf1	-15
57	0xe9	-23
58	0xc5	-59
59	0xa7	-89
60	0x81	-127
61	0xa7	-89
62	0x13	19
63	0x60	96
64	0xed	-19
65	0x53	83
66	0x40	64
67	0x05	5
68	0x91	-111
69	0xf8	-8
70	0x41	65
71	0x33	51
72	0x1b	27
73	0x47	71
74	0xd2	-46
75	0xfa	-6
76	0x15	21
77	0xc6	-58
78	0x09	9
79	0xfd	-3
80	0xdf	-33
81	0x5a	90
82	0xea	-22
83	0xd5	-43
84	0xf8	-8
85	0xe6	-26
86	0x14	20
87	0xe9	-23
88	0x46	70
89	0xd0	-48
90	0xea	-22
91	0x21	33
92	0xd5	-43
93	0x1a	26
94	0xd3	-45
95	0xec	-20
96	0x39	57
97	0x55	85
98	0x2b	43
99	0xf0	-16
100	0xf8	-8
101	0x1b	27
102	0x3f	63
103	0x31	49
104	0x5d	93
105	0xe3	-29
106	0xd9	-39
107	0x44	68
108	0x3f	63
109	0x5d	93
110	0xa0	-96
111	0x3a	58
112	0x10	16
113	0x0c	12
114	0xf5	-11
115	0x1e	30
116	0x31	49
117	0x00	0
118	0xe2	-30
119	0xdd	-35
120	0x20	32
121	0x2d	45
122	0xee	-18
123	0x08	8
124	0x40	64
125	0xf5	-11
126	0xa9	-87
127	0xd3	-45
128	0x2a	42
129	0x04	4
130	0xbe	-66
131	0x24	36
132	0x17	23
133	0xc0	-64
134	0xd2	-46
135	0x21	33
136	0xab	-85
137	0x23	35
138	0x0b	11
139	0xff	-1
140	0x53	83
141	0xfb	-5
142	0x18	24
143	0x18	24
144	0x02	2
145	0x3d	61
146	0xd5	-43
147	0xfb	-5
148	0x0c	12
149	0xe0	-32
150	0x31	49
151	0x3b	59
152	0x37	55
153	0x24	36
154	0x2d	45
155	0x32	50
156	0xa0	-96
157	0x26	38
158	0x0c	12
159	0x1c	28
160	0x3e	62
161	0x38	56
162	0xad	-83
163	0xdc	-36
164	0xe9	-23
165	0x81	-127
166	0xd5	-43
167	0x48	72
168	0x06	6
169	0xd9	-39
170	0x2e	46
171	0xde	-34
172	0x1d	29
173	0x23	35
174	0x06	6
175	0x14	20
176	0x2e	46
177	0x23	35
178	0xe5	-27
179	0xe7	-25
180	0x4e	78
181	0x1c	28
182	0x37	55
183	0x30	48
184	0x3b	59
185	0xe9	-23
186	0x20	32
187	0x06	6
188	0x65	101
189	0xc4	-60
190	0x43	67
191	0x58	88
192	0xdb	-37
193	0xf8	-8
194	0xe3	-29
195	0xc4	-60
196	0x81	-127
197	0x40	64
198	0x89	-119
199	0x09	9
200	0x18	24
201	0x34	52
202	0x36	54
203	0xa5	-91
204	0x14	20
205	0xe7	-25
206	0x06	6
207	0x0f	15
208	0xcc	-52
209	0x55	85
210	0xfc	-4
211	0x6c	108
212	0xd1	-47
213	0x41	65
214	0xe1	-31
215	0x64	100
216	0xfb	-5
217	0xd7	-41
218	0xc5	-59
219	0xd7	-41
220	0x61	97
221	0x73	115
222	0x87	-121
223	0x0e	14
224	0x03	3
225	0x84	-124
226	0x64	100
227	0x5f	95
228	0xc8	-56
229	0x92	-110
230	0xcc	-52
231	0x4c	76
232	0x59	89
233	0x24	36
234	0x39	57
235	0xed	-19
236	0x1c	28
237	0x36	54
238	0x13	19
239	0xff	-1
240	0xe6	-26
241	0xd6	-42
242	0x10	16
243	0x3b	59
244	0xdc	-36
245	0x77	119
246	0x37	55
247	0x3d	61
248	0xab	-85
249	0x2d	45
250	0x59	89
251	0x30	48
252	0xc8	-56
253	0x46	70
254	0xdb	-37
255	0x55	85

tfl.pseudo_qconst7 i1 [1, 3, 3, 60]
0	0xdc	-36
1	0x81	-127
2	0x19	25
3	0xdf	-33
4	0x18	24
5	0x7f	127
6	0x31	49
7	0x7f	127
8	0x85	-123
9	0x7e	126
10	0x4a	74
11	0xdc	-36
12	0x1b	27
13	0x7f	127
14	0x7f	127
15	0xec	-20
16	0xe8	-24
17	0xbf	-65
18	0x09	9
19	0x81	-127
20	0xdc	-36
21	0x7f	127
22	0x7f	127
23	0x7f	127
24	0x7f	127
25	0xcb	-53
26	0xf5	-11
27	0x90	-112
28	0x64	100
29	0x81	-127
30	0x81	-127
31	0xba	-70
32	0x08	8
33	0x66	102
34	0x81	-127
35	0x44	68
36	0x35	53
37	0xc7	-57
38	0xa7	-89
39	0x81	-127
40	0x61	97
41	0x7f	127
42	0x33	51
43	0x2d	45
44	0x7f	127
45	0x06	6
46	0x9f	-97
47	0x7f	127
48	0x42	66
49	0xe3	-29
50	0xde	-34
51	0xfc	-4
52	0xce	-50
53	0x7f	127
54	0x00	0
55	0x7f	127
56	0x7f	127
57	0x3f	63
58	0xb7	-73
59	0x88	-120
60	0xc4	-60
61	0xc0	-64
62	0xf6	-10
63	0xb6	-74
64	0x76	118
65	0x38	56
66	0x28	40
67	0x4b	75
68	0xc2	-62
69	0x14	20
70	0x2a	42
71	0xae	-82
72	0xda	-38
73	0x45	69
74	0x3e	62
75	0x46	70
76	0x17	23
77	0x25	37
78	0x22	34
79	0xb4	-76
80	0xf8	-8
81	0x27	39
82	0xcd	-51
83	0x02	2
84	0x3e	62
85	0xd4	-44
86	0x07	7
87	0x08	8
88	0xd2	-46
89	0x8c	-116
90	0xbb	-69
91	0xcb	-53
92	0xe9	-23
93	0x2b	43
94	0xb0	-80
95	0x26	38
96	0x5e	94
97	0xcc	-52
98	0xd2	-46
99	0xcd	-51
100	0x35	53
101	0x37	55
102	0x2f	47
103	0x0e	14
104	0x23	35
105	0xef	-17
106	0xd2	-46
107	0x3d	61
108	0x58	88
109	0x03	3
110	0x38	56
111	0xe6	-26
112	0xcd	-51
113	0x73	115
114	0x0b	11
115	0xf5	-11
116	0x46	70
117	0x1c	28
118	0xe7	-25
119	0x2b	43
120	0x8a	-118
121	0xdb	-37
122	0x08	8
123	0xf1	-15
124	0x81	-127
125	0x21	33
126	0x43	67
127	0x1c	28
128	0xed	-19
129	0x42	66
130	0x7f	127
131	0x81	-127
132	0x45	69
133	0x77	119
134	0x4a	74
135	0x26	38
136	0x21	33
137	0x5b	91
138	0xce	-50
139	0xe6	-26
140	0x99	-103
141	0xf7	-9
142	0xa0	-96
143	0x58	88
144	0x15	21
145	0xe3	-29
146	0xdc	-36
147	0x81	-127
148	0x07	7
149	0xe9	-23
150	0xe5	-27
151	0xc3	-61
152	0xc4	-60
153	0xff	-1
154	0xfc	-4
155	0x81	-127
156	0x7f	127
157	0x81	-127
158	0x81	-127
159	0x0d	13
160	0x88	-120
161	0x4f	79
162	0x29	41
163	0x8f	-113
164	0xc4	-60
165	0x3f	63
166	0x02	2
167	0xec	-20
168	0xeb	-21
169	0x4d	77
170	0x7f	127
171	0x98	-104
172	0x81	-127
173	0x47	71
174	0x1e	30
175	0xf3	-13
176	0xc7	-57
177	0x7f	127
178	0x1f	31
179	0xc0	-64
180	0xba	-70
181	0xdc	-36
182	0x13	19
183	0xf4	-12
184	0xe0	-32
185	0x54	84
186	0x29	41
187	0x6c	108
188	0x8a	-118
189	0x7f	127
190	0xfc	-4
191	0x43	67
192	0x5c	92
193	0x1e	30
194	0x13	19
195	0x46	70
196	0x21	33
197	0xc8	-56
198	0x1c	28
199	0xa1	-95
200	0x15	21
201	0x58	88
202	0x46	70
203	0x20	32
204	0x47	71
205	0x8e	-114
206	0x13	19
207	0x31	49
208	0x44	68
209	0xbe	-66
210	0xc0	-64
211	0xa5	-91
212	0x8f	-113
213	0x5a	90
214	0xbe	-66
215	0x34	52
216	0xff	-1
217	0xc8	-56
218	0xe5	-27
219	0x95	-107
220	0x65	101
221	0x20	32
222	0x22	34
223	0x4c	76
224	0x5d	93
225	0x30	48
226	0x81	-127
227	0x32	50
228	0x7f	127
229	0x42	66
230	0xa2	-94
231	0xfb	-5
232	0x28	40
233	0x42	66
234	0x09	9
235	0x5e	94
236	0x32	50
237	0x55	85
238	0xc2	-62
239	0xa8	-88
240	0xbb	-69
241	0xe3	-29
242	0xd7	-41
243	0xc3	-61
244	0x2f	47
245	0x11	17
246	0x13	19
247	0x4f	79
248	0x88	-120
249	0xf7	-9
250	0xf4	-12
251	0x35	53
252	0x8f	-113
253	0x26	38
254	0x02	2
255	0x7f	127

tfl.pseudo_qconst9 i1 [60, 1, 1, 60]
0	0x4e	78
1	0xdd	-35
2	0x64	100
3	0x3d	61
4	0xdb	-37
5	0x95	-107
6	0xe1	-31
7	0xb9	-71
8	0x1a	26
9	0x27	39
10	0xbf	-65
11	0x46	70
12	0x12	18
13	0xda	-38
14	0x0d	13
15	0x07	7
16	0x62	98
17	0xda	-38
18	0x20	32
19	0x04	4
20	0xe7	-25
21	0xab	-85
22	0xa7	-89
23	0x68	104
24	0x21	33
25	0x95	-107
26	0xe5	-27
27	0xf8	-8
28	0x16	22
29	0x81	-127
30	0x3c	60
31	0xb3	-77
32	0xc4	-60
33	0xff	-1
34	0xf7	-9
35	0xd2	-46
36	0xd7	-41
37	0xad	-83
38	0x5d	93
39	0x35	53
40	0xe6	-26
41	0x32	50
42	0xf5	-11
43	0xda	-38
44	0xb9	-71
45	0x3c	60
46	0x59	89
47	0x10	16
48	0x1f	31
49	0xdc	-36
50	0x21	33
51	0xcc	-52
52	0xcc	-52
53	0x24	36
54	0x0f	15
55	0xf2	-14
56	0xfc	-4
57	0x49	73
58	0x09	9
59	0xe0	-32
60	0x44	68
61	0xe3	-29
62	0xdd	-35
63	0xf9	-7
64	0x39	57
65	0x81	-127
66	0x16	22
67	0x79	121
68	0x24	36
69	0x0a	10
70	0x00	0
71	0x46	70
72	0xe1	-31
73	0xd8	-40
74	0xca	-54
75	0xd2	-46
76	0xd1	-47
77	0x67	103
78	0x17	23
79	0xfd	-3
80	0xfd	-3
81	0x0d	13
82	0x0a	10
83	0x0d	13
84	0x18	24
85	0xd2	-46
86	0x14	20
87	0xdc	-36
88	0x0e	14
89	0xc1	-63
90	0x0d	13
91	0xdc	-36
92	0xa2	-94
93	0x23	35
94	0x00	0
95	0x35	53
96	0xe6	-26
97	0x25	37
98	0xe6	-26
99	0x57	87
100	0xbc	-68
101	0x0d	13
102	0x44	68
103	0x38	56
104	0x27	39
105	0xe0	-32
106	0x50	80
107	0xe6	-26
108	0xdd	-35
109	0xcb	-53
110	0xf5	-11
111	0xe4	-28
112	0xf0	-16
113	0xf4	-12
114	0xfa	-6
115	0xfe	-2
116	0xfc	-4
117	0x7d	125
118	0x55	85
119	0xcd	-51
120	0xe2	-30
121	0x1b	27
122	0xed	-19
123	0x23	35
124	0x2e	46
125	0x51	81
126	0xbe	-66
127	0xf3	-13
128	0xb9	-71
129	0x13	19
130	0xfe	-2
131	0xfe	-2
132	0xb3	-77
133	0x3d	61
134	0xd9	-39
135	0xe6	-26
136	0xf4	-12
137	0xc8	-56
138	0xd5	-43
139	0x09	9
140	0xa1	-95
141	0x19	25
142	0xf3	-13
143	0xdf	-33
144	0xad	-83
145	0x21	33
146	0x0f	15
147	0xd1	-47
148	0xb8	-72
149	0x31	49
150	0xf7	-9
151	0xb1	-79
152	0xf9	-7
153	0x0f	15
154	0x20	32
155	0x05	5
156	0xf9	-7
157	0xdc	-36
158	0xb2	-78
159	0x09	9
160	0xec	-20
161	0x00	0
162	0x16	22
163	0xef	-17
164	0xf9	-7
165	0x7f	127
166	0x57	87
167	0x2a	42
168	0x2a	42
169	0x1b	27
170	0xb5	-75
171	0xf0	-16
172	0xbf	-65
173	0x4e	78
174	0xd2	-46
175	0xb9	-71
176	0x1d	29
177	0xcc	-52
178	0xcd	-51
179	0xd0	-48
180	0x81	-127
181	0x21	33
182	0x1f	31
183	0x27	39
184	0xc9	-55
185	0xff	-1
186	0x0b	11
187	0x13	19
188	0xa6	-90
189	0xac	-84
190	0xda	-38
191	0x16	22
192	0x08	8
193	0xf9	-7
194	0xcc	-52
195	0x0d	13
196	0xeb	-21
197	0xc3	-61
198	0x12	18
199	0x55	85
200	0xdf	-33
201	0xec	-20
202	0x45	69
203	0xf3	-13
204	0x07	7
205	0x13	19
206	0xec	-20
207	0xe4	-28
208	0xbb	-69
209	0x17	23
210	0x26	38
211	0xf6	-10
212	0x00	0
213	0xe2	-30
214	0xd6	-42
215	0x0b	11
216	0xea	-22
217	0xe2	-30
218	0x0b	11
219	0x1a	26
220	0x0b	11
221	0x28	40
222	0x05	5
223	0x29	41
224	0xd3	-45
225	0x14	20
226	0xd2	-46
227	0xf3	-13
228	0xbc	-68
229	0x62	98
230	0x0b	11
231	0x0d	13
232	0x11	17
233	0x01	1
234	0x0c	12
235	0xfa	-6
236	0xfa	-6
237	0xe8	-24
238	0xa4	-92
239	0x1a	26
240	0x48	72
241	0x34	52
242	0xe1	-31
243	0xe9	-23
244	0x24	36
245	0xc3	-61
246	0x1b	27
247	0xcd	-51
248	0x01	1
249	0x15	21
250	0xb0	-80
251	0xf9	-7
252	0x11	17
253	0x34	52
254	0x14	20
255	0x14	20

tfl.pseudo_qconst11 i1 [1, 3, 3, 60]
0	0x7f	127
1	0xd7	-41
2	0xbf	-65
3	0xd8	-40
4	0xd8	-40
5	0x81	-127
6	0x16	22
7	0x2f	47
8	0x4c	76
9	0x52	82
10	0xdb	-37
11	0xb3	-77
12	0xfd	-3
13	0xbf	-65
14	0x5f	95
15	0xa8	-88
16	0xd9	-39
17	0x56	86
18	0x81	-127
19	0x81	-127
20	0x46	70
21	0x7f	127
22	0xb1	-79
23	0x4a	74
24	0x6d	109
25	0x00	0
26	0x85	-123
27	0x28	40
28	0x73	115
29	0x2c	44
30	0xb1	-79
31	0xfc	-4
32	0xca	-54
33	0x2b	43
34	0x81	-127
35	0x8e	-114
36	0x40	64
37	0x10	16
38	0xf2	-14
39	0x9b	-101
40	0x4b	75
41	0x17	23
42	0x7f	127
43	0xc0	-64
44	0x3e	62
45	0x81	-127
46	0xa2	-94
47	0x58	88
48	0x50	80
49	0x81	-127
50	0x96	-106
51	0x4f	79
52	0x09	9
53	0xb6	-74
54	0xf3	-13
55	0x27	39
56	0x81	-127
57	0x17	23
58	0x7f	127
59	0x7f	127
60	0x62	98
61	0x22	34
62	0xcc	-52
63	0xe2	-30
64	0x33	51
65	0x92	-110
66	0xf3	-13
67	0xd0	-48
68	0x5a	90
69	0xf3	-13
70	0x13	19
71	0x81	-127
72	0xdd	-35
73	0xe1	-31
74	0x7f	127
75	0x3c	60
76	0xdc	-36
77	0xd0	-48
78	0xfb	-5
79	0xa2	-94
80	0x34	52
81	0x5f	95
82	0xbb	-69
83	0x52	82
84	0x11	17
85	0xe6	-26
86	0x34	52
87	0x12	18
88	0x04	4
89	0x2f	47
90	0xca	-54
91	0x6f	111
92	0xa8	-88
93	0xfc	-4
94	0xe0	-32
95	0xb5	-75
96	0x0a	10
97	0x0f	15
98	0x37	55
99	0xba	-70
100	0x3c	60
101	0xfa	-6
102	0xeb	-21
103	0xbb	-69
104	0xbb	-69
105	0xce	-50
106	0xc3	-61
107	0x16	22
108	0x50	80
109	0xad	-83
110	0x05	5
111	0x4e	78
112	0xee	-18
113	0x27	39
114	0x0f	15
115	0xb4	-76
116	0x0c	12
117	0xed	-19
118	0xf4	-12
119	0x29	41
120	0x4e	78
121	0x81	-127
122	0x0c	12
123	0x81	-127
124	0xf8	-8
125	0xb9	-71
126	0xcc	-52
127	0x35	53
128	0x7f	127
129	0xbf	-65
130	0x05	5
131	0x84	-124
132	0x90	-112
133	0x69	105
134	0x7b	123
135	0x4a	74
136	0xa3	-93
137	0x81	-127
138	0x21	33
139	0xb5	-75
140	0x22	34
141	0x6e	110
142	0xda	-38
143	0x6a	106
144	0xf7	-9
145	0x10	16
146	0x60	96
147	0x81	-127
148	0xe3	-29
149	0x22	34
150	0xef	-17
151	0x7f	127
152	0x39	57
153	0xda	-38
154	0xc4	-60
155	0xaa	-86
156	0x81	-127
157	0xad	-83
158	0x2d	45
159	0xb5	-75
160	0x0f	15
161	0xf2	-14
162	0xe5	-27
163	0xd5	-43
164	0x40	64
165	0xed	-19
166	0x81	-127
167	0xdb	-37
168	0x5f	95
169	0xcf	-49
170	0x06	6
171	0x7f	127
172	0x81	-127
173	0xfc	-4
174	0x49	73
175	0x81	-127
176	0x5c	92
177	0x87	-121
178	0xeb	-21
179	0x3c	60
180	0x3e	62
181	0xdf	-33
182	0x8e	-114
183	0xa3	-93
184	0x0e	14
185	0xd6	-42
186	0x55	85
187	0x49	73
188	0x56	86
189	0x7f	127
190	0x81	-127
191	0x9f	-97
192	0x4b	75
193	0xca	-54
194	0x69	105
195	0x81	-127
196	0xe9	-23
197	0x38	56
198	0xbb	-69
199	0xbe	-66
200	0x5a	90
201	0xdb	-37
202	0xc0	-64
203	0xe6	-26
204	0x8e	-114
205	0x7b	123
206	0xd9	-39
207	0x33	51
208	0x68	104
209	0xc1	-63
210	0x81	-127
211	0x24	36
212	0x28	40
213	0x19	25
214	0xba	-70
215	0xb6	-74
216	0x63	99
217	0x46	70
218	0x53	83
219	0x81	-127
220	0x7f	127
221	0x59	89
222	0x44	68
223	0x85	-123
224	0x08	8
225	0xbb	-69
226	0xc1	-63
227	0x1b	27
228	0x85	-123
229	0x9a	-102
230	0xad	-83
231	0x05	5
232	0x1a	26
233	0xce	-50
234	0x32	50
235	0x2b	43
236	0xd8	-40
237	0x39	57
238	0x62	98
239	0xe0	-32
240	0x23	35
241	0x32	50
242	0xc6	-58
243	0xa6	-90
244	0x0a	10
245	0x0b	11
246	0x02	2
247	0x81	-127
248	0x54	84
249	0x3d	61
250	0x05	5
251	0xbc	-68
252	0x50	80
253	0x66	102
254	0x61	97
255	0xd7	-41

tfl.pseudo_qconst13 i1 [1, 3, 3, 60]
0	0x78	120
1	0x01	1
2	0xee	-18
3	0x7f	127
4	0x08	8
5	0x81	-127
6	0x0e	14
7	0xb3	-77
8	0x7f	127
9	0x8c	-116
10	0x1e	30
11	0xa0	-96
12	0x42	66
13	0x14	20
14	0x97	-105
15	0xd4	-44
16	0xfa	-6
17	0x45	69
18	0xc9	-55
19	0x81	-127
20	0x35	53
21	0xbf	-65
22	0xc1	-63
23	0x25	37
24	0x47	71
25	0xd0	-48
26	0x00	0
27	0x11	17
28	0x81	-127
29	0x7f	127
30	0x4f	79
31	0xca	-54
32	0x8e	-114
33	0xba	-70
34	0x6c	108
35	0x45	69
36	0xb4	-76
37	0xdf	-33
38	0x04	4
39	0x51	81
40	0x8e	-114
41	0x47	71
42	0xc6	-58
43	0xd5	-43
44	0x23	35
45	0xd5	-43
46	0x6f	111
47	0x28	40
48	0x81	-127
49	0x7f	127
50	0xe2	-30
51	0x30	48
52	0xf4	-12
53	0xf4	-12
54	0xf8	-8
55	0x67	103
56	0x4f	79
57	0x72	114
58	0x63	99
59	0x1a	26
60	0x07	7
61	0x2b	43
62	0x05	5
63	0x49	73
64	0xdb	-37
65	0xe8	-24
66	0x0a	10
67	0x22	34
68	0x3b	59
69	0xdf	-33
70	0xab	-85
71	0x9e	-98
72	0x36	54
73	0x46	70
74	0x81	-127
75	0xe7	-25
76	0x0a	10
77	0xf8	-8
78	0xf3	-13
79	0x08	8
80	0x7f	127
81	0x9d	-99
82	0x0a	10
83	0x0b	11
84	0x4c	76
85	0xea	-22
86	0x00	0
87	0x7f	127
88	0xdc	-36
89	0x41	65
90	0x37	55
91	0xd5	-43
92	0x82	-126
93	0xed	-19
94	0xff	-1
95	0x71	113
96	0x09	9
97	0xef	-17
98	0x09	9
99	0x3f	63
100	0xd1	-47
101	0x44	68
102	0xf7	-9
103	0x16	22
104	0xda	-38
105	0xd5	-43
106	0x15	21
107	0x7f	127
108	0xb9	-71
109	0xfa	-6
110	0x81	-127
111	0x7f	127
112	0x17	23
113	0xdd	-35
114	0x17	23
115	0x73	115
116	0x27	39
117	0x77	119
118	0x69	105
119	0x0c	12
120	0x7f	127
121	0x25	37
122	0x81	-127
123	0x1f	31
124	0xe6	-26
125	0xe3	-29
126	0x08	8
127	0xf9	-7
128	0x30	48
129	0x9d	-99
130	0xcb	-53
131	0x81	-127
132	0xf0	-16
133	0x7f	127
134	0xc9	-55
135	0xfb	-5
136	0xf2	-14
137	0xa7	-89
138	0x1a	26
139	0x99	-103
140	0x46	70
141	0x8d	-115
142	0xe2	-30
143	0x0c	12
144	0x7f	127
145	0xbe	-66
146	0xff	-1
147	0x46	70
148	0xe8	-24
149	0xf9	-7
150	0x20	32
151	0xa7	-89
152	0xab	-85
153	0x24	36
154	0x81	-127
155	0x2f	47
156	0xbb	-69
157	0xd7	-41
158	0x2b	43
159	0xe0	-32
160	0x19	25
161	0x16	22
162	0x2c	44
163	0x31	49
164	0xe4	-28
165	0xba	-70
166	0x82	-126
167	0x2a	42
168	0xae	-82
169	0x11	17
170	0xac	-84
171	0x79	121
172	0x10	16
173	0xb0	-80
174	0x3d	61
175	0x2c	44
176	0xe0	-32
177	0xe2	-30
178	0x36	54
179	0xee	-18
180	0x73	115
181	0xac	-84
182	0xf1	-15
183	0x3a	58
184	0xe9	-23
185	0xee	-18
186	0x81	-127
187	0x10	16
188	0x1d	29
189	0xbb	-69
190	0x4e	78
191	0xe0	-32
192	0xd0	-48
193	0x87	-121
194	0x8a	-118
195	0x81	-127
196	0x18	24
197	0x6f	111
198	0xdd	-35
199	0xb0	-80
200	0xf5	-11
201	0x0d	13
202	0xa4	-92
203	0x1d	29
204	0x27	39
205	0x46	70
206	0x22	34
207	0x0e	14
208	0xb3	-77
209	0xe3	-29
210	0x7f	127
211	0x7f	127
212	0xa8	-88
213	0xc7	-57
214	0x54	84
215	0x23	35
216	0x81	-127
217	0xfc	-4
218	0x03	3
219	0x44	68
220	0xb2	-78
221	0xdf	-33
222	0xa0	-96
223	0xe8	-24
224	0x0b	11
225	0x98	-104
226	0x61	97
227	0xd3	-45
228	0xf9	-7
229	0x5e	94
230	0x29	41
231	0x07	7
232	0x26	38
233	0xd9	-39
234	0x16	22
235	0x0f	15
236	0x3c	60
237	0x1f	31
238	0x7f	127
239	0xe5	-27
240	0xe0	-32
241	0xef	-17
242	0xed	-19
243	0xfd	-3
244	0xa1	-95
245	0x03	3
246	0xf8	-8
247	0x5c	92
248	0x04	4
249	0xd9	-39
250	0x05	5
251	0xef	-17
252	0x52	82
253	0x1d	29
254	0xf6	-10
255	0xb5	-75

tfl.pseudo_qconst15 i1 [60, 1, 1, 120]
0	0xee	-18
1	0x3c	60
2	0x23	35
3	0x36	54
4	0xe9	-23
5	0xde	-34
6	0x62	98
7	0x26	38
8	0x0e	14
9	0xbd	-67
10	0xc4	-60
11	0xef	-17
12	0xf8	-8
13	0x6b	107
14	0x05	5
15	0x06	6
16	0xfa	-6
17	0xe5	-27
18	0x1e	30
19	0xd3	-45
20	0xd7	-41
21	0x07	7
22	0x22	34
23	0x61	97
24	0xd9	-39
25	0xf0	-16
26	0xd4	-44
27	0xf0	-16
28	0xfd	-3
29	0x00	0
30	0x31	49
31	0x2a	42
32	0x0a	10
33	0x9f	-97
34	0xf4	-12
35	0xfa	-6
36	0x2d	45
37	0x26	38
38	0x54	84
39	0x0b	11
40	0x06	6
41	0xb3	-77
42	0xb5	-75
43	0x12	18
44	0xfc	-4
45	0x02	2
46	0xd2	-46
47	0xb4	-76
48	0xf3	-13
49	0x2f	47
50	0xef	-17
51	0x14	20
52	0xc0	-64
53	0xc6	-58
54	0xd5	-43
55	0x4b	75
56	0x34	52
57	0x29	41
58	0x42	66
59	0x02	2
60	0xef	-17
61	0xae	-82
62	0x21	33
63	0xda	-38
64	0x69	105
65	0x59	89
66	0xe4	-28
67	0x24	36
68	0x12	18
69	0xc9	-55
70	0xb4	-76
71	0x28	40
72	0x21	33
73	0xd5	-43
74	0x12	18
75	0xc9	-55
76	0x0c	12
77	0x54	84
78	0x37	55
79	0x54	84
80	0xf2	-14
81	0x7c	124
82	0x09	9
83	0x81	-127
84	0xee	-18
85	0xef	-17
86	0xc5	-59
87	0xf9	-7
88	0xc9	-55
89	0x44	68
90	0xda	-38
91	0xf5	-11
92	0xdb	-37
93	0x3e	62
94	0xae	-82
95	0x08	8
96	0x21	33
97	0x38	56
98	0x17	23
99	0xe1	-31
100	0xcd	-51
101	0x26	38
102	0x8d	-115
103	0x01	1
104	0xe8	-24
105	0x9b	-101
106	0x09	9
107	0xa3	-93
108	0xf9	-7
109	0x2b	43
110	0xef	-17
111	0x0a	10
112	0xfb	-5
113	0xeb	-21
114	0xdb	-37
115	0xe3	-29
116	0xd4	-44
117	0xf5	-11
118	0xd7	-41
119	0x2d	45
120	0xb6	-74
121	0x1d	29
122	0xce	-50
123	0x2b	43
124	0xd4	-44
125	0xca	-54
126	0x22	34
127	0x00	0
128	0x09	9
129	0xeb	-21
130	0xea	-22
131	0xe7	-25
132	0xec	-20
133	0xfb	-5
134	0x20	32
135	0x3d	61
136	0x69	105
137	0x47	71
138	0x34	52
139	0xc1	-63
140	0xf2	-14
141	0xd8	-40
142	0xbe	-66
143	0xfb	-5
144	0x30	48
145	0x32	50
146	0x42	66
147	0x4a	74
148	0xa6	-90
149	0x01	1
150	0xc7	-57
151	0x1a	26
152	0x09	9
153	0x13	19
154	0x69	105
155	0x0d	13
156	0xf2	-14
157	0x3d	61
158	0x17	23
159	0xe2	-30
160	0x45	69
161	0xe1	-31
162	0xed	-19
163	0x45	69
164	0xda	-38
165	0x22	34
166	0xbf	-65
167	0xf3	-13
168	0x0b	11
169	0x39	57
170	0xea	-22
171	0xbb	-69
172	0x1a	26
173	0x27	39
174	0xdb	-37
175	0xf2	-14
176	0x03	3
177	0xe5	-27
178	0xfc	-4
179	0xe7	-25
180	0x3a	58
181	0x8d	-115
182	0xdc	-36
183	0x06	6
184	0xff	-1
185	0x22	34
186	0xf2	-14
187	0x7f	127
188	0xc0	-64
189	0xc6	-58
190	0x17	23
191	0x42	66
192	0xe0	-32
193	0xf5	-11
194	0x12	18
195	0xd9	-39
196	0x9d	-99
197	0x1d	29
198	0x2e	46
199	0xd8	-40
200	0xe0	-32
201	0xd9	-39
202	0xb5	-75
203	0x11	17
204	0x3e	62
205	0x06	6
206	0x19	25
207	0xed	-19
208	0x0a	10
209	0x30	48
210	0xd3	-45
211	0x5f	95
212	0xb2	-78
213	0xf1	-15
214	0xcf	-49
215	0x30	48
216	0xd8	-40
217	0xed	-19
218	0xff	-1
219	0x44	68
220	0xe1	-31
221	0xb7	-73
222	0x0c	12
223	0xbb	-69
224	0x05	5
225	0x18	24
226	0x1a	26
227	0xee	-18
228	0xa5	-91
229	0xf9	-7
230	0x18	24
231	0xd1	-47
232	0x34	52
233	0xf2	-14
234	0xfc	-4
235	0xe4	-28
236	0xf5	-11
237	0x13	19
238	0x0f	15
239	0xcc	-52
240	0xbe	-66
241	0x05	5
242	0xec	-20
243	0xd6	-42
244	0x6b	107
245	0x63	99
246	0x1a	26
247	0xc6	-58
248	0x4b	75
249	0xc2	-62
250	0xc7	-57
251	0xef	-17
252	0xe3	-29
253	0x20	32
254	0x14	20
255	0x20	32

tfl.pseudo_qconst17 i1 [1, 3, 3, 120]
0	0x0f	15
1	0xf7	-9
2	0x78	120
3	0x8f	-113
4	0x06	6
5	0x7e	126
6	0x73	115
7	0x57	87
8	0x67	103
9	0x8a	-118
10	0x54	84
11	0x81	-127
12	0x17	23
13	0x54	84
14	0x81	-127
15	0xb4	-76
16	0x95	-107
17	0xe8	-24
18	0x7f	127
19	0x5b	91
20	0xe5	-27
21	0xdf	-33
22	0x55	85
23	0x14	20
24	0xda	-38
25	0x9b	-101
26	0xbd	-67
27	0xd6	-42
28	0x65	101
29	0x39	57
30	0x7f	127
31	0x7f	127
32	0x07	7
33	0x81	-127
34	0xcc	-52
35	0x8d	-115
36	0x37	55
37	0xcd	-51
38	0x73	115
39	0x81	-127
40	0x99	-103
41	0x0a	10
42	0xe5	-27
43	0xfc	-4
44	0xc5	-59
45	0x9e	-98
46	0x1c	28
47	0x81	-127
48	0x96	-106
49	0x75	117
50	0x48	72
51	0x6f	111
52	0x81	-127
53	0x59	89
54	0x1a	26
55	0x7f	127
56	0xdd	-35
57	0x7f	127
58	0xa3	-93
59	0x26	38
60	0x1b	27
61	0x7f	127
62	0x28	40
63	0x66	102
64	0x7f	127
65	0x17	23
66	0x15	21
67	0x81	-127
68	0x7f	127
69	0x40	64
70	0x3a	58
71	0x8a	-118
72	0xa6	-90
73	0xcc	-52
74	0x9f	-97
75	0xf5	-11
76	0xf7	-9
77	0x7f	127
78	0x7b	123
79	0x81	-127
80	0x34	52
81	0x24	36
82	0x4b	75
83	0x81	-127
84	0x8d	-115
85	0xfb	-5
86	0x81	-127
87	0x5c	92
88	0x95	-107
89	0x3d	61
90	0x31	49
91	0x0d	13
92	0x45	69
93	0x69	105
94	0xac	-84
95	0x9e	-98
96	0xc7	-57
97	0x4d	77
98	0x81	-127
99	0x7f	127
100	0x54	84
101	0x5f	95
102	0x81	-127
103	0x2d	45
104	0x90	-112
105	0x95	-107
106	0x7c	124
107	0xd6	-42
108	0x70	112
109	0x7f	127
110	0xf3	-13
111	0xac	-84
112	0xb8	-72
113	0x96	-106
114	0x81	-127
115	0xa7	-89
116	0x3a	58
117	0x81	-127
118	0x88	-120
119	0x7f	127
120	0xfc	-4
121	0xed	-19
122	0x7f	127
123	0x81	-127
124	0xf3	-13
125	0x6f	111
126	0x45	69
127	0x34	52
128	0x7f	127
129	0xb6	-74
130	0x7f	127
131	0x97	-105
132	0xc5	-59
133	0x1e	30
134	0xd0	-48
135	0x81	-127
136	0xb1	-79
137	0xbe	-66
138	0x0f	15
139	0x26	38
140	0x5f	95
141	0x1d	29
142	0x59	89
143	0x1b	27
144	0xb4	-76
145	0xa7	-89
146	0xac	-84
147	0x81	-127
148	0x7f	127
149	0x16	22
150	0x33	51
151	0x58	88
152	0x0e	14
153	0xbe	-66
154	0xe4	-28
155	0x0b	11
156	0x21	33
157	0xf2	-14
158	0x69	105
159	0xca	-54
160	0x9d	-99
161	0x1e	30
162	0x28	40
163	0x06	6
164	0xe7	-25
165	0x99	-103
166	0x34	52
167	0xee	-18
168	0x99	-103
169	0x50	80
170	0x10	16
171	0x36	54
172	0xc1	-63
173	0x27	39
174	0x57	87
175	0x51	81
176	0x7f	127
177	0x60	96
178	0x9e	-98
179	0xf8	-8
180	0xeb	-21
181	0x3a	58
182	0x0f	15
183	0x3c	60
184	0x6b	107
185	0x3b	59
186	0x09	9
187	0xd5	-43
188	0x4d	77
189	0x27	39
190	0x57	87
191	0xa4	-92
192	0xd0	-48
193	0x04	4
194	0xa5	-91
195	0xb6	-74
196	0x15	21
197	0x59	89
198	0x6b	107
199	0xcd	-51
200	0x7f	127
201	0x1a	26
202	0x7f	127
203	0x8b	-117
204	0x81	-127
205	0xab	-85
206	0xd2	-46
207	0x7f	127
208	0x02	2
209	0x7f	127
210	0x7e	126
211	0x2e	46
212	0x30	48
213	0x7f	127
214	0xff	-1
215	0x95	-107
216	0x35	53
217	0x7f	127
218	0xde	-34
219	0x4e	78
220	0x65	101
221	0x6b	107
222	0xb4	-76
223	0x05	5
224	0xd7	-41
225	0x81	-127
226	0x57	87
227	0xfa	-6
228	0x15	21
229	0x7e	126
230	0xb9	-71
231	0x2e	46
232	0xcb	-53
233	0xaf	-81
234	0xb5	-75
235	0xb9	-71
236	0x0c	12
237	0x9f	-97
238	0xa5	-91
239	0x5b	91
240	0x1e	30
241	0x81	-127
242	0x67	103
243	0xd6	-42
244	0xa7	-89
245	0x40	64
246	0x34	52
247	0x41	65
248	0x6f	111
249	0x07	7
250	0x3f	63
251	0x95	-107
252	0xdb	-37
253	0xb7	-73
254	0xda	-38
255	0x97	-105

tfl.pseudo_qconst19 i1 [120, 1, 1, 120]
0	0xc6	-58
1	0x0f	15
2	0x0e	14
3	0xbb	-69
4	0xed	-19
5	0xed	-19
6	0x26	38
7	0x2d	45
8	0x26	38
9	0x04	4
10	0x1e	30
11	0xcd	-51
12	0xe2	-30
13	0x21	33
14	0x34	52
15	0x1a	26
16	0xf4	-12
17	0xfe	-2
18	0xba	-70
19	0xfb	-5
20	0xea	-22
21	0x15	21
22	0xf4	-12
23	0x04	4
24	0xd5	-43
25	0xdf	-33
26	0x2d	45
27	0xe2	-30
28	0xff	-1
29	0xb5	-75
30	0x19	25
31	0x03	3
32	0xfc	-4
33	0xff	-1
34	0x1c	28
35	0xee	-18
36	0xef	-17
37	0xd3	-45
38	0xfe	-2
39	0xfe	-2
40	0x20	32
41	0x03	3
42	0x6c	108
43	0x11	17
44	0x1f	31
45	0xf1	-15
46	0xff	-1
47	0x3d	61
48	0x03	3
49	0xa5	-91
50	0xea	-22
51	0xc9	-55
52	0x23	35
53	0xd9	-39
54	0x31	49
55	0x1a	26
56	0xd9	-39
57	0xc4	-60
58	0x11	17
59	0x17	23
60	0x9d	-99
61	0xe4	-28
62	0x81	-127
63	0xf4	-12
64	0xc7	-57
65	0x15	21
66	0xe1	-31
67	0xee	-18
68	0xd2	-46
69	0x0e	14
70	0x15	21
71	0x56	86
72	0xf1	-15
73	0xad	-83
74	0xf3	-13
75	0x1b	27
76	0xe7	-25
77	0x21	33
78	0xd9	-39
79	0x09	9
80	0xf6	-10
81	0xfe	-2
82	0x0b	11
83	0xda	-38
84	0xe1	-31
85	0x06	6
86	0xfa	-6
87	0xee	-18
88	0x28	40
89	0x17	23
90	0xff	-1
91	0xd3	-45
92	0xfa	-6
93	0x07	7
94	0x00	0
95	0x09	9
96	0x1d	29
97	0xeb	-21
98	0xd1	-47
99	0x1e	30
100	0x04	4
101	0xf6	-10
102	0x04	4
103	0x0f	15
104	0xd4	-44
105	0xd7	-41
106	0x1f	31
107	0x3c	60
108	0x00	0
109	0xc9	-55
110	0x19	25
111	0xf6	-10
112	0x03	3
113	0xe4	-28
114	0xec	-20
115	0x2e	46
116	0xf8	-8
117	0xf4	-12
118	0x08	8
119	0xe0	-32
120	0x06	6
121	0xfe	-2
122	0x62	98
123	0xc1	-63
124	0xf5	-11
125	0xcb	-53
126	0xfe	-2
127	0xf6	-10
128	0x0a	10
129	0x0f	15
130	0x1e	30
131	0x08	8
132	0xef	-17
133	0x3c	60
134	0xf7	-9
135	0x23	35
136	0xea	-22
137	0x1d	29
138	0xe4	-28
139	0x0a	10
140	0x0a	10
141	0x04	4
142	0x2d	45
143	0x00	0
144	0xdd	-35
145	0x0e	14
146	0x07	7
147	0xde	-34
148	0x1f	31
149	0x1b	27
150	0xa9	-87
151	0xf0	-16
152	0x26	38
153	0x16	22
154	0xe7	-25
155	0x32	50
156	0x13	19
157	0x04	4
158	0x1b	27
159	0x81	-127
160	0xec	-20
161	0x02	2
162	0xda	-38
163	0x3b	59
164	0xda	-38
165	0x44	68
166	0xd7	-41
167	0xd9	-39
168	0x0b	11
169	0xaf	-81
170	0x13	19
171	0xfe	-2
172	0xf1	-15
173	0xb5	-75
174	0xbf	-65
175	0x20	32
176	0x09	9
177	0xff	-1
178	0x30	48
179	0x0a	10
180	0x40	64
181	0xe6	-26
182	0x50	80
183	0x1a	26
184	0x26	38
185	0x12	18
186	0x36	54
187	0xc8	-56
188	0x0b	11
189	0xe5	-27
190	0x08	8
191	0xe9	-23
192	0xd9	-39
193	0x0d	13
194	0xe2	-30
195	0x01	1
196	0x01	1
197	0x15	21
198	0xaf	-81
199	0x3f	63
200	0x23	35
201	0x19	25
202	0x06	6
203	0xe1	-31
204	0x0d	13
205	0xcd	-51
206	0xd9	-39
207	0xfe	-2
208	0x26	38
209	0xf0	-16
210	0xe5	-27
211	0xde	-34
212	0x03	3
213	0xd3	-45
214	0x24	36
215	0x35	53
216	0xf8	-8
217	0xfa	-6
218	0x1c	28
219	0xf3	-13
220	0x12	18
221	0x2a	42
222	0xeb	-21
223	0xff	-1
224	0xfe	-2
225	0x07	7
226	0xf3	-13
227	0x05	5
228	0xd4	-44
229	0xfe	-2
230	0x0b	11
231	0x1d	29
232	0x00	0
233	0xed	-19
234	0x12	18
235	0xf3	-13
236	0xee	-18
237	0xfc	-4
238	0xff	-1
239	0xec	-20
240	0xf9	-7
241	0x18	24
242	0x04	4
243	0xed	-19
244	0x23	35
245	0x1b	27
246	0xc0	-64
247	0x01	1
248	0xc9	-55
249	0x2e	46
250	0x16	22
251	0xf8	-8
252	0xb6	-74
253	0xf8	-8
254	0x93	-109
255	0x0f	15

tfl.pseudo_qconst21 i1 [1, 3, 3, 120]
0	0xc4	-60
1	0x49	73
2	0xc5	-59
3	0x74	116
4	0x63	99
5	0xed	-19
6	0x81	-127
7	0x54	84
8	0x7a	122
9	0xf5	-11
10	0xae	-82
11	0x61	97
12	0x7f	127
13	0x18	24
14	0xc3	-61
15	0x85	-123
16	0x7f	127
17	0x4d	77
18	0xef	-17
19	0x9a	-102
20	0x94	-108
21	0xd6	-42
22	0xdd	-35
23	0xf9	-7
24	0x23	35
25	0x49	73
26	0x3d	61
27	0x43	67
28	0x3d	61
29	0x0e	14
30	0xdb	-37
31	0x39	57
32	0x3d	61
33	0x7f	127
34	0xc9	-55
35	0x23	35
36	0x04	4
37	0xbc	-68
38	0x5b	91
39	0x2a	42
40	0x77	119
41	0x55	85
42	0x1f	31
43	0xc7	-57
44	0xf9	-7
45	0x43	67
46	0xa7	-89
47	0xd1	-47
48	0x81	-127
49	0x74	116
50	0xb7	-73
51	0x0f	15
52	0xf0	-16
53	0xdb	-37
54	0x1d	29
55	0xe3	-29
56	0xbe	-66
57	0x3a	58
58	0x81	-127
59	0x7f	127
60	0xf3	-13
61	0x7f	127
62	0x3f	63
63	0x55	85
64	0xf3	-13
65	0x9f	-97
66	0x82	-126
67	0x7f	127
68	0xfb	-5
69	0x7f	127
70	0x3a	58
71	0x14	20
72	0x40	64
73	0x99	-103
74	0xb1	-79
75	0x5d	93
76	0x81	-127
77	0x81	-127
78	0x59	89
79	0xb0	-80
80	0xe6	-26
81	0x04	4
82	0x8a	-118
83	0x31	49
84	0x35	53
85	0x8a	-118
86	0x1d	29
87	0x25	37
88	0x36	54
89	0x54	84
90	0xe7	-25
91	0xce	-50
92	0x61	97
93	0x51	81
94	0x81	-127
95	0x38	56
96	0xe2	-30
97	0x15	21
98	0x79	121
99	0xde	-34
100	0x67	103
101	0xdd	-35
102	0x7f	127
103	0xac	-84
104	0xc3	-61
105	0xe2	-30
106	0xd6	-42
107	0x55	85
108	0xb6	-74
109	0xb8	-72
110	0x0d	13
111	0xf9	-7
112	0xf2	-14
113	0x81	-127
114	0x7f	127
115	0x8f	-113
116	0x5b	91
117	0x41	65
118	0x48	72
119	0x82	-126
120	0x96	-106
121	0x81	-127
122	0x22	34
123	0xf6	-10
124	0x38	56
125	0x2a	42
126	0xc5	-59
127	0x02	2
128	0x0b	11
129	0xcf	-49
130	0xa3	-93
131	0x44	68
132	0x44	68
133	0x3d	61
134	0xac	-84
135	0x40	64
136	0x22	34
137	0x6f	111
138	0x1a	26
139	0x2e	46
140	0x7f	127
141	0xa8	-88
142	0x26	38
143	0xfd	-3
144	0xe8	-24
145	0x2f	47
146	0x81	-127
147	0x66	102
148	0x7f	127
149	0x24	36
150	0xfe	-2
151	0x89	-119
152	0x3d	61
153	0x12	18
154	0xb2	-78
155	0xf1	-15
156	0xb1	-79
157	0x81	-127
158	0xd5	-43
159	0x49	73
160	0x7b	123
161	0x74	116
162	0x17	23
163	0xc9	-55
164	0x01	1
165	0x5e	94
166	0x97	-105
167	0xed	-19
168	0x54	84
169	0x60	96
170	0xf8	-8
171	0x47	71
172	0x4c	76
173	0x76	118
174	0x36	54
175	0x70	112
176	0xc9	-55
177	0x99	-103
178	0xa6	-90
179	0xfe	-2
180	0xbe	-66
181	0x58	88
182	0x56	86
183	0x7f	127
184	0xb7	-73
185	0xd2	-46
186	0x82	-126
187	0x60	96
188	0xfc	-4
189	0x4c	76
190	0x27	39
191	0x11	17
192	0x3c	60
193	0xd8	-40
194	0xb3	-77
195	0x5a	90
196	0xd3	-45
197	0x91	-111
198	0x4f	79
199	0xb8	-72
200	0x7f	127
201	0xf0	-16
202	0xd7	-41
203	0x49	73
204	0x2b	43
205	0x9c	-100
206	0xf6	-10
207	0x0b	11
208	0x7f	127
209	0x02	2
210	0x32	50
211	0x27	39
212	0x36	54
213	0x38	56
214	0xd3	-45
215	0x4c	76
216	0x3a	58
217	0x5c	92
218	0x21	33
219	0xae	-82
220	0x4d	77
221	0x2a	42
222	0x07	7
223	0x0e	14
224	0xbb	-69
225	0x3a	58
226	0xab	-85
227	0x4c	76
228	0xc4	-60
229	0xc9	-55
230	0x3e	62
231	0x4c	76
232	0x29	41
233	0x2d	45
234	0x20	32
235	0xb2	-78
236	0x60	96
237	0x29	41
238	0x37	55
239	0x81	-127
240	0xc3	-61
241	0xcb	-53
242	0x1e	30
243	0xca	-54
244	0x5d	93
245	0x06	6
246	0xf9	-7
247	0xbf	-65
248	0xdc	-36
249	0xba	-70
250	0x81	-127
251	0x13	19
252	0x00	0
253	0x0e	14
254	0x92	-110
255	0x73	115

tfl.pseudo_qconst23 i1 [1, 3, 3, 120]
0	0xb1	-79
1	0x83	-125
2	0xc2	-62
3	0x61	97
4	0xe8	-24
5	0xe1	-31
6	0xc3	-61
7	0x00	0
8	0x81	-127
9	0xaf	-81
10	0x90	-112
11	0xe7	-25
12	0xfb	-5
13	0xdb	-37
14	0xd7	-41
15	0x81	-127
16	0x7f	127
17	0x08	8
18	0xff	-1
19	0xc0	-64
20	0x3e	62
21	0xb0	-80
22	0x0f	15
23	0xf9	-7
24	0xb9	-71
25	0x4a	74
26	0x7a	122
27	0xe5	-27
28	0xf0	-16
29	0x50	80
30	0xef	-17
31	0x09	9
32	0xfe	-2
33	0x7f	127
34	0x7f	127
35	0xeb	-21
36	0xfc	-4
37	0xe5	-27
38	0x19	25
39	0x11	17
40	0xc3	-61
41	0x34	52
42	0x01	1
43	0xe9	-23
44	0xe2	-30
45	0xf6	-10
46	0x16	22
47	0x4b	75
48	0x7f	127
49	0x81	-127
50	0xf8	-8
51	0xce	-50
52	0x42	66
53	0x68	104
54	0x02	2
55	0x48	72
56	0xe9	-23
57	0x46	70
58	0x7f	127
59	0x81	-127
60	0xeb	-21
61	0x01	1
62	0xca	-54
63	0x81	-127
64	0xef	-17
65	0x3d	61
66	0xf5	-11
67	0x1f	31
68	0x6d	109
69	0x17	23
70	0xf8	-8
71	0x12	18
72	0x81	-127
73	0xb2	-78
74	0xec	-20
75	0xa2	-94
76	0x19	25
77	0x7f	127
78	0x81	-127
79	0xef	-17
80	0x9c	-100
81	0x18	24
82	0x11	17
83	0x38	56
84	0x13	19
85	0xd1	-47
86	0x6d	109
87	0xed	-19
88	0x81	-127
89	0x00	0
90	0x0a	10
91	0xf6	-10
92	0x18	24
93	0x62	98
94	0x7f	127
95	0x5d	93
96	0x89	-119
97	0x7f	127
98	0x81	-127
99	0xf1	-15
100	0xe0	-32
101	0x8e	-114
102	0x7f	127
103	0x29	41
104	0x7f	127
105	0x0e	14
106	0xe9	-23
107	0x5f	95
108	0xd6	-42
109	0xd7	-41
110	0xed	-19
111	0x8f	-113
112	0xe8	-24
113	0xac	-84
114	0x7f	127
115	0x8d	-115
116	0x48	72
117	0xe6	-26
118	0x1b	27
119	0xf9	-7
120	0xe7	-25
121	0xce	-50
122	0x9d	-99
123	0x2f	47
124	0xfc	-4
125	0xfd	-3
126	0xb4	-76
127	0x24	36
128	0xe1	-31
129	0x81	-127
130	0x81	-127
131	0xad	-83
132	0x76	118
133	0x81	-127
134	0x81	-127
135	0xae	-82
136	0x41	65
137	0xec	-20
138	0xf5	-11
139	0x44	68
140	0x18	24
141	0xfd	-3
142	0x7f	127
143	0xf5	-11
144	0xad	-83
145	0x16	22
146	0xdb	-37
147	0xd0	-48
148	0xf7	-9
149	0x64	100
150	0xef	-17
151	0x81	-127
152	0x0b	11
153	0x09	9
154	0x6a	106
155	0x00	0
156	0xe5	-27
157	0xfe	-2
158	0x11	17
159	0x06	6
160	0x81	-127
161	0x0c	12
162	0xa9	-87
163	0x81	-127
164	0xe7	-25
165	0xb0	-80
166	0x43	67
167	0x1f	31
168	0xb7	-73
169	0xd5	-43
170	0x4a	74
171	0x88	-120
172	0x81	-127
173	0x62	98
174	0xef	-17
175	0x1f	31
176	0xe3	-29
177	0x58	88
178	0xd8	-40
179	0xb1	-79
180	0xf0	-16
181	0xfa	-6
182	0xc4	-60
183	0x91	-111
184	0x12	18
185	0xf1	-15
186	0xce	-50
187	0x7f	127
188	0x34	52
189	0xb2	-78
190	0x1f	31
191	0x24	36
192	0xae	-82
193	0xf2	-14
194	0x0b	11
195	0x67	103
196	0xb6	-74
197	0x40	64
198	0x8e	-114
199	0x03	3
200	0x13	19
201	0x16	22
202	0x0a	10
203	0x7f	127
204	0xf6	-10
205	0xfc	-4
206	0xb1	-79
207	0x7f	127
208	0xab	-85
209	0x00	0
210	0x81	-127
211	0xf6	-10
212	0xee	-18
213	0xd3	-45
214	0xfe	-2
215	0x4b	75
216	0x0c	12
217	0x56	86
218	0xf7	-9
219	0x04	4
220	0xc0	-64
221	0x1a	26
222	0x03	3
223	0x50	80
224	0x1c	28
225	0x31	49
226	0xaa	-86
227	0x1c	28
228	0xad	-83
229	0xf3	-13
230	0x06	6
231	0xcc	-52
232	0x23	35
233	0xe6	-26
234	0x12	18
235	0xec	-20
236	0xd8	-40
237	0x0e	14
238	0x17	23
239	0x1b	27
240	0x38	56
241	0x66	102
242	0xcf	-49
243	0xe4	-28
244	0xe9	-23
245	0x0a	10
246	0x8e	-114
247	0x3c	60
248	0x0b	11
249	0xf2	-14
250	0x02	2
251	0xda	-38
252	0x76	118
253	0xe9	-23
254	0xd2	-46
255	0xd3	-45

tfl.pseudo_qconst25 i1 [120, 1, 1, 40]
0	0x6c	108
1	0xcf	-49
2	0xb7	-73
3	0xa9	-87
4	0x1e	30
5	0x4d	77
6	0xee	-18
7	0x03	3
8	0x00	0
9	0x42	66
10	0x36	54
11	0x14	20
12	0x0b	11
13	0x01	1
14	0x37	55
15	0xb6	-74
16	0x06	6
17	0x8d	-115
18	0x13	19
19	0x10	16
20	0xbc	-68
21	0xcf	-49
22	0x06	6
23	0x0a	10
24	0x37	55
25	0x08	8
26	0x0a	10
27	0xbb	-69
28	0xe6	-26
29	0xf7	-9
30	0x0e	14
31	0xd3	-45
32	0xe3	-29
33	0x24	36
34	0xf8	-8
35	0x04	4
36	0xbd	-67
37	0xe9	-23
38	0xe2	-30
39	0x7f	127
40	0xf0	-16
41	0x16	22
42	0xf1	-15
43	0x0e	14
44	0xe8	-24
45	0xf6	-10
46	0x22	34
47	0xf8	-8
48	0x07	7
49	0x16	22
50	0xd9	-39
51	0x3b	59
52	0xfd	-3
53	0x4c	76
54	0xbf	-65
55	0x12	18
56	0xdd	-35
57	0x63	99
58	0x32	50
59	0x19	25
60	0x09	9
61	0x04	4
62	0x14	20
63	0xfe	-2
64	0x13	19
65	0x1a	26
66	0x18	24
67	0x10	16
68	0x39	57
69	0x0f	15
70	0x32	50
71	0xe0	-32
72	0x44	68
73	0xca	-54
74	0xf6	-10
75	0xe9	-23
76	0x3b	59
77	0x01	1
78	0x36	54
79	0x81	-127
80	0xf5	-11
81	0xf6	-10
82	0x19	25
83	0x81	-127
84	0xf2	-14
85	0x6f	111
86	0xfb	-5
87	0x2c	44
88	0x19	25
89	0x2c	44
90	0xef	-17
91	0xf2	-14
92	0x0d	13
93	0x09	9
94	0xfd	-3
95	0x03	3
96	0x1a	26
97	0x11	17
98	0x16	22
99	0x15	21
100	0xb3	-77
101	0xfc	-4
102	0xa3	-93
103	0x16	22
104	0x36	54
105	0x0c	12
106	0x2d	45
107	0x42	66
108	0xf9	-7
109	0xe8	-24
110	0x15	21
111	0xf0	-16
112	0x09	9
113	0xfb	-5
114	0x2c	44
115	0xd8	-40
116	0x11	17
117	0x18	24
118	0x12	18
119	0x22	34
120	0x81	-127
121	0x3c	60
122	0x67	103
123	0xe6	-26
124	0x37	55
125	0x11	17
126	0xe4	-28
127	0x1d	29
128	0x2f	47
129	0xec	-20
130	0x51	81
131	0x58	88
132	0xce	-50
133	0x5e	94
134	0x55	85
135	0x58	88
136	0x4d	77
137	0x08	8
138	0x72	114
139	0x41	65
140	0xd2	-46
141	0xe0	-32
142	0xc9	-55
143	0xb2	-78
144	0xe5	-27
145	0x25	37
146	0x38	56
147	0xe7	-25
148	0xe8	-24
149	0xcd	-51
150	0x4e	78
151	0xbf	-65
152	0xb8	-72
153	0x71	113
154	0x21	33
155	0xf3	-13
156	0x9d	-99
157	0xe2	-30
158	0x60	96
159	0xaa	-86
160	0x3b	59
161	0x39	57
162	0xb2	-78
163	0x15	21
164	0xbd	-67
165	0x0a	10
166	0xd9	-39
167	0x38	56
168	0xa8	-88
169	0xdf	-33
170	0x01	1
171	0xab	-85
172	0x2b	43
173	0x1f	31
174	0x42	66
175	0x47	71
176	0x38	56
177	0xce	-50
178	0x01	1
179	0xf8	-8
180	0xf4	-12
181	0xe9	-23
182	0xfd	-3
183	0x00	0
184	0x5c	92
185	0xd6	-42
186	0x06	6
187	0xe3	-29
188	0xc6	-58
189	0x04	4
190	0xb8	-72
191	0xec	-20
192	0x40	64
193	0xc4	-60
194	0xba	-70
195	0xb2	-78
196	0xe1	-31
197	0xbb	-69
198	0xdb	-37
199	0x7f	127
200	0x49	73
201	0x0f	15
202	0xe5	-27
203	0x17	23
204	0x00	0
205	0xff	-1
206	0x11	17
207	0x8e	-114
208	0x04	4
209	0x0e	14
210	0x8e	-114
211	0x3d	61
212	0xf5	-11
213	0x03	3
214	0xa9	-87
215	0xde	-34
216	0xe7	-25
217	0x10	16
218	0x08	8
219	0x42	66
220	0xd7	-41
221	0xcf	-49
222	0xe8	-24
223	0x0b	11
224	0xb1	-79
225	0xe8	-24
226	0xe9	-23
227	0x0a	10
228	0x1d	29
229	0x14	20
230	0xd6	-42
231	0xd9	-39
232	0x2c	44
233	0x81	-127
234	0xa7	-89
235	0xd8	-40
236	0x4b	75
237	0x30	48
238	0x05	5
239	0xe1	-31
240	0x3d	61
241	0x17	23
242	0x2e	46
243	0x18	24
244	0xdd	-35
245	0x2c	44
246	0xb2	-78
247	0x3e	62
248	0x05	5
249	0xe8	-24
250	0x4b	75
251	0x12	18
252	0xbc	-68
253	0x44	68
254	0xaf	-81
255	0xa4	-92

tfl.pseudo_qconst27 i1 [1, 3, 3, 40]
0	0xaf	-81
1	0x81	-127
2	0xe0	-32
3	0x81	-127
4	0x7f	127
5	0xfe	-2
6	0xe0	-32
7	0x53	83
8	0x62	98
9	0x81	-127
10	0x4f	79
11	0xfc	-4
12	0xc0	-64
13	0xab	-85
14	0x9f	-97
15	0xa8	-88
16	0x81	-127
17	0x39	57
18	0x07	7
19	0x84	-124
20	0x6e	110
21	0x39	57
22	0x61	97
23	0x7f	127
24	0x81	-127
25	0x59	89
26	0x44	68
27	0x3f	63
28	0x1e	30
29	0x72	114
30	0x6b	107
31	0x3f	63
32	0x76	118
33	0x3f	63
34	0x7f	127
35	0x7f	127
36	0x8f	-113
37	0x93	-109
38	0x81	-127
39	0xc3	-61
40	0xa7	-89
41	0xac	-84
42	0xf7	-9
43	0xc0	-64
44	0x12	18
45	0x57	87
46	0x21	33
47	0xca	-54
48	0x2e	46
49	0x83	-125
50	0x0a	10
51	0x45	69
52	0xfe	-2
53	0x20	32
54	0x81	-127
55	0xb7	-73
56	0xd1	-47
57	0x58	88
58	0x05	5
59	0xb0	-80
60	0x1d	29
61	0x7e	126
62	0xbd	-67
63	0x50	80
64	0x89	-119
65	0x5b	91
66	0xf5	-11
67	0x6b	107
68	0x17	23
69	0x6b	107
70	0x30	48
71	0x50	80
72	0x09	9
73	0x4d	77
74	0x30	48
75	0x06	6
76	0xe2	-30
77	0x07	7
78	0x81	-127
79	0x81	-127
80	0x81	-127
81	0xb5	-75
82	0x2c	44
83	0x03	3
84	0xb0	-80
85	0x35	53
86	0x55	85
87	0x84	-124
88	0xf8	-8
89	0xce	-50
90	0x05	5
91	0x7f	127
92	0xed	-19
93	0x7f	127
94	0xbb	-69
95	0xd3	-45
96	0x5d	93
97	0x0a	10
98	0xbf	-65
99	0xf1	-15
100	0x19	25
101	0x6c	108
102	0x07	7
103	0x0c	12
104	0xb0	-80
105	0x3d	61
106	0xa4	-92
107	0x72	114
108	0x09	9
109	0x7f	127
110	0x39	57
111	0x54	84
112	0x20	32
113	0x7f	127
114	0x28	40
115	0xe2	-30
116	0x29	41
117	0x61	97
118	0xb0	-80
119	0xd0	-48
120	0x9f	-97
121	0xc6	-58
122	0xf7	-9
123	0xa6	-90
124	0x58	88
125	0xe5	-27
126	0x7f	127
127	0x3f	63
128	0x6d	109
129	0xb6	-74
130	0x30	48
131	0xd5	-43
132	0xe5	-27
133	0x89	-119
134	0x9d	-99
135	0xc2	-62
136	0xad	-83
137	0x3b	59
138	0xd9	-39
139	0x96	-106
140	0x79	121
141	0xef	-17
142	0x7f	127
143	0x5f	95
144	0x9d	-99
145	0x3c	60
146	0x36	54
147	0x54	84
148	0x7f	127
149	0x5e	94
150	0x7f	127
151	0x53	83
152	0x7a	122
153	0xf4	-12
154	0x53	83
155	0x39	57
156	0xb3	-77
157	0x81	-127
158	0xc0	-64
159	0xb7	-73
160	0xa9	-87
161	0x9a	-102
162	0x36	54
163	0xcb	-53
164	0xfd	-3
165	0x2c	44
166	0x36	54
167	0xf0	-16
168	0x5c	92
169	0xcd	-51
170	0x19	25
171	0x2c	44
172	0xf1	-15
173	0x00	0
174	0x83	-125
175	0x81	-127
176	0xac	-84
177	0x59	89
178	0xbf	-65
179	0xd5	-43
180	0x7a	122
181	0x7f	127
182	0x24	36
183	0x32	50
184	0xc7	-57
185	0x55	85
186	0xeb	-21
187	0x76	118
188	0x1a	26
189	0x1c	28
190	0x32	50
191	0x5f	95
192	0x3f	63
193	0x1e	30
194	0xdd	-35
195	0xf1	-15
196	0x13	19
197	0xff	-1
198	0xd4	-44
199	0x92	-110
200	0xb2	-78
201	0xa4	-92
202	0x5b	91
203	0xfa	-6
204	0x98	-104
205	0x33	51
206	0x0e	14
207	0x81	-127
208	0x49	73
209	0x5d	93
210	0xc1	-63
211	0x58	88
212	0x15	21
213	0x53	83
214	0xab	-85
215	0xb6	-74
216	0x90	-112
217	0xea	-22
218	0xb0	-80
219	0x28	40
220	0x42	66
221	0x38	56
222	0x6b	107
223	0xe7	-25
224	0xe5	-27
225	0x7f	127
226	0xbb	-69
227	0x7f	127
228	0xf3	-13
229	0x3d	61
230	0x3a	58
231	0x5c	92
232	0xad	-83
233	0x15	21
234	0xc4	-60
235	0xda	-38
236	0x60	96
237	0x70	112
238	0xe8	-24
239	0xe6	-26
240	0xf7	-9
241	0x29	41
242	0x27	39
243	0xfa	-6
244	0x1e	30
245	0x81	-127
246	0x74	116
247	0x3e	62
248	0xa8	-88
249	0xda	-38
250	0xfe	-2
251	0xc6	-58
252	0x12	18
253	0xe3	-29
254	0xe0	-32
255	0x52	82

tfl.pseudo_qconst29 i1 [40, 1, 1, 40]
0	0xb8	-72
1	0x4e	78
2	0x1a	26
3	0xec	-20
4	0xeb	-21
5	0xce	-50
6	0xb9	-71
7	0xc4	-60
8	0xf2	-14
9	0x22	34
10	0xc1	-63
11	0xef	-17
12	0xd3	-45
13	0xfb	-5
14	0x2d	45
15	0xda	-38
16	0x29	41
17	0xd4	-44
18	0x05	5
19	0x35	53
20	0x19	25
21	0xea	-22
22	0x81	-127
23	0xd7	-41
24	0x38	56
25	0x0d	13
26	0x04	4
27	0x00	0
28	0x2e	46
29	0xc1	-63
30	0x48	72
31	0xd4	-44
32	0xf6	-10
33	0xe0	-32
34	0x53	83
35	0xcd	-51
36	0xe2	-30
37	0xa9	-87
38	0x0b	11
39	0xe3	-29
40	0x03	3
41	0xd6	-42
42	0x05	5
43	0x34	52
44	0x9a	-102
45	0x18	24
46	0xec	-20
47	0xdf	-33
48	0xe7	-25
49	0x0e	14
50	0xf4	-12
51	0xcd	-51
52	0x57	87
53	0xfb	-5
54	0xb7	-73
55	0x06	6
56	0x1d	29
57	0x14	20
58	0xda	-38
59	0x09	9
60	0x08	8
61	0x02	2
62	0x14	20
63	0x00	0
64	0xc2	-62
65	0xd3	-45
66	0xf9	-7
67	0x31	49
68	0xd0	-48
69	0x06	6
70	0x4b	75
71	0xd6	-42
72	0xc5	-59
73	0xd3	-45
74	0xe9	-23
75	0xf7	-9
76	0x7f	127
77	0xb5	-75
78	0xfa	-6
79	0x3a	58
80	0x10	16
81	0x7b	123
82	0xdc	-36
83	0xfe	-2
84	0xc9	-55
85	0xe3	-29
86	0xf2	-14
87	0x0d	13
88	0xbd	-67
89	0x1e	30
90	0x2c	44
91	0x12	18
92	0xd4	-44
93	0x03	3
94	0x17	23
95	0xf4	-12
96	0xf9	-7
97	0x88	-120
98	0x12	18
99	0x1c	28
100	0x2d	45
101	0xaa	-86
102	0xbe	-66
103	0x1a	26
104	0x7f	127
105	0xfc	-4
106	0x0c	12
107	0x25	37
108	0x34	52
109	0xd1	-47
110	0x40	64
111	0xfc	-4
112	0x2a	42
113	0xed	-19
114	0x4d	77
115	0xbc	-68
116	0x46	70
117	0xe6	-26
118	0xc3	-61
119	0xd9	-39
120	0xa4	-92
121	0xd3	-45
122	0xf0	-16
123	0xfc	-4
124	0xcf	-49
125	0x2a	42
126	0xea	-22
127	0xdd	-35
128	0xc6	-58
129	0xe0	-32
130	0x7f	127
131	0x0f	15
132	0xe6	-26
133	0x05	5
134	0x23	35
135	0xfb	-5
136	0xc5	-59
137	0x29	41
138	0x12	18
139	0xf8	-8
140	0xeb	-21
141	0xf9	-7
142	0x20	32
143	0xec	-20
144	0x1a	26
145	0xed	-19
146	0x00	0
147	0xe4	-28
148	0x09	9
149	0x0d	13
150	0xf1	-15
151	0x1b	27
152	0x19	25
153	0xc5	-59
154	0xed	-19
155	0xfb	-5
156	0xe2	-30
157	0xe5	-27
158	0x21	33
159	0x33	51
160	0xf6	-10
161	0x81	-127
162	0xf0	-16
163	0x19	25
164	0x02	2
165	0x3d	61
166	0xb1	-79
167	0x08	8
168	0xbe	-66
169	0xb4	-76
170	0xe7	-25
171	0xf3	-13
172	0x38	56
173	0xee	-18
174	0x49	73
175	0x2f	47
176	0xf1	-15
177	0xef	-17
178	0x0a	10
179	0x44	68
180	0xff	-1
181	0xe8	-24
182	0xec	-20
183	0x0a	10
184	0x11	17
185	0x9c	-100
186	0xf4	-12
187	0xb3	-77
188	0x3c	60
189	0x26	38
190	0x2c	44
191	0x1f	31
192	0x03	3
193	0x12	18
194	0x2c	44
195	0xd6	-42
196	0xe5	-27
197	0xbd	-67
198	0x52	82
199	0xcc	-52
200	0xf1	-15
201	0xbc	-68
202	0x16	22
203	0x0e	14
204	0x3d	61
205	0x8e	-114
206	0xff	-1
207	0xb0	-80
208	0x2a	42
209	0x16	22
210	0x78	120
211	0x7a	122
212	0xba	-70
213	0xc5	-59
214	0x65	101
215	0x51	81
216	0xb7	-73
217	0x4f	79
218	0x01	1
219	0x90	-112
220	0xb8	-72
221	0x19	25
222	0x56	86
223	0x2f	47
224	0x93	-109
225	0x42	66
226	0x0a	10
227	0xc1	-63
228	0x66	102
229	0xe2	-30
230	0x81	-127
231	0x12	18
232	0x6a	106
233	0xf7	-9
234	0xf4	-12
235	0xb8	-72
236	0x9d	-99
237	0x05	5
238	0x41	65
239	0xfa	-6
240	0x41	65
241	0x11	17
242	0x1a	26
243	0xdb	-37
244	0x17	23
245	0x2f	47
246	0x04	4
247	0xf9	-7
248	0x0b	11
249	0x81	-127
250	0x4e	78
251	0xd5	-43
252	0x24	36
253	0x0c	12
254	0x21	33
255	0x15	21

tfl.pseudo_qconst30 i1 [1, 3, 3, 40]
0	0x90	-112
1	0x01	1
2	0x17	23
3	0x13	19
4	0x81	-127
5	0x13	19
6	0xeb	-21
7	0x0d	13
8	0xe3	-29
9	0x31	49
10	0x52	82
11	0xd0	-48
12	0x5a	90
13	0x8a	-118
14	0xbb	-69
15	0x81	-127
16	0x2b	43
17	0xf3	-13
18	0x16	22
19	0x7a	122
20	0xbd	-67
21	0x1a	26
22	0x44	68
23	0x7f	127
24	0xc0	-64
25	0x11	17
26	0x44	68
27	0xc1	-63
28	0xe4	-28
29	0xb3	-77
30	0x7f	127
31	0xa3	-93
32	0x28	40
33	0x1a	26
34	0x81	-127
35	0x37	55
36	0x48	72
37	0x7f	127
38	0xbd	-67
39	0x7f	127
40	0x9a	-102
41	0x09	9
42	0xae	-82
43	0x04	4
44	0xac	-84
45	0xf5	-11
46	0xf0	-16
47	0x01	1
48	0x0b	11
49	0xae	-82
50	0x53	83
51	0x81	-127
52	0x33	51
53	0xdb	-37
54	0xa1	-95
55	0xed	-19
56	0x10	16
57	0x23	35
58	0xf7	-9
59	0x7f	127
60	0xc0	-64
61	0x25	37
62	0x56	86
63	0x70	112
64	0x3d	61
65	0x30	48
66	0x18	24
67	0xcc	-52
68	0x89	-119
69	0xba	-70
70	0x15	21
71	0x2d	45
72	0xef	-17
73	0xaa	-86
74	0xca	-54
75	0x61	97
76	0x40	64
77	0x48	72
78	0xab	-85
79	0x51	81
80	0xe9	-23
81	0xe6	-26
82	0xc8	-56
83	0xf3	-13
84	0x0e	14
85	0xfb	-5
86	0x7f	127
87	0xdc	-36
88	0xc4	-60
89	0xa5	-91
90	0x09	9
91	0x9f	-97
92	0x5e	94
93	0xac	-84
94	0x19	25
95	0x60	96
96	0x2f	47
97	0x27	39
98	0xf8	-8
99	0xeb	-21
100	0xf6	-10
101	0x0d	13
102	0x2c	44
103	0x37	55
104	0xa0	-96
105	0x46	70
106	0xe7	-25
107	0x03	3
108	0x9c	-100
109	0xf8	-8
110	0x1b	27
111	0x3d	61
112	0x1b	27
113	0xd4	-44
114	0x01	1
115	0x18	24
116	0xe4	-28
117	0x47	71
118	0xa0	-96
119	0x3d	61
120	0x7a	122
121	0x21	33
122	0x7f	127
123	0xb1	-79
124	0xf9	-7
125	0x64	100
126	0x65	101
127	0x7f	127
128	0x7f	127
129	0x99	-103
130	0x0d	13
131	0xe8	-24
132	0x7f	127
133	0xba	-70
134	0xb5	-75
135	0x00	0
136	0x81	-127
137	0x7f	127
138	0x0b	11
139	0x5a	90
140	0x29	41
141	0x64	100
142	0x7f	127
143	0x72	114
144	0xbe	-66
145	0x4a	74
146	0xf6	-10
147	0x43	67
148	0xed	-19
149	0x81	-127
150	0x2e	46
151	0xea	-22
152	0xff	-1
153	0x14	20
154	0xb7	-73
155	0x81	-127
156	0x20	32
157	0x08	8
158	0x7f	127
159	0x65	101
160	0x7f	127
161	0x27	39
162	0x3b	59
163	0xa5	-91
164	0x56	86
165	0x50	80
166	0x3e	62
167	0x4c	76
168	0x52	82
169	0x81	-127
170	0x10	16
171	0xb1	-79
172	0x2d	45
173	0xa2	-94
174	0xa7	-89
175	0x3c	60
176	0x86	-122
177	0x5c	92
178	0x57	87
179	0xfe	-2
180	0xed	-19
181	0x40	64
182	0x69	105
183	0x0c	12
184	0x7f	127
185	0x5a	90
186	0x99	-103
187	0x47	71
188	0x81	-127
189	0x91	-111
190	0xdf	-33
191	0x22	34
192	0x20	32
193	0xf6	-10
194	0xc8	-56
195	0x40	64
196	0xf8	-8
197	0xf7	-9
198	0x0b	11
199	0x7f	127
200	0x40	64
201	0x06	6
202	0x1b	27
203	0xd1	-47
204	0x59	89
205	0x40	64
206	0x42	66
207	0x23	35
208	0x50	80
209	0xf8	-8
210	0xa2	-94
211	0xfd	-3
212	0x52	82
213	0x86	-122
214	0x31	49
215	0x7e	126
216	0xf2	-14
217	0x58	88
218	0x7f	127
219	0xc2	-62
220	0xdd	-35
221	0x1f	31
222	0x4e	78
223	0x53	83
224	0xce	-50
225	0x44	68
226	0x92	-110
227	0x78	120
228	0xd2	-46
229	0xdd	-35
230	0x11	17
231	0x7f	127
232	0x29	41
233	0x27	39
234	0xe0	-32
235	0x33	51
236	0x81	-127
237	0xa3	-93
238	0x0d	13
239	0x3d	61
240	0xfc	-4
241	0x81	-127
242	0xd3	-45
243	0x43	67
244	0x32	50
245	0x7f	127
246	0x13	19
247	0x28	40
248	0x00	0
249	0xae	-82
250	0xe8	-24
251	0x2a	42
252	0x16	22
253	0x7f	127
254	0x81	-127
255	0xbb	-69
